version_4_points_without_rotation/DDPG_GPU_MPI/w32_s_t005/actor.pth (torch, 299863 bytes, 6 tensors)

linear1.weight f4 [256, 30]
-0.023375792 0.28342542 0.050533228 -0.09295786 -0.074428156 -0.11107888 0.015701506 0.11921547
0.12675682 -0.059000693 -0.10915984 0.032732155 -0.18629582 -0.1237872 0.11096672 -0.0759884
-0.07081084 0.15926059 -0.028287847 0.041963216 0.057283357 0.06889544 -0.332194 0.07794276
-0.053572416 -0.11891953 0.0055161156 0.10630803 -0.29205883 -0.094089806 -0.0054909643 0.14399503
0.040877342 -0.020933535 0.01226859 -0.042430464 -0.08717278 0.2630545 -0.14339587 0.16215135
0.17287256 -0.103599556 0.05258859 0.2951152 -0.14519273 0.19862893 0.16390464 -0.027249224
0.015413772 -0.07332506 0.18305509 0.021879708 -0.122197084 0.20230022 -0.15650326 -0.26270276
-0.019637916 0.0052013895 -0.22920951 0.18374488 0.22157848 -0.28714654 0.011695276 -0.09429988
-0.16377936 -0.16324002 0.14929225 -0.33482957 0.10919612 0.19014767 -0.111672714 0.13354692
-0.12920049 0.085742645 0.13846704 -0.18920217 0.16057128 0.045262363 -0.13309054 0.014800923
0.17052026 -0.037416793 -0.00535876 -0.055471163 0.06553883 0.18442343 -0.088733606 -0.055322483
-0.06765691 0.09369966 -0.012583967 0.049765244 0.13111952 -0.22986662 0.0082952995 0.1643116
-0.16904582 0.22718394 0.13646838 0.11643208 -0.03102283 0.014038289 0.11778004 -0.45558172
-0.023121621 -0.15116358 -0.58093446 0.08973332 -0.1541103 -0.16395137 -0.079089686 0.05685304
-0.04911924 -0.028373124 0.1478028 -0.06966271 0.083463416 -0.071128495 0.244895 -0.07706671
-0.21921279 -0.110758975 0.07826853 -0.064601816 0.06287935 0.08990543 0.11111503 0.1282378
0.084421284 -0.024754977 0.07382223 0.16229627 -0.10197677 -0.17155206 0.17106952 -0.13325965
-0.056842566 0.10091611 0.022363273 -0.11938038 0.06467915 0.084710784 0.18186794 0.17084378
0.19688779 -0.012381807 -0.003684809 0.14727487 0.098512284 0.029278487 -0.057048865 -0.3646581
-0.07422973 0.02875045 0.020622516 -0.26955852 0.16684887 -0.15096161 0.1643275 -0.11534813
-0.09755452 0.019069327 0.14448223 -0.10988291 -0.076513015 -0.029098472 0.14448223 -0.026698962
0.04813794 -0.12808119 0.17876442 0.028388454 -0.20283166 -0.1263452 0.030654093 0.066533215
-0.08504008 -0.018302929 0.057584904 -0.007954066 -0.006939405 -0.16002965 -0.046337187 0.006099276
-0.101265445 0.04040519 0.086202286 0.028447948 0.1657365 -0.077846505 -0.13896121 0.1884371
0.07697362 0.041784756 -0.04567838 -0.18276258 0.22960812 0.035744976 0.16964321 0.27807406
0.10218389 0.1255099 0.2832117 -0.11656079 0.008333556 0.0751021 0.121627465 -0.02443499
0.11799962 -0.17660378 -0.12672982 -0.081527874 -0.12272642 0.07521558 -0.059352394 0.09064225
-0.19971383 0.14689699 0.07683882 -0.14139837 -0.04961592 0.0047047916 0.14427517 -0.086228386
-0.08024826 0.215149 0.019191349 0.07291173 0.08796815 0.017326817 0.14116444 0.272788
0.086255856 0.049488973 0.27181917 -0.122932956 0.10012427 -0.03488967 0.08384631 0.23670408
0.21621655 0.28286287 -0.08966188 -0.019877037 -0.12862656 -0.15191594 -0.046993256 0.06886433
0.17886308 -0.13179389 0.07194439 0.05942209 -0.04439382 -0.03828159 -0.085964 0.13012904
00000000: 977e bfbc 231d 913e eefb 4e3d b160 bebd
00000010: ca6d 98bd 537d e3bd 72a0 803c 3e27 f43d
00000020: 8acc 013e b6aa 71bd 328f dfbd 2712 063d
00000030: 55c4 3ebe 2584 fdbd 8542 e33d ce9f 9bbd
00000040: 4605 91bd 3515 233e eabb e7bc 9fe1 2b3d
00000050: f4a1 6a3d 0d19 8d3d 5515 aabe 74a0 9f3d
00000060: c06e 5bbd 158c f3bd 88c0 b43b 06b8 d93d
00000070: bc88 95be 28b2 c0bd 8ced b3bb 6f73 133e
00000080: 006f 273d ce7c abbc 3202 493c 91cb 2dbd
00000090: a487 b2bd 14af 863e 5ed6 12be 010b 263e
000000a0: 8105 313e 012c d4bd 2267 573d 5719 973e
000000b0: 67ad 14be 6265 4b3e 9ed6 273e c439 dfbc
000000c0: 0c8a 7c3c 732b 96bd cb72 3b3e 133d b33c
000000d0: 7742 fabd ca27 4f3e 6442 20be fa80 86be
000000e0: b2df a0bc 6b70 aa3b e6b5 6abe 9e27 3c3e
000000f0: 78e5 623e df04 93be 8b9d 3f3c 4c20 c1bd
00000100: c7b5 27be 6428 27be 11e0 183e c86e abbe
00000110: 37a2 df3d 12b6 423e aab4 e4bd 86c0 083e
00000120: 224d 04be d799 af3d 4eca 0d3e 37be 41be
00000130: cc6c 243e 0765 393d e348 08be 927f 723c
00000140: dd9c 2e3e 5a42 19bd 8998 afbb bb35 63bd
00000150: 3939 863d 7fd9 3c3e f7b9 b5bd d499 62bd
00000160: b58f 8abd 9be5 bf3d fc2c 4ebc a4d6 4b3d
00000170: 3244 063e 2862 6bbe 02e9 073c 4d41 283e
00000180: 591a 2dbe e8a2 683e 5ebe 0b3e f173 ee3d
00000190: 9723 febc da00 663c a936 f13d 0242 e9be
000001a0: 8e69 bdbc a0ca 1abe 1fb8 14bf 1ac6 b73d
000001b0: 17cf 1dbe dee2 27be c6f9 a1bd bcde 683d
000001c0: 4231 49bd c16e e8bc 9e59 173e 53ab 8ebd
000001d0: deee aa3d d1ab 91bd c1c5 7a3e 27d5 9dbd
000001e0: 5179 60be 9ad5 e2bd 404b a03d f54d 84bd
000001f0: e3c6 803d 5720 b83d 4790 e33d c550 033e
00000200: 11e5 ac3d f3ca cabc 1c30 973d fe30 263e
00000210: 32d9 d0bd 58ab 2fbe d92c 2f3e 3875 08be
00000220: c0d3 68bd 1bad ce3d 2f33 b73c b37d f4bd
00000230: 8176 843d d97c ad3d 973b 3a3e acf1 2e3e
00000240: f49c 493e 10dd 4abc d67c 71bb 39cf 163e
00000250: cfc0 c93d 70d9 ef3c 12ac 69bd 77b4 babe
00000260: c205 98bd 1086 eb3c 8df0 a83c 9303 8abe
00000270: 6eda 2a3e ae95 1abe 7845 283e a43b ecbd
00000280: aaca c7bd 4737 9c3c 26f3 133e 4b0a e1bd
00000290: dbb2 9cbd eb5f eebc 26f3 133e c8b7 dabc
000002a0: 4a2c 453d b727 03be 050e 373e e78e e83c
000002b0: 1ab3 4fbe a360 01be 4b1e fb3c 9142 883d
000002c0: 7e29 aebd 06f0 95bc 26de 6b3d c551 02bc
000002d0: f363 e3bb d0de 23be 10cc 3dbd 6fdc c73b
000002e0: 4264 cfbd ea7f 253d d38a b03d ac0b e93c
000002f0: d4b6 293e fd6d 9fbd d94b 0ebe a8f5 403e
00000300: 58a4 9d3d 7e26 2b3d 4119 3bbd 1d26 3bbe
00000310: 641e 6b3e 5369 123d f3b6 2d3e b95f 8e3e
00000320: ca45 d13d ab85 003e 2001 913e 6cb7 eebd
00000330: 7889 083c 21cf 993d d217 f93d e32b c8bc
00000340: c9a9 f13d 9fd7 34be 76c5 01be 16f8 a6bd
00000350: fd57 fbbd a00a 9a3d 7f1b 73bd a5a2 b93d
00000360: c881 4cbe 2a6c 163e ac5d 9d3d bcca 10be
00000370: 103a 4bbd a72a 9a3b dfbc 133e 8298 b0bd
00000380: 3359 a4bd 0550 5c3e 2d37 9d3c bf52 953d
00000390: a528 b43d f8f0 8d3c 698d 103e deaa 8b3e
000003a0: e9a6 b03d f3b4 4a3d e22b 8b3e 46c4 fbbd
000003b0: f40d cd3d 78e8 0ebd 9db7 ab3d 8e62 723e
000003c0: df67 5d3e 67d3 903e a6a0 b7bd 2bd5 a2bc
000003d0: aeb6 03be da8f 1bbe 007c 40bd be08 8d3d
000003e0: e227 373e faf4 06be 9557 933d 9464 733d
000003f0: 4bd6 35bd 28cd 1cbd e50d b0bd 8c40 053e

linear1.bias f4 [256]
0.06631551 0.23412281 -0.13701126 -0.105249695 0.111104354 -0.14131989 -0.07524109 0.004297402
-0.030085675 0.23086141 0.12475642 0.18745919 -0.13507949 -0.11134424 -0.14530128 0.017162338
0.057192598 0.012243835 0.09159547 0.034232818 0.13309488 0.13179213 0.2176395 -0.111975275
-0.088282935 0.16018516 -0.09977503 0.11796649 0.20350601 -0.11760507 0.13643816 0.03884153
0.13754041 -0.084967576 -0.085947916 0.15350315 0.23084828 -0.08883648 0.010652695 -0.14391875
-0.16076902 -0.04220103 -0.0361629 0.020329582 0.030767934 0.0015555223 -0.077417195 0.065351516
0.13600372 -0.04478675 0.0032310016 0.13282084 -0.06501292 -0.095767446 0.09162911 0.115827985
-0.0642099 0.16145216 -0.17471892 0.014014023 0.09272749 0.12226335 -0.12453786 0.026245065
0.015122384 0.009770128 -0.014807902 -0.049371164 0.12986955 -0.003760849 -0.048667062 -0.10542679
-0.096001856 0.13447283 0.07916277 0.10916465 0.15560576 -0.12990257 0.056207713 -0.0025841412
-0.058504142 0.038995784 0.003701047 0.14224565 0.15075146 -0.033589307 0.13965519 -0.003919193
-0.067422286 0.22142944 0.090057954 0.023418667 -0.054904353 0.19407202 0.17059457 0.10510928
-0.068893425 0.21619771 -0.11480882 0.08422349 -0.058855228 -0.07496419 -0.109859616 0.11589928
0.08341669 -0.0044137556 -0.03815433 -0.13635808 -0.05217175 -0.06595103 -0.0634388 0.05525808
0.18359964 -0.0052876137 -0.08872997 -0.06642014 -0.06867477 -0.09783666 -0.09000226 -0.0079439655
-0.016734371 -0.03691747 0.02081369 -0.06830704 -0.037089087 0.0144843245 -0.020881401 0.076280944
-0.02864663 -0.014649644 -0.19124918 -0.07355393 -0.06460993 0.17988858 -0.14439268 -0.12504877
-0.082933895 -0.12610684 0.18239896 -0.13016625 -0.11574875 0.014433163 0.10805007 0.20051612
0.148463 0.043465827 -0.10620596 -0.15697753 -0.052382063 0.09715735 -0.04870084 -0.014868485
-0.04537142 -0.08473405 -0.09186983 -0.17195363 -0.032322645 0.18248932 0.15723993 0.07574859
-0.12664546 0.07488318 -0.0051049325 -0.17154169 0.114261836 -0.046100453 0.058021124 -0.10163831
0.11616162 -0.062337175 0.2278423 -0.1639028 0.021457568 -0.020913705 -0.107624754 -0.06417816
-0.0830126 0.02101806 0.008563286 0.16818978 -0.055354897 0.023598365 0.11224643 -0.08663439
0.042663537 0.026147082 -0.09085224 -0.05430794 0.033429466 0.07380564 -0.06993164 -0.026519317
-0.110963896 -0.1304748 -0.024671663 0.040919818 -0.049378596 -0.13313675 0.02129059 0.040601682
-0.09003976 0.026416084 -0.21609795 -0.104840785 -0.00042159515 0.08349923 0.17636673 0.08216818
-0.102711685 0.0016986949 0.13450408 -0.08990275 0.18264861 0.08888931 0.23029283 0.017201414
0.045240253 0.026072336 -0.07638898 -0.19109905 -0.020484239 -0.1493654 0.020116195 -0.05460286
0.2151683 -0.024975318 0.049343552 -0.03401392 -0.18277697 0.10137418 0.060890015 0.0737221
0.036825582 0.07723266 -0.045057483 -0.006877554 0.13159804 -0.13672568 -0.17085144 -0.16751137
-0.083475895 -0.023991717 0.22276685 0.09808782 0.14274947 -0.0056602824 0.09131927 0.025163004
0.10334592 0.024559125 0.08336439 -0.08359885 -0.00976739 0.026754523 0.052470792 -0.11560849
00000000: 6dd0 873d e4bd 6f3e ae4c 0cbe 278d d7bd
00000010: ae8a e33d 29b6 10be 0018 9abd 39d1 8c3b
00000020: 3c76 f6bc ef66 6c3e 4b80 ff3d 4df5 3f3e
00000030: 4752 0abe 7308 e4bd dcc9 14be 0898 8c3c
00000040: c942 6a3d 5e9a 483c 6896 bb3d b637 0c3d
00000050: 064a 083e 84f4 063e e4dc 5e3e 4b53 e5bd
00000060: afcd b4bd 9407 243e da56 ccbd 6a98 f13d
00000070: e163 503e edda f0bd 72b6 0b3e 4c18 1f3d
00000080: 65d7 0c3e 7b03 aebd 7605 b0bd ee2f 1d3e
00000090: 7e63 6c3e e7ef b5bd a488 2e3c 705f 13be
000000a0: a2a0 24be fdda 2cbd 8d1f 14bd 398a a63c
000000b0: 090d fc3c abe2 cb3a e88c 9ebd 04d7 853d
000000c0: 8f44 0b3e 5072 37bd 36bf 533b 3002 083e
000000d0: 7e25 85bd b921 c4bd 0ba8 bb3d 3937 ed3d
000000e0: 7b80 83bd b753 253e 84e9 32be 139b 653c
000000f0: e9e7 bd3d 3565 fa3d b50d ffbd e4ff d63c
00000100: e0c3 773c e312 203c d89c 72bc 6b39 4abd
00000110: 86fc 043e 9378 76bb 1d57 47bd 00ea d7bd
00000120: 9f9c c4bd 3fb3 093e 1720 a23d b791 df3d
00000130: 1e57 1f3e 2e05 05be 0f3a 663d b25a 29bb
00000140: 0aa2 6fbd 0bba 1f3d 448d 723b d8a8 113e
00000150: 975e 1a3e f194 09bd c501 0f3e 936c 80bb
00000160: b214 8abd 66be 623e 4e70 b83d 81d8 bf3c
00000170: 63e3 60bd d1ba 463e 58b0 2e3e 8943 d73d
00000180: ff17 8dbd ef62 5d3e e320 ebbd 5d7d ac3d
00000190: 2e12 71bd d386 99bd 14fe e0bd 9a5c ed3d
000001a0: 5fd6 aa3d 44a1 90bb b747 1cbd 74a1 0bbe
000001b0: 0cb2 55bd 5511 87bd 34ec 81bd 4c56 623d
000001c0: 8b01 3c3e b843 adbb 0fb8 b5bd 4807 88bd
000001d0: 5ca5 8cbd 965e c8bd 1b53 b8bd 6827 02bc
000001e0: 8516 89bc c636 17bd 7981 aa3c 90e4 8bbd
000001f0: baea 17bd a94f 6d3c 790f abbc 2f39 9c3d
00000200: 56ac eabc 0f05 70bc d3d6 43be 71a3 96bd
00000210: 3652 84bd b634 383e addb 13be c90c 00be
00000220: 3fd9 a9bd 2722 01be cbc6 3a3e 4d4a 05be
00000230: ae0d edbd 1379 6c3c 5b49 dd3d 1954 4d3e
00000240: af06 183e 3909 323d 8382 d9bd b8be 20be
00000250: 938e 56bd 6ffa c63d 887a 47bd f29a 73bc
00000260: 62d7 39bd 0c89 adbd 4026 bcbd 9d14 30be
00000270: c064 04bd 7bde 3a3e 8103 213e 1422 9b3d
00000280: 59af 01be 5a5c 993d 4747 a7bb a0a8 2fbe
00000290: 1c02 ea3d d4d3 3cbd 8fa7 6d3d bf27 d0bd
000002a0: 25e6 ed3d 4455 7fbd 7e4f 693e 23d6 27be
000002b0: c8c7 af3c 3853 abbc 5e6a dcbd d76f 83bd
000002c0: 8302 aabd 112e ac3c 064d 0c3c f139 2c3e
000002d0: d1bb 62bd 5c51 c13c 75e1 e53d 5f6d b1bd
000002e0: f6bf 2e3d 6832 d63c bd10 babd 0172 5ebd
000002f0: 56ed 083d 6927 973d 5238 8fbd 0a3f d9bc
00000300: 0a41 e3bd 309b 05be 3a1c cabc 8a9b 273d
00000310: 3641 4abd 0055 08be 9a69 ae3c f34d 263d
00000320: c466 b8bd 8b66 d83c c848 5dbe c4b6 d6bd
00000330: 8b09 ddb9 a501 ab3d 7b99 343e ca47 a83d
00000340: 815a d2bd bea6 de3a 70bb 093e ef1e b8bd
00000350: 3d08 3b3e 990b b63d e2d1 6b3e fbe9 8c3c
00000360: d84d 393d a795 d53c d371 9cbd 78af 43be
00000370: 90ce a7bc 3ef3 18be b8ca a43c 40a7 5fbd
00000380: 1455 5c3e 0a99 ccbc 771c 4a3d 2e52 0bbd
00000390: e329 3bbe 449d cf3d cf67 793d 9dfb 963d
000003a0: 6cd6 163d 282c 9e3d 328e 38bd 1b5d e1bb
000003b0: a3c1 063e d101 0cbe aef3 2ebe 1a88 2bbe
000003c0: 69f5 aabd 478a c4bc fe1c 643e 44e2 c83d
000003d0: eb2c 123e e479 b9bb 9905 bb3d a522 ce3c
000003e0: 07a7 d33d 3830 c93c f3ba aa3d e035 abbd
000003f0: 6707 20bc 4d2c db3c 9deb 563d 25c4 ecbd

linear2.weight f4 [256, 256]
-0.011846546 -0.03138418 0.03797561 -0.019132214 -0.017661916 -0.0018866957 -0.039417777 -0.065296344
0.013745506 0.027418463 0.046072163 -0.006721454 0.06010207 0.061329924 -0.04539109 0.0077185538
0.037981305 0.0573783 0.03832063 0.0064942916 0.051599998 -0.020790044 -0.047874402 -0.019607726
0.043389186 -0.030889293 0.038590588 0.09580513 -0.0091050975 0.17127477 -0.008876489 0.023542374
-0.013918584 -0.020573005 0.06456226 0.098745786 0.038246214 0.044398468 0.0083928695 0.050109517
0.10092921 0.13086145 -0.0018339965 0.058063492 0.0414185 0.030790277 -0.006133692 0.12803482
-0.036086373 0.004982356 0.03432241 -0.12924212 0.08969829 -0.016082903 0.050090574 0.043677606
-0.048599668 0.0381188 0.043879878 0.021234287 0.09840887 -0.1089264 0.124691874 0.124790564
0.07639626 0.040153727 0.02019378 0.052264612 0.019069534 0.034702048 -0.024191417 -0.019962499
-0.08042665 -0.026657628 0.0006034372 -0.042646714 -0.062444165 -0.018192714 0.0518884 0.052641608
0.022510992 0.13025333 -0.011482079 -0.032395337 -0.109069675 -0.0074560926 -0.009889961 0.0717955
-0.03628002 0.07997492 0.04113828 -0.06267426 0.04648124 -0.07926124 0.040427517 0.021736424
-0.06820373 0.076089755 -0.104821846 -0.0026019062 0.01674866 0.10106486 0.044380363 -0.065334246
-0.053530805 -0.046525866 0.018504653 0.08237674 -0.13199063 0.08065001 0.027440224 0.027115269
-0.03685358 0.12929064 -0.00034832742 0.07326353 -0.03039263 0.1296366 0.024885695 -0.0003482786
0.05569105 0.06186394 0.06821518 -0.09757292 -0.026721712 0.08674314 -0.018495232 0.07315379
-0.043791126 0.020844098 0.09465502 0.032462556 0.035953432 -0.058202114 -0.10585914 0.097397655
0.0005535583 0.07441031 0.069381215 -0.10288964 0.020501094 -0.028098686 0.018799316 -0.026243186
0.041446812 -0.031333514 -0.11716497 0.13828087 0.038800012 0.042815916 0.06269619 0.09684759
0.02853032 -0.002540877 0.14364244 0.0908093 0.020698743 0.108724475 0.0771485 -0.047740422
0.10585754 -0.030257735 -0.053535905 0.032553405 -0.016920855 0.13438784 -0.04377194 -0.09575714
-0.015329745 0.17418005 0.0347248 -0.09983642 0.03607678 0.12898833 0.037603438 -0.058065444
-0.033643205 0.053615794 -0.013543312 0.036760457 0.21819699 0.12286804 0.12838046 0.0015162554
0.16768463 -0.009887844 0.08969019 0.027081061 -0.01249189 0.09789413 0.11896074 0.08467632
0.101819575 0.00027998476 0.17136183 0.07228867 0.038062975 -0.048599828 0.007225971 -0.03772018
-0.054490384 0.065974616 0.10759754 0.14573364 0.11115717 0.04436302 0.010437875 -0.011531555
-0.07573979 0.017792527 0.15095785 0.014577922 -0.045259543 0.07627524 -0.013118775 0.068350695
-0.051658973 -0.060412776 -0.08025038 -0.14309226 0.11954998 -0.028819378 -0.0028345634 0.04049716
-0.061541937 -0.08422042 -0.0036922784 0.065304264 0.022633307 -0.012236831 0.06862649 -0.067421205
0.0055846265 0.0055509456 0.17472313 -0.0047139996 -0.021881465 0.017323645 0.07111726 -0.15524203
-0.017835943 -0.038135428 -0.0285758 0.0070915897 -0.08785753 -0.01077562 0.0045659156 0.0003054128
0.06814581 0.04913447 0.024962084 0.042033248 0.02092035 0.123560816 -0.0032441677 -0.03223805
00000000: 0418 42bc b38c 00bd 508c 1b3d 29bb 9cbc
00000010: b9af 90bc 014b f7ba 8974 21bd 17ba 85bd
00000020: d534 613c af9c e03c 2ab6 3c3d a53f dcbb
00000030: 972d 763d 1635 7b3d 02ec 39bd eceb fc3b
00000040: 4992 1b3d 8205 6b3d 18f6 1c3d 11ce d43b
00000050: 855a 533d e24f aabc f317 44bd 62a0 a0bc
00000060: dcb8 313d 8b0b fdbc 2a11 1e3d 7b35 c43d
00000070: 8c2d 15bc a762 2f3e b16e 11bc f0db c03c
00000080: c60a 64bc b888 a8bc 3839 843d 3b3b ca3d
00000090: 10a8 1c3d 2bdb 353d 3f82 093c a33f 4d3d
000000a0: f9b3 ce3d 8b00 063e b662 f0ba fcd3 6d3d
000000b0: 72a6 293d e43b fc3c 23fd c8bb 8f1b 033e
000000c0: 4ecf 13bd 0843 a33b a895 0c3d 0c58 04be
000000d0: bdb3 b73d 4bc0 83bc c62b 4d3d 4ae7 323d
000000e0: 7210 47bd 7522 1c3d 63bb 333d 87f3 ad3c
000000f0: 978a c93d ce14 dfbd 745e ff3d 3292 ff3d
00000100: a475 9c3d 3c78 243d 6d6d a53c 6b13 563d
00000110: b637 9c3c bc23 0e3d 142d c6bc 6588 a3bc
00000120: bab6 a4bd 1961 dabc fc2f 1e3a 52ae 2ebd
00000130: 74c5 7fbd e308 95bc ee88 543d ba9e 573d
00000140: f968 b83c 2161 053e 541f 3cbc f9b0 04bd
00000150: ec5f dfbd 3d52 f4bb 8109 22bc 8509 933d
00000160: 5c9a 14bd e4c9 a33d 9d80 283d 5d5b 80bd
00000170: 1d63 3e3d b853 a2bd 5397 253d 9610 b23c
00000180: 66ae 8bbd f2d4 9b3d d6ac d6bd be84 2abb
00000190: 7c34 893c 18fb ce3d 2fc8 353d f6cd 85bd
000001a0: 1e43 5bbd e891 3ebd 1297 973c 23b5 a83d
000001b0: 8d28 07be d52b a53d 52ca e03c d720 de3c
000001c0: c8f3 16bd c464 043e b79f b6b9 310b 963d
000001d0: f7f9 f8bc 75bf 043e 16dd cb3c 2a99 b6b9
000001e0: 4c1c 643d 0b65 7d3d 66b4 8b3d 50d4 c7bd
000001f0: 7ee7 dabc 63a6 b13d 5083 97bc a7d1 953d
00000200: 535e 33bd 3ec1 aa3c 7eda c13d 75f7 043d
00000210: e843 133d 5765 6ebd adcc d8bd 6c78 c73d
00000220: ab1c 113a 6f64 983d bd17 8e3d ceb7 d2bd
00000230: e9f1 a73c 372f e6bc 0601 9a3c f3fb d6bc
00000240: 22c4 293d 9257 00bd 30f4 efbd 8099 0d3e
00000250: c3ec 1e3d be5f 2f3d dc66 803d 0758 c63d
00000260: 6bb8 e93c d884 26bb 0117 133e 3afa b93d
00000270: 6990 a93c f0aa de3d 0800 9e3d 768b 43bd
00000280: d7cb d83d 12df f7bc 7748 5bbd b856 053d
00000290: 9b9d 8abc f79c 093e 354a 33bd 521c c4bd
000002a0: 9c29 7bbc 415c 323e 983b 0e3d 0977 ccbd
000002b0: 3fc5 133d 8415 043e 1006 1a3d 08d6 6dbd
000002c0: 75cd 09bd 3c9c 5b3d c5e4 5dbc 2292 163d
000002d0: 086f 5f3e 3da2 fb3d 2b76 033e 17bd c63a
000002e0: 85b5 2b3e a000 22bc 7eaf b73d 1ad9 dd3c
000002f0: c9aa 4cbc b87c c83d b0a1 f33d c76a ad3d
00000300: c886 d03d ebca 9239 7a79 2f3e 150c 943d
00000310: ece7 1b3d 9d10 47bd d7c7 ec3b 7a80 1abd
00000320: 4f31 5fbd b31d 873d 195c dc3d 333b 153e
00000330: 5fa6 e33d 00b6 353d 9f03 2b3c d9ee 3cbc
00000340: 771d 9bbd a2c1 913c b294 1a3e 3dd8 6e3c
00000350: 1262 39bd 3136 9c3d 21f0 56bc 73fb 8b3d
00000360: 5c98 53bd 6373 77bd 505a a4bd c786 12be
00000370: 9fd6 f43d 9e16 ecbc 15c4 39bb 5ae0 253d
00000380: 6613 7cbd c17b acbd 27fa 71bb 3ebe 853d
00000390: 7c69 b93c fd7c 48bc 0c8c 8c3d 2114 8abd
000003a0: 3eff b63b b5e4 b53b 9fea 323e e577 9abb
000003b0: c240 b3bc 51ea 8d3c eda5 913d c4f7 1ebe
000003c0: af1c 92bc e533 1cbd cc17 eabc 9160 e83b
000003d0: a6ee b3bd 3a8c 30bc ad9d 953b d01f a039
000003e0: 0890 8b3d 3a41 493d 497d cc3c 0e2b 2c3d
000003f0: 2761 ab3c 740d fd3d 1a9c 54bb 0c0c 04bd

linear2.bias f4 [256]
-0.07458428 0.060728226 -0.019528516 -0.051695805 -0.032561317 0.010333046 0.014169337 -0.021722557
-0.0061028358 0.048924167 -0.0019578668 -0.018742941 -0.017534144 -0.0018658963 0.031543296 -0.029539358
0.08368241 -0.06100299 0.09783698 0.008971974 -0.03414148 0.04364914 0.0198989 -0.02191275
0.016633589 -0.046325352 0.058532074 -0.00990327 0.030628903 -0.056284066 0.035943888 -0.0006859363
-0.0054355725 0.029187787 0.069956504 -0.0030677384 0.03291628 -0.04700886 0.076625876 0.09258661
0.053580493 0.07142713 -0.04104848 0.022779087 -0.0017650947 0.022377318 0.106090404 -0.06757213
-0.049341332 0.098111086 0.026759464 0.11394635 -0.02277866 0.006422477 0.026808703 0.033202685
0.07703238 -0.08631937 0.021656075 -0.0061128703 -0.02576228 -0.0066866335 0.06633932 -0.02567561
0.043007076 0.029999167 0.08850617 -0.04220733 -0.011470588 -0.044591688 -0.0067909304 0.09982357
0.07295586 0.022931296 -0.05542432 0.07179248 -0.003132661 -0.02787444 0.025051363 0.059627652
-0.04104515 -0.023140563 0.0851503 0.0015802525 0.02502172 -0.0739566 -0.05318985 -0.029754056
-0.0024749758 -0.049754214 -0.04555042 0.009563272 0.05681759 -0.073217794 -0.004642723 -0.041575722
0.007255231 -0.029498005 0.04357333 -0.008448976 -0.017206252 -0.0400982 -0.051736973 -0.01583693
-0.026671296 0.022588978 -0.021411905 -0.04319131 -0.06429906 -0.056304835 0.055847824 -0.008611189
0.023506893 0.030290358 0.06570878 -0.07443684 0.02945707 0.03856695 0.04418449 -0.0070179827
0.03755996 0.016408606 -0.019879233 -0.03308091 -0.022058884 0.002957536 0.03707702 0.045538105
-0.0609695 -0.03208166 0.004884613 -0.028408509 0.0047102007 -0.059802428 -0.055923447 0.06645851
0.010523326 -0.01676222 0.05265754 -0.00531812 0.062085662 -0.04903854 -0.10728577 0.09413479
0.021574384 0.036720756 0.0114875585 -0.017637873 -0.027865011 -0.043148015 0.10235196 0.0058997055
0.10466533 0.037831392 0.032195456 -0.04988833 -0.021449786 0.045079425 0.04859579 0.07959808
-0.0066722273 -0.050938115 0.042726252 0.027598314 0.019592524 0.051814973 -0.0081724 0.020251904
-0.044248186 -0.075887404 0.063468546 0.042772803 0.037726037 -0.01298394 -0.0036117516 -0.041260123
0.007351786 0.01796002 0.02357811 0.094663665 -0.032597322 0.015100714 0.050389368 -0.0050938926
0.044283725 0.101621546 0.08203299 0.029637598 0.031127758 0.07063975 -0.046627842 0.035312817
-0.031724382 -0.053273045 -0.032636438 0.04902329 -0.022878991 -0.0500505 -0.048209827 -0.017161127
-0.019117549 -0.056186467 0.0019997533 -0.072984435 0.02499216 -0.027684132 -0.010196463 -0.07803015
0.08670959 0.006400237 0.065873004 0.05661869 -0.0247987 0.020224903 0.09752805 0.10344748
-0.070556104 0.046443913 -0.0031910606 0.10450489 0.10760912 0.029822811 -0.010264615 -0.02375752
0.01853634 0.06764049 -0.02925697 0.037408568 -0.01052254 0.0065018362 0.045275066 0.03351281
-0.028436305 0.04501956 -0.05877211 0.084146135 0.04847223 0.09408178 -0.08147341 -0.025564548
-0.035360347 0.051829074 0.10328445 -0.045767713 0.06425953 0.009100869 0.09771904 0.047202982
0.031518623 0.018742993 0.071808755 0.018546231 -0.015201525 0.012253655 -0.00661998 0.04496765
00000000: a5bf 98bd 29be 783d 44fa 9fbc fbbe 53bd
00000010: 045f 05bd f04b 293c 8226 683c 81f3 b1bc
00000020: 4cfa c7bb b564 483d 8e4f 00bb cc8a 99bc
00000030: c4a3 8fbc 1791 f4ba 8b33 013d 86fc f1bc
00000040: af61 ab3d 45de 79bd c15e c83d 30ff 123c
00000050: f0d7 0bbd 71c9 323d 0503 a33c 5e82 b3bc
00000060: 2a43 883c a7bf 3dbd 54bf 6f3d 5341 22bc
00000070: 77e9 fa3c 1f8a 66bd e639 133d 68d0 33ba
00000080: e31c b2bb 3a1b ef3c 5b45 8f3d 1c0c 49bb
00000090: 39d3 063d 5d8c 40bd 07ee 9c3d 0c9e bd3d
000000a0: 3877 5b3d 6348 923d 7322 28bd 359b ba3c
000000b0: c05a e7ba a350 b73c ed45 d93d 4263 8abd
000000c0: 231a 4abd 77ee c83d aa36 db3c b45c e93d
000000d0: 509a babc a473 d23b ed9d db3c 8aff 073d
000000e0: 27c3 9d3d 36c8 b0bd 1568 b13c 794e c8bb
000000f0: 6b0b d3bc 8c1b dbbb e9dc 873d a855 d2bc
00000100: 3028 303d d0c0 f53c b942 b53d 98e1 2cbd
00000110: 22ef 3bbc c6a5 36bd 7486 debb 4d70 cc3d
00000120: e269 953d 6ada bb3c 9d04 63bd f007 933d
00000130: 554d 4dbb f058 e4bc 8438 cd3c 203c 743d
00000140: f61e 28bd 4791 bdbc 4863 ae3d 7a20 cf3a
00000150: 5afa cc3c 8f76 97bd 9add 59bd c7be f3bc
00000160: 3433 22bb 13cb 4bbd 1493 3abd 45af 1c3c
00000170: 90b9 683d 36f3 95bd fc21 98bb 4e4b 2abd
00000180: 4abd ed3b cda5 f1bc f379 323d 936d 0abc
00000190: 20f4 8cbc 033e 24bd 26ea 53bd 73bc 81bc
000001a0: c37d dabc 850c b93c 0568 afbc 5fe9 30bd
000001b0: 3aaf 83bd e69f 66bd b0c0 643d f215 0dbc
000001c0: 8791 c03c 7c23 f83c 5392 863d 5872 98bd
000001d0: f44f f13c 61f8 1d3d ccfa 343d 1bf7 e5bb
000001e0: 79d8 193d 576b 863c c6d9 a2bc d97f 07bd
000001f0: d5b4 b4bc 38d3 413b 13de 173d 2a86 3a3d
00000200: 28bb 79bd 0f68 03bd 1b0f a03b f6b8 e8bc
00000210: 0758 9a3b 64f3 74bd fc0f 65bd 661b 883d
00000220: 076a 2c3c ec50 89bc 6faf 573d a043 aebb
00000230: 894d 7e3d a3dc 48bd a4b8 dbbd bec9 c03d
00000240: c3bc b03c 8168 163d 5036 3c3c 4d7d 90bc
00000250: 2a45 e4bc f9bb 30bd e89d d13d 5152 c13b
00000260: c75a d63d 17f5 1a3d 62df 033d b557 4cbd
00000270: 76b7 afbc 34a5 383d 610c 473d 5104 a33d
00000280: b3a2 dabb 7ca4 50bd b901 2f3d dc15 e23c
00000290: 8080 a03c f03b 543d 88e5 05bc 52e7 a53c
000002a0: 963d 35bd db6a 9bbd ccfb 813d 8932 2f3d
000002b0: 9e86 1a3d 97ba 54bc 23b3 6cbb 6000 29bd
000002c0: 40e7 f03b e420 933c e126 c13c 06df c13d
000002d0: c584 05bd fc68 773c 1565 4e3d abea a6bb
000002e0: da62 353d f51e d03d ea00 a83d 8cca f23c
000002f0: a4ff fe3c 93ab 903d d6fc 3ebd 2ca4 103d
00000300: 6df1 01bd d634 5abd c9ad 05bd a5cc 483d
00000310: b96c bbbc c101 4dbd ab77 45bd 7e95 8cbc
00000320: 689c 9cbc c823 66bd 4b0e 033b dd78 95bd
00000330: 5cbc cc3c d5c9 e2bc 110f 27bc 45ce 9fbd
00000340: cc94 b13d 14b9 d13b 6de8 863d 00e9 673d
00000350: a526 cbbc b2ae a53c c9bc c73d 46dc d33d
00000360: b87f 90bd f93b 3e3d 1d21 51bb a906 d63d
00000370: 2c62 dc3d f84e f43c ea2c 28bc 219f c2bc
00000380: 86d9 973c 1987 8a3d 50ac efbc ba39 193d
00000390: bb66 2cbc 5b0d d53b 5972 393d ba44 093d
000003a0: 41f3 e8bc 6e66 383d 06bb 70bd cf54 ac3d
000003b0: d18a 463d f3ad c03d 88db a6bd be6c d1bc
000003c0: 03d6 10bd b94a 543d cc86 d33d ed76 3bbd
000003d0: 809a 833d d01b 153c ec20 c83d ea57 413d
000003e0: ac19 013d e88a 993c 7810 933d 44ee 973c
000003f0: d10f 79bc 8ec3 483c 6bec d8bb 0030 383d

linear3.weight f4 [3, 256]
-0.13418905 -0.1015449 0.094492555 -0.18993622 0.20481579 -0.027109317 -0.20711558 0.03413617
-0.13443369 0.0023897272 -0.24831545 -0.09415924 -0.1569972 -0.2057369 0.052491434 -0.24457158
0.19081189 -0.16491097 0.2072058 -0.049495187 -0.006716786 -0.05315913 0.19343045 0.027269945
-0.35062796 -0.09269006 -0.029043816 0.10471522 0.043086514 0.19267964 0.14040937 -0.1891966
-0.15764575 -0.27948043 -0.46539852 0.16030602 0.10388147 -0.0069295685 0.045172393 0.04518679
0.11326369 -0.152982 -0.19658507 -0.00042874145 -0.047643747 0.19178517 0.3239038 -0.29500216
-0.22369747 0.06988607 -0.060029216 -0.15218739 -0.13674718 -0.2431095 -0.22778821 0.042068776
-0.002841265 -0.03809762 -0.15806738 0.038849093 -0.015126887 -0.23417577 -0.047017653 0.028077925
0.13189414 0.041716494 0.14584783 -0.18900621 -0.02609766 -0.14004168 0.12003973 0.09686349
-0.031130996 -0.1374113 -0.0045892345 0.17207472 0.053910285 0.0891815 -0.020202274 0.042724133
-0.19621022 0.044926044 -0.12543088 0.08548692 -0.05926403 -0.277616 -0.19518591 0.06578574
0.1630043 0.03820006 -0.23154452 0.036182858 0.013803894 -0.26938275 -0.048172604 -0.29339775
-0.021717547 0.19105472 0.07056521 -0.08360488 0.022952484 -0.2033431 0.13718294 0.06449445
0.045069024 0.16859792 0.085519835 0.061063863 0.043633524 -0.16719902 0.04736609 -0.23019443
-0.096338846 0.050272096 0.050542776 0.073321335 -0.123600826 0.21966682 0.13686538 0.15182391
0.024945615 -0.21717183 0.1362902 -0.15381666 0.003569285 -0.15829901 0.19572103 -0.03203496
0.0173603 -0.2714012 0.049783222 0.019589333 0.02260446 -0.25126964 -0.2622061 -0.027353885
0.20049939 0.040916692 0.14988817 0.12186677 -0.1429638 -0.03866648 -0.11755415 0.16131866
-0.19733948 -0.10994346 0.09090341 -0.31974173 -0.06401694 -0.32906398 0.102368 -0.34651038
0.19544326 0.17341322 0.12725894 -0.040480968 0.057671376 -0.10913207 0.06804133 0.13892968
-0.2073248 0.021549465 -0.008794544 -0.14139692 -0.057031933 0.018443102 0.04553335 0.25862142
0.1568989 -0.011585617 -0.09813981 -0.112222366 0.13243762 0.07129217 -0.19351846 0.024051398
-0.08476867 -0.24298419 0.045896582 0.09057369 0.14776401 -0.24380907 0.15436205 0.11990045
0.010968383 0.17190073 0.10635687 0.1501707 0.29923892 0.19230375 0.030663645 0.0029870956
0.10489612 -0.10339565 -0.006232176 0.002039103 -0.23083155 -0.25059 0.004024206 -0.065115884
0.05857639 -0.11684644 0.05733012 -0.1692567 0.03031203 -0.21792062 -0.043071266 -0.15669526
0.1464888 0.098156296 -0.27753368 -0.0045223963 0.046348788 0.051016506 0.13624276 0.078608826
-0.12912598 0.097000614 0.09444986 0.026099738 0.0099429 0.047019765 -0.27577597 0.003798318
0.13905618 0.11324484 -0.3108194 0.038549263 0.017073713 0.19224052 0.13918784 0.010160337
0.036070704 0.13580707 -0.010250113 -0.08684524 0.026393294 0.109289415 -0.013019479 0.15790743
0.16133152 0.107518345 0.11589144 -0.23939607 0.0072621433 0.06636862 0.1502721 -0.10687703
0.0006842676 -0.07475544 0.18493935 0.0015933131 0.036975276 0.08346215 -0.081628025 -0.10587523
00000000: db68 09be c6f6 cfbd 5085 c13d a47e 42be
00000010: 3bbb 513e 5c14 debc 1b16 54be 5ed2 0b3d
00000020: fca8 09be f89c 1c3b 6846 7ebe 8fd6 c0bd
00000030: e0c3 20be b2ac 52be 4201 573d f970 7abe
00000040: 3164 433e 6cde 28be c22d 543e 77bb 4abd
00000050: 7c18 dcbb 63bd 59bd a212 463e 3865 df3c
00000060: 8285 b3be 49d4 bdbd 4ced edbc ef74 d63d
00000070: 7c7b 303d d04d 453e 79c7 0f3e c1bc 41be
00000080: e36d 21be 0f18 8fbe b748 eebe 4327 243e
00000090: cfbf d43d 6f11 e3bb b006 393d c915 393d
000000a0: cbf6 e73d 50a7 1cbe 994d 49be b4c8 e0b9
000000b0: 1726 43bd 5563 443e b8d6 a53e 860a 97be
000000c0: f310 65be 6e20 8f3d 32e1 75bd 03d7 1bbe
000000d0: 7407 0cbe b2f1 78be 5041 69be 4f50 2c3d
000000e0: 8434 3abb 400c 1cbd 6adc 21be 3a20 1f3d
000000f0: c3d6 77bc c6cb 6fbe 9595 40bd ad03 e63c
00000100: 420f 073e eade 2a3d 2259 153e d88a 41be
00000110: c3ca d5bc 1667 0fbe 64d7 f53d 5e60 c63d
00000120: 6e06 ffbc 8cb5 0cbe 4a61 96bb 5b34 303e
00000130: 08d1 5c3d caa4 b63d 3d7f a5bc 80ff 2e3d
00000140: 55eb 48be 5f04 383d f470 00be c413 af3d
00000150: d7be 72bd af23 8ebe d1de 47be adba 863d
00000160: 99ea 263e ab77 1c3d 021a 6dbe 7a34 143d
00000170: ba29 623c 89ec 89be a350 45bd 3b38 96be
00000180: ffe8 b1bc d9a3 433e 7e84 903d 0939 abbd
00000190: d906 bc3c 2c39 50be af79 0c3e ab15 843d
000001a0: 4c9a 383d efa4 2c3e 0625 af3d 1a1e 7a3d
000001b0: 11b9 323d 3836 2bbe f202 423d 17b8 6bbe
000001c0: 4d4d c5bd 1dea 4d3d f105 4f3d 7f29 963d
000001d0: 6e22 fdbd 57f0 603e 7026 0c3e ba77 1b3e
000001e0: bf5a cc3c 4b62 5ebe a88f 0b3e 1d82 1dbe
000001f0: aaea 693b 2319 22be 186b 483e 1737 03bd
00000200: 3037 8e3c 19f5 8abe 7ee9 4b3d cf79 a03c
00000210: fd2c b93c 6aa6 80be e13f 86be 4115 e0bc
00000220: b64f 4d3e 4398 273d 497c 193e 4995 f93d
00000230: 1a65 12be be60 1ebd 3bc0 f0bd b830 253e
00000240: 5c13 4abe 092a e1bd 912b ba3d 30b5 a3be
00000250: 501b 83bd 137b a8be 50a6 d13d cf69 b1be
00000260: 4722 483e 3c93 313e 2b50 023e 5fcf 25bd
00000270: d238 6c3d a280 dfbd 4159 8b3d 9543 0e3e
00000280: f44c 54be 8188 b03c fe16 10bc 5bca 10be
00000290: 519a 69bd fd15 973c 2e81 3a3d 076a 843e
000002a0: 1baa 203e 9ad1 3dbc 86fd c8bd d7d4 e5bd
000002b0: ba9d 073e a101 923d b429 46be 7007 c53c
000002c0: 329b adbd d9d0 78be 0efe 3b3d b37e b93d
000002d0: 734f 173e 16a9 79be 1611 1e3e 5e8e f53d
000002e0: bcb4 333c bf06 303e a1d1 d93d 59c6 193e
000002f0: d835 993e 46eb 443e 5332 fb3c 26c3 433b
00000300: c7d3 d63d 19c1 d3bd 4837 ccbb 79a2 053b
00000310: 1b5f 6cbe 554d 80be 7ddd 833b 7a5b 85bd
00000320: cced 6f3d 304d efbd fdd2 6a3d a151 2dbe
00000330: ef50 f83c 9526 5fbe 7f6b 30bd b974 20be
00000340: 2901 163e 2b06 c93d e518 8ebe 9c30 94bb
00000350: 3ad8 3d3d aff6 503d 3983 0b3e aafd a03d
00000360: 9a39 04be 42a8 c63d ee6e c13d 1ecf d53c
00000370: 8ce7 223c cc97 403d 8232 8dbe 34ed 783b
00000380: be64 0e3e e9ec e73d b823 9fbe d5e5 1d3d
00000390: 2cde 8b3c b3da 443e 4287 0e3e 8b77 263c
000003a0: e0be 133d 0211 0b3e 17f0 27bc ebdb b1bd
000003b0: c036 d83c 21d3 df3d a74f 55bc 7cb2 213e
000003c0: 1734 253e 9432 dc3d 7e58 ed3d 3e24 75be
000003d0: 46f7 ed3b 45ec 873d eee0 193e 58e2 dabd
000003e0: 6c60 333a 6119 99bd be60 3d3e b7d6 d03a
000003f0: 6373 173d 34ee aa3d 982c a7bd 1dd5 d8bd

linear3.bias f4 [3]
0.025437733 -0.051422466 0.08131654
00000000: cb62 d03c 5da0 52bd 4989 a63d
