version_4_points_without_rotation/DDPG_GPU_MPI/w32_s_t005/critic.pth (torch, 302935 bytes, 6 tensors)

linear1.weight f4 [256, 33]
0	0xbe22197e	-0.15830037
1	0x3e6c770d	0.2309229
2	0xbd36da72	-0.04464192
3	0x3a854cdb	0.001017
4	0x3b537d31	0.0032270665
5	0xbb0664c6	-0.0020506843
6	0xbe119f5b	-0.14220946
7	0x3f833dae	1.0253198
8	0xbd6d9e60	-0.058012366
9	0xbd023023	-0.031784188
10	0x3e21c958	0.15799463
11	0x3dbfff90	0.093749166
12	0xbe83c246	-0.25734156
13	0xbfa998ed	-1.3249794
14	0x3e1dfcc9	0.15428461
15	0xbdcfd26d	-0.101475574
16	0xbfde4fb7	-1.7368077
17	0x3db97314	0.090551525
18	0x3e35ec64	0.17765957
19	0x3f010841	0.5040322
20	0x3bd33015	0.006444941
21	0x3d8e34de	0.06943677
22	0x3f223273	0.6335823
23	0x3dc801d3	0.09765973
24	0x3d7e7067	0.062118914
25	0x3dd20b53	0.10256066
26	0x3e2257d8	0.15853822
27	0x3be7bd30	0.0070721135
28	0x3dab74a9	0.083718605
29	0x3d7e1f98	0.06204185
30	0xbc5bc4ba	-0.0134136025
31	0x3d611472	0.05495114
32	0xbbd3a178	-0.0064584576
33	0x3e04f460	0.12983847
34	0xbd0a2397	-0.033725347
35	0xbdac6851	-0.08418334
36	0x3a0fae36	0.00054809765
37	0x3a1e5ba7	0.0006040879
38	0x39184a2a	0.00014523478
39	0x3e087156	0.13324484
40	0x3e8baf54	0.27282202
41	0x3d93fe7f	0.07226276
42	0xbd129168	-0.0357832
43	0x3d5155b4	0.051107123
44	0x3bcca6d5	0.006245474
45	0x3e8562de	0.26051992
46	0x3eded528	0.43522
47	0x3e23208d	0.15930386
48	0x3ecf295f	0.4046125
49	0x3f6c0edb	0.9221017
50	0x3dccea5c	0.10005638
51	0xbd4aa319	-0.04947195
52	0xbecc8595	-0.39945665
53	0xbda91209	-0.08255393
54	0xbe80597c	-0.2506827
55	0xbebbc059	-0.36670187
56	0xbe092e8c	-0.13396662
57	0xbde60162	-0.112307325
58	0xbecb4dad	-0.397077
59	0xbe76ecf4	-0.24113828
60	0x3cae1ada	0.021253038
61	0xbe7bb829	-0.2458197
62	0xbe246e26	-0.16057643
63	0x36d4a680	6.3374755e-06
64	0xbb94ab97	-0.0045370567
65	0xbc2a4b5d	-0.010393945
66	0x3e2293cc	0.15876693
67	0xbecd5ec5	-0.40111366
68	0x3dafa305	0.085760154
69	0x3b18eabe	0.0023333277
70	0x3b2153a3	0.0024616502
71	0xbbdfeff3	-0.006834024
72	0xbdfa2bab	-0.1221536
73	0x3efdd49e	0.49576277
74	0x3d8984d8	0.06714791
75	0x3c858932	0.016300771
76	0x3e85beb6	0.26122063
77	0x3e1511ae	0.14557526
78	0xbda3fc06	-0.08007054
79	0xbdc41020	-0.09573388
80	0xbca6c9a4	-0.020359822
81	0xbd11a7aa	-0.035560288
82	0xbf2d1980	-0.67617035
83	0x3d128ccd	0.03577881
84	0x3d9d36fc	0.07676503
85	0xbd577956	-0.05260595
86	0x3cc8bd75	0.024504403
87	0xbd99b4b0	-0.075051665
88	0xbe9afdba	-0.30271703
89	0x3d597ef6	0.053099595
90	0xbd1d2653	-0.038366627
91	0xbe8022d4	-0.25026572
92	0xbd09e462	-0.03366507
93	0x3d82abec	0.06380448
94	0xbf035a4b	-0.5130965
95	0xbde7b6ee	-0.11314188
96	0xbce04ad8	-0.027379438
97	0xbca4bdbc	-0.020110004
98	0xbcf90c73	-0.030401444
99	0x3ef5f8bf	0.4804134
100	0x3f6a0223	0.9140951
101	0x3d0f23c0	0.034946203
102	0x3a9bb186	0.0011878468
103	0xbacd86cb	-0.001568043
104	0xbab6f3d0	-0.001395816
105	0x3eb086dc	0.3447789
106	0xbee0670a	-0.43828613
107	0x3c579b50	0.013159588
108	0x3d05232b	0.032504242
109	0xbef921ba	-0.48658544
110	0x3e048039	0.12939538
111	0xbe97c1eb	-0.29640135
112	0xbe3d065b	-0.18459456
113	0xbe1957c4	-0.14974886
114	0xbe008dd6	-0.12554106
115	0xbdfbdbaf	-0.12297761
116	0xbd37424f	-0.04474097
117	0x3bde63e9	0.0067868126
118	0xbf582faf	-0.8444776
119	0x3dc3789a	0.09544487
120	0xbe4d18a3	-0.2002893
121	0xbf318356	-0.6934103
122	0xbd9e3e74	-0.07726756
123	0xbd300532	-0.042973705
124	0xbf5f4821	-0.87219435
125	0xbd8666cd	-0.065625764
126	0xba949e15	-0.0011338616
127	0xbf6af9ed	-0.91787606
128	0xbc946993	-0.018116748
129	0x3ca416ac	0.020030342
130	0x3c51f6c2	0.012815179
131	0xba95fbc5	-0.0011442831
132	0xbd393278	-0.045214146
133	0x3de3fe30	0.11132467
134	0x3e569f51	0.20959212
135	0xbc29d628	-0.010366
136	0x3ab86d7b	0.0014070714
137	0xbcba64ce	-0.022753146
138	0x3d8e7b44	0.06957105
139	0x3da6e185	0.08148483
140	0x3d836e96	0.06417577
141	0xbd16195c	-0.03664528
142	0x3e8aecb5	0.27133718
143	0x3bd6a982	0.0065509686
144	0x3e06edfa	0.13176718
145	0x3e4b6b6d	0.19865198
146	0xbd850acb	-0.06496199
147	0xbe111ce1	-0.14171173
148	0x3e0cbd40	0.13744068
149	0x3de596ff	0.11210441
150	0xbdd0b1cd	-0.10190163
151	0xbc8866b1	-0.01665053
152	0xbd8662fa	-0.06561847
153	0xbe26371a	-0.16231957
154	0x3d7f6b7d	0.06235837
155	0x3c90c3a4	0.017671414
156	0x3b6bdb82	0.003598899
157	0xbc9d07b7	-0.019168718
158	0xbe3f15ff	-0.18660735
159	0xbe3383ff	-0.17530821
160	0x3d8dc59f	0.06922459
161	0xbe2a863a	-0.16652766
162	0xbdccd0c9	-0.1000076
163	0xbd99647a	-0.074898675
164	0x3c0cb27f	0.008587479
165	0x3e375d77	0.17906748
166	0x3e67e090	0.22644258
167	0x3cc1e683	0.023669487
168	0xbbd60bcd	-0.0065321685
169	0xbb804cd8	-0.0039154105
170	0xbbb4d6e5	-0.0055187815
171	0x3de7f380	0.11325741
172	0xbd15e04a	-0.03659085
173	0xbdfabdef	-0.12243258
174	0x3c1ef33b	0.009701545
175	0x3e8b97bf	0.2726421
176	0xbc07ba5e	-0.0082841795
177	0x3d9bdaf6	0.07610123
178	0x3e130c6f	0.14360212
179	0x3d0f2a66	0.034952544
180	0x3cd802c4	0.026368506
181	0xbd9e11b5	-0.07718221
182	0x3e04743c	0.12934965
183	0x3d708d07	0.058728244
184	0xbe103020	-0.14080858
185	0xbe0529c6	-0.13004217
186	0x3deaf6a8	0.11472827
187	0xbdca8629	-0.0988887
188	0xbddb3c95	-0.107049145
189	0x3d147248	0.0362418
190	0xbdc0e97b	-0.09419533
191	0x3d40c91b	0.04706679
192	0xbe57cb61	-0.21073677
193	0x3db46298	0.08807868
194	0xbe0035b0	-0.1252048
195	0xbbf793af	-0.007555447
196	0x3ca432ac	0.020043693
197	0xbcceafe8	-0.025230363
198	0x3e369b40	0.1783266
199	0xbd75b0ab	-0.059982937
200	0x3e5f51e0	0.21808577
201	0x3b760550	0.0037539788
202	0x39a19a51	0.00030823288
203	0x3b181b52	0.0023209644
204	0x3de81cde	0.11333631
205	0xbf277b25	-0.6542228
206	0xbcf03c30	-0.029325575
207	0xbb786b7e	-0.0037905867
208	0xbe853c94	-0.2602278
209	0x3e3ebe29	0.18627228
210	0xbe2b9610	-0.16756463
211	0xbdd61402	-0.10453035
212	0x3e2c1127	0.16803418
213	0xbe2e3d8f	-0.1701567
214	0x3d897ff0	0.06713855
215	0x3e609b22	0.21934178
216	0xbdfa83cd	-0.1223217
217	0xbf8915b1	-1.0709745
218	0xbd44f79d	-0.048087705
219	0x3def6caf	0.116906516
220	0xbedd2e8a	-0.4319957
221	0x3e1d1382	0.15339473
222	0xbd2c7c64	-0.042110816
223	0xbe489ece	-0.19591829
224	0xbc224d43	-0.009906116
225	0xbdf0c247	-0.117558055
226	0xbe13a0c1	-0.14416791
227	0xbdd246a6	-0.10267381
228	0x3d085d46	0.033292077
229	0xbc6c32b7	-0.014416388
230	0x3c973901	0.018459799
231	0xbe877023	-0.2645274
232	0x3e3b1976	0.18271431
233	0x3b24e6fa	0.0025162087
234	0x389be68e	7.43392e-05
235	0xbba050f8	-0.0048924647
236	0xba45aeb0	-0.0007540984
237	0xbe520515	-0.20509751
238	0xbebcd614	-0.3688208
239	0x3da28982	0.07936384
240	0xbd8c1ff9	-0.06842036
241	0xbe2ad1e6	-0.16681632
242	0xbddf46bf	-0.109021656
243	0x3e278bed	0.16361971
244	0x3e7eb5e6	0.24874076
245	0xbe052f7b	-0.13006394
246	0xbdfdce26	-0.12392835
247	0x3ebfb7d6	0.37444943
248	0xbd1e917c	-0.038712963
249	0x3c4d2819	0.012521767
250	0x3db425e6	0.08796291
251	0x3e73feb8	0.23827636
252	0xbdb58cd5	-0.08864752
253	0xbde6a4f0	-0.11261928
254	0x3e876b92	0.26449257
255	0x3e4d9c02	0.20079044

linear1.bias f4 [256]
0	0xbd349d2f	-0.044095214
1	0xbe35c603	-0.17751317
2	0xbdd1ada3	-0.10238197
3	0x3dfe698e	0.12422477
4	0x3d12a8b8	0.035805434
5	0xbd873cfc	-0.06603429
6	0x3e2acd03	0.16679768
7	0x3e6321d1	0.22180869
8	0xbe9750d5	-0.29553857
9	0x3da65243	0.08121159
10	0xbdb2f227	-0.08737593
11	0xbe504071	-0.20337082
12	0x3dfdc34c	0.123907655
13	0x3dc84569	0.09778864
14	0xbe106337	-0.14100347
15	0x3e10a70a	0.1412622
16	0xbcdc89d3	-0.026921188
17	0xbd84f52e	-0.06492077
18	0xbdab57a0	-0.083663225
19	0x3c476cba	0.0121719185
20	0x3e30190b	0.17197053
21	0xbe835706	-0.2565233
22	0xbe5d9a98	-0.21641004
23	0x3e1d99af	0.15390657
24	0x3e28b4f5	0.1647528
25	0xbd4feb87	-0.050761726
26	0xbd8d5b3b	-0.069021665
27	0x3e085a7d	0.13315769
28	0xbe8cb04b	-0.2747825
29	0xbe0dc422	-0.1384435
30	0x3d80fd59	0.06298322
31	0xbda412cc	-0.08011398
32	0x3e49fa6f	0.19724439
33	0xbda5b3f4	-0.08090964
34	0x3d971494	0.07376972
35	0xbdec876c	-0.11549267
36	0x3afb3e28	0.0019168304
37	0xbe5fbd9a	-0.21849671
38	0x3e311606	0.17293558
39	0xbb21ed17	-0.0024707967
40	0x3dfefab3	0.12450161
41	0xbd8aa85e	-0.06770395
42	0xbe194a36	-0.14969715
43	0xbe323db4	-0.1740635
44	0xbd8bbb95	-0.06822888
45	0x3de79c60	0.11309123
46	0x3d81b78d	0.06333838
47	0x3d70252a	0.058629192
48	0x3d8d18a6	0.06889467
49	0x3cd36ffe	0.025810238
50	0x3e7a1b3c	0.24424452
51	0x3dda0122	0.10644747
52	0x3da9e2a0	0.082951784
53	0x3e91c3f1	0.28469804
54	0x3e1b2902	0.15152362
55	0xbdf4511c	-0.11929533
56	0xbdcbadac	-0.09945235
57	0x3ca6c03c	0.020355336
58	0x3da04e5f	0.07827448
59	0xbe51a36c	-0.20472497
60	0x3df9d5de	0.12198995
61	0xbe1e9e98	-0.15490186
62	0xbdf5ff31	-0.120115645
63	0x3e2809cb	0.16409986
64	0xbd6c67c3	-0.057716142
65	0x3d8ea6da	0.06965418
66	0x3dced7c8	0.10099751
67	0xbdad6498	-0.08466452
68	0xbdd0648b	-0.10175427
69	0xbde414b2	-0.1113676
70	0xbdf12524	-0.11774662
71	0x3e47fe2c	0.19530553
72	0x3d3c91be	0.046037428
73	0x3cbec162	0.023285571
74	0xbe047b18	-0.12937582
75	0xbe53e033	-0.20690994
76	0x3bb48b80	0.0055097938
77	0xbd6c6bd7	-0.05772003
78	0xbe193daf	-0.14964937
79	0xbe2eaabc	-0.17057317
80	0x3c8527e3	0.016254371
81	0xbe83c590	-0.25736666
82	0xbdbd7362	-0.09250523
83	0x3d7296a3	0.05922569
84	0x3d76f985	0.060296554
85	0xbd3787b8	-0.044807166
86	0xbd205f6e	-0.03915351
87	0xbe5178c1	-0.2045622
88	0x3e59c0a3	0.21264891
89	0xbd522aa2	-0.05131019
90	0xbd842aff	-0.06453513
91	0xbe0600ff	-0.13086317
92	0x3dc099e1	0.0940435
93	0xbc6b4cb0	-0.014361545
94	0xbdb2c446	-0.087288424
95	0xbe483e6a	-0.19555059
96	0x3e3ee4d3	0.18641977
97	0x3e982e39	0.29722765
98	0x3d21f8a9	0.03954378
99	0xbd1dfeb3	-0.03857298
100	0xbe3d49c0	-0.18485165
101	0xbdbe8c8a	-0.093041494
102	0xbd3843aa	-0.044986404
103	0x3cb20c0a	0.021734256
104	0x3d1a504c	0.037674233
105	0xbd1e8e6c	-0.038710043
106	0xbe4609e6	-0.19339713
107	0x3d9c34c1	0.076272495
108	0x3e2d44ed	0.16920824
109	0x3e64d63d	0.2234735
110	0xbd04b0ea	-0.03239528
111	0x3c7c1907	0.015386826
112	0x3bc5fd3f	0.006042152
113	0xbddd3266	-0.10800628
114	0x3e1b05c4	0.15138918
115	0x3daf8474	0.08570185
116	0xbdc2d19d	-0.09512637
117	0x3dbec742	0.09315349
118	0xbdbd3ed7	-0.092405014
119	0x3d5f406a	0.05450479
120	0x3e32675d	0.17422242
121	0xbe84acf7	-0.25913212
122	0xbd8aa2f6	-0.067693636
123	0x3b6c7c90	0.0036084987
124	0xbd5607f4	-0.05225368
125	0xbe606fd2	-0.21917656
126	0xbe30c278	-0.17261684
127	0x3d866399	0.065619655
128	0xbad75d56	-0.0016431015
129	0x3d5b3db6	0.05352565
130	0xbdf8a989	-0.12141711
131	0x3e07cd6c	0.13261956
132	0xbd1b242f	-0.037876304
133	0xbd81d3a6	-0.06339197
134	0x3e68626e	0.22693798
135	0x3cd6f90c	0.026241802
136	0x3de876e3	0.11350801
137	0xbd895e22	-0.067074075
138	0xbe09236e	-0.13392422
139	0xbd818b2f	-0.06325375
140	0xbe93759a	-0.2880066
141	0xbd693f94	-0.0569454
142	0x3e4afc03	0.19822697
143	0x3d440d68	0.047864348
144	0x3bf27b42	0.0073999474
145	0xbdf7234f	-0.120672815
146	0xbd0a042f	-0.033695396
147	0xbe3910ef	-0.18072866
148	0x3d0fe6b9	0.035132144
149	0xbd9f224f	-0.07770216
150	0xbe15e632	-0.14638594
151	0x3c82c9e0	0.015965402
152	0xbe59a59c	-0.21254581
153	0x3d20194e	0.039086632
154	0x3e3e8514	0.18605453
155	0x3d2680cb	0.04065017
156	0xbe569e90	-0.20958924
157	0x3e4d8500	0.20070267
158	0x3cae9627	0.021311833
159	0xbd1a9a38	-0.03774473
160	0x3db30c0a	0.08742531
161	0xbe08a774	-0.13345128
162	0x3dcf7152	0.10129036
163	0xbdd1cd72	-0.10244264
164	0xbe41bdb7	-0.18920027
165	0xbc34073e	-0.010988055
166	0xbdef9934	-0.11699143
167	0x3dc306b4	0.09522763
168	0x3e3ee4a5	0.18641908
169	0x3e586a2a	0.21134248
170	0xbd03c004	-0.032165542
171	0x3d5e92c4	0.054339185
172	0x3dd74c87	0.10512643
173	0x3d9d7d13	0.07689872
174	0x3e16c64f	0.14724086
175	0xbe2b4b2b	-0.16727893
176	0xbd6932c0	-0.056933165
177	0xbd610beb	-0.054943006
178	0xbc900f52	-0.01758543
179	0xbdc178ad	-0.09446845
180	0xbe2b2e88	-0.16716969
181	0x3c43dad2	0.011954026
182	0x3e8fd423	0.28091535
183	0x3e9fb0d3	0.31189594
184	0xbe815c45	-0.2526571
185	0xbc304c9c	-0.010760453
186	0x3e260259	0.16211833
187	0xbc3c2109	-0.011482486
188	0xbd50f6d8	-0.05101666
189	0x3d6c35e1	0.05766857
190	0x3e53e751	0.20693709
191	0x3e71fb2e	0.23630974
192	0xbe840ec8	-0.25792527
193	0x3e22ab73	0.15885715
194	0xbddf1eca	-0.108945444
195	0x3cef1b4d	0.029187823
196	0x3ccbcf44	0.024879105
197	0xbd833046	-0.06405692
198	0x3e14cee1	0.14532043
199	0xbe5a845b	-0.21339552
200	0xbbde12ef	-0.0067771594
201	0xbe03bcef	-0.12865041
202	0xbe3ca64f	-0.18422817
203	0x3e3050ce	0.17218325
204	0xbe76736f	-0.24067472
205	0x3ddf08d1	0.108903535
206	0x3eb0c153	0.34522495
207	0x3def91fe	0.11697768
208	0x3e5363df	0.20643567
209	0xbda5c111	-0.08093465
210	0x3e88cca0	0.26718616
211	0x3d43cfc1	0.04780555
212	0x3ce0b342	0.027429227
213	0x3d9f818e	0.077883825
214	0xbcdb399f	-0.026760874
215	0x3daaa849	0.08332879
216	0xbcb0a69c	-0.02156382
217	0xbe342566	-0.17592391
218	0xbe01cf9a	-0.1267685
219	0xbe2d98c8	-0.16952813
220	0x3df12b82	0.117758766
221	0xbcfa4b3f	-0.030553458
222	0xbe694351	-0.22779585
223	0xbd26a99e	-0.040689103
224	0x3e20224b	0.15638082
225	0x3e46add7	0.19402252
226	0xbe512d20	-0.2042737
227	0x3d27651c	0.04086791
228	0x3d8587c3	0.06520035
229	0x3c20d846	0.009817189
230	0x3d6f9b83	0.058497917
231	0xbdfaaf17	-0.12240427
232	0xbe875af4	-0.2643658
233	0xbded3652	-0.115826264
234	0xbd83d11a	-0.06436367
235	0x3d9c9c6d	0.07647023
236	0x3e71ed14	0.23625594
237	0xbc957e1f	-0.018248616
238	0xbd85a1e7	-0.06525021
239	0xbe5d6a7c	-0.21622652
240	0xbe018091	-0.126467
241	0xbcc551ed	-0.024086917
242	0x3e7677bb	0.24069111
243	0x3d6e4054	0.058166817
244	0xbc89e023	-0.01683051
245	0x3ca1ec19	0.0197659
246	0x3d4406c3	0.04785801
247	0xbdc441f7	-0.09582894
248	0xbd3924e3	-0.045201194
249	0x3d31d156	0.04341253
250	0x3e783093	0.2423728
251	0xbe53b4f9	-0.20674504
252	0x3e0a9b59	0.13535823
253	0x3e67398e	0.22580549
254	0xbdba0e5f	-0.09084772
255	0x3dd61d43	0.104548

linear2.weight f4 [256, 256]
0	0x3c9c26d5	0.019061485
1	0xba18bcb9	-0.0005826462
2	0x3b9f2608	0.0048568286
3	0xbd597692	-0.053091593
4	0x3ce39701	0.027781965
5	0x3d8d2157	0.06891125
6	0xbb9904e7	-0.004669774
7	0x3cc1d0e8	0.023659185
8	0x3d6fa508	0.058506995
9	0xbd515332	-0.05110473
10	0x3d760682	0.0600648
11	0x3d9b9abd	0.07597873
12	0x3daaaf27	0.08334189
13	0x3c39b6a1	0.011335046
14	0xbb092459	-0.0020926206
15	0xbd4ce7b0	-0.050025642
16	0xbc2917c3	-0.010320607
17	0x3ce98963	0.028507894
18	0x3d69fa3b	0.057123404
19	0x3d92827e	0.07153796
20	0x3b8d557f	0.0043131704
21	0xbd7f5ce4	-0.062344447
22	0x3c914af6	0.01773594
23	0x3d98c2fe	0.07459067
24	0xbca05dee	-0.01957604
25	0x3cae78c7	0.021297826
26	0x3d83f988	0.06444079
27	0x3d293481	0.041309837
28	0xbcbd9265	-0.023141095
29	0x3b94f886	0.004546228
30	0xbda0e3d0	-0.07855952
31	0xbca46762	-0.020068828
32	0xbd12d60e	-0.03584867
33	0x3d6664d4	0.0562485
34	0xbbbcabe0	-0.005757794
35	0x3dd7a228	0.10528976
36	0xbd47b2fd	-0.04875468
37	0x3cbfd746	0.02341808
38	0x3cd6b1d8	0.02620785
39	0x3c9766bd	0.018481607
40	0x3ca93e0a	0.020659465
41	0x3e74090c	0.23831576
42	0x3d1e5390	0.03865391
43	0x3b17683e	0.0023102905
44	0xbcf859f4	-0.03031633
45	0x3bfab6f8	0.007651206
46	0xbd2eb7d8	-0.042655796
47	0x3d308929	0.043099556
48	0xbd21a7c0	-0.03946662
49	0x3d4372a5	0.047716755
50	0x3df3cf4f	0.11904775
51	0xbd1e9795	-0.03871878
52	0x3d423f28	0.04742351
53	0xbd5b60bc	-0.05355905
54	0xbcf97cdb	-0.030455044
55	0xbcd3481f	-0.025791226
56	0x3d62de20	0.055387616
57	0x3d231ee2	0.039824374
58	0xbd1185ea	-0.0355281
59	0xbd93cbe9	-0.07216627
60	0x3d454082	0.048157223
61	0xbb83db94	-0.0040239785
62	0x3d533fcf	0.051574524
63	0x3d816e5f	0.0631988
64	0x3c9a3ae1	0.018826904
65	0x3d6b97b8	0.057517737
66	0x3bd455b2	0.0064799422
67	0xbc2e0cbd	-0.010623154
68	0x3c8ab1bc	0.016930453
69	0xbd3d0a9e	-0.046152703
70	0x3ad3f89d	0.0016172115
71	0x3df0897f	0.11744975
72	0x3dad60c2	0.08465721
73	0xbc85b001	-0.016319277
74	0x3d52012c	0.05127065
75	0x3cdd2058	0.026992962
76	0xbd360a3e	-0.04444336
77	0x3d459759	0.04824004
78	0xbd06b594	-0.03288801
79	0x3cee15e8	0.02906318
80	0xbccf697a	-0.02531885
81	0x3c081e70	0.008308038
82	0x3d60c209	0.054872546
83	0x3d4debfd	0.050273884
84	0x3d69fedd	0.057127822
85	0x3da19783	0.07890227
86	0x3e108106	0.14111719
87	0xbc8465ee	-0.016161885
88	0x3d95ed12	0.07320608
89	0xbd049cb4	-0.032376006
90	0x3d25f4b2	0.040516563
91	0xbba99970	-0.005175762
92	0x3d16b6fb	0.036795598
93	0x3e0b7aaf	0.13621019
94	0xbb937610	-0.004500158
95	0xbda9bf89	-0.082884856
96	0x3cf67f08	0.03008987
97	0xbd0949d1	-0.033517662
98	0x38f5494c	0.00011696163
99	0x3d8cbac1	0.06871558
100	0xbd5d34df	-0.0540055
101	0x3dc7ab93	0.09749522
102	0x3d01cfdb	0.031692367
103	0x3e045ae0	0.12925291
104	0x3d131e1a	0.03591738
105	0xbc39802a	-0.011322061
106	0x3d4079d1	0.046991173
107	0x3d2ea413	0.042636942
108	0xbca214fd	-0.019785399
109	0x3dbc4f61	0.09194828
110	0xbc97e6de	-0.018542703
111	0xbb96b243	-0.004598887
112	0x3db69e4d	0.08916912
113	0xbc2adccf	-0.010428621
114	0x3db1dfa0	0.08685231
115	0x3d2dcc86	0.042431377
116	0x3cc1e2c2	0.023667697
117	0xbda7a3c2	-0.08185531
118	0x3d5a7204	0.05333139
119	0xbc8cfc59	-0.017210172
120	0xbd0a3f3a	-0.033751704
121	0xbce600ca	-0.028076548
122	0xbcb6723d	-0.02227127
123	0x3d2ec576	0.042668782
124	0xbdccc13e	-0.099977955
125	0x3d10027a	0.03515861
126	0xbd3e1094	-0.04640253
127	0x3d8d22ef	0.06891429
128	0x3d973b65	0.073843755
129	0x3d07b95e	0.033135764
130	0x3ea6d43a	0.3258379
131	0x3d7fe8ff	0.06247806
132	0x3ccffa63	0.025387948
133	0xbcb61032	-0.02222452
134	0xbc04a14d	-0.008095098
135	0xbc9098ad	-0.017650926
136	0xbd648d34	-0.055798724
137	0x3ca598f7	0.02021454
138	0xbcee4f70	-0.029090613
139	0xbc5cfa50	-0.0134874135
140	0xbbfbe460	-0.0076871365
141	0xbd270d45	-0.04078414
142	0x3b559c42	0.0032594358
143	0xbd2f20b6	-0.042755805
144	0xbc82d397	-0.015970035
145	0xbc6c5707	-0.014425046
146	0xbd697dd7	-0.057004776
147	0xbd501c83	-0.05080844
148	0xbd9b55e2	-0.0758474
149	0x3d431e31	0.047636215
150	0xbd897e0f	-0.06713497
151	0x3d18c44f	0.03729659
152	0x3cb2fef2	0.021850083
153	0xbcae356a	-0.021265704
154	0x3b95e6d3	0.0045746355
155	0x3c38739a	0.01125803
156	0x3c217926	0.009855544
157	0x3e01d031	0.12677075
158	0x3d8fef50	0.07028067
159	0x3c062f5f	0.008190005
160	0xbc8aa035	-0.016922096
161	0x3d08f54e	0.033437066
162	0xbc218ba5	-0.009859954
163	0xbc80801a	-0.015686084
164	0x3c8b0117	0.016968293
165	0xbb0555df	-0.0020345373
166	0x3cca654e	0.024706509
167	0x3d57a0bd	0.052643526
168	0x3d64a554	0.05582173
169	0x3dbcc6dd	0.09217618
170	0x3b54de4d	0.0032481134
171	0x3d067c9b	0.032833677
172	0x3c5cef05	0.013484721
173	0x3cfccab1	0.03085837
174	0x3d269b8e	0.040675692
175	0xbd8e8a2d	-0.06959949
176	0x3cf165e7	0.029467536
177	0x3d459265	0.048235316
178	0x3dbaf761	0.09129215
179	0x3d7de753	0.061988186
180	0xbca2626b	-0.01982232
181	0xbcc1a7ea	-0.023639638
182	0x3d8d5953	0.06901803
183	0x3cc94568	0.024569228
184	0xbb96d93c	-0.004603533
185	0xbcd6dfc4	-0.026229747
186	0x3d688154	0.056763962
187	0xbbc2e33c	-0.0059474986
188	0x3ccc858d	0.024966026
189	0x3d7d6594	0.06186445
190	0x3cf426c9	0.02980365
191	0x3cf73a8e	0.030179288
192	0x3d17cf30	0.037062824
193	0x3c8a60f2	0.01689193
194	0x390e436a	0.00013567289
195	0x3cf12b98	0.029439732
196	0x3c1ed32b	0.009693901
197	0x3d8ccbe0	0.068748236
198	0x3d44c323	0.04803766
199	0x3ce76bac	0.028249584
200	0x3cd5d4e9	0.0261025
201	0x3d18f0ca	0.03733901
202	0x3d06654d	0.03281145
203	0x3da04ff5	0.078277506
204	0x3cdc472e	0.02688941
205	0x3ab44fd0	0.0013756696
206	0x3d5d8958	0.05408606
207	0x3d8c60ae	0.06854378
208	0xbca522ab	-0.020158133
209	0x3c2e52cc	0.0106398575
210	0xbcc1937c	-0.023629896
211	0x3d399d8a	0.045316257
212	0xbb198e74	-0.0023430856
213	0xbcad675b	-0.021167448
214	0x3ccc7e90	0.024962693
215	0x3cd365af	0.025805322
216	0xbb9f9ecb	-0.0048712245
217	0x3d283ee0	0.041075587
218	0x3d1f3c5f	0.038875934
219	0xbd0d41e8	-0.03448668
220	0x3c97a412	0.018510852
221	0x3d1e6ee9	0.03867999
222	0x3d7c9828	0.061668545
223	0xba930985	-0.0011218047
224	0x3d52b1a5	0.051438946
225	0xbcf5c09a	-0.029999066
226	0xbd9e6eca	-0.07735975
227	0xbd1fa4ad	-0.038975406
228	0x3daaddda	0.08343096
229	0x3dce3d8c	0.10070333
230	0x3d14dc95	0.036343176
231	0xbccc20e7	-0.024918033
232	0xbd9d15f4	-0.07670203
233	0xbd4b1c22	-0.049587376
234	0x3c66fa11	0.014097706
235	0x3d0b3b33	0.033992004
236	0x3d0e78cb	0.034783166
237	0x3ca692f1	0.020333739
238	0xbca6700a	-0.020317096
239	0x3d7db2c0	0.061938047
240	0xbd46124d	-0.048357297
241	0xbd0af318	-0.03392324
242	0xbda8392e	-0.08214031
243	0x3c04fba1	0.008116634
244	0x3c348299	0.011017465
245	0xbce0cbe3	-0.02744097
246	0x3d9cb80f	0.07652294
247	0x3c9ad43f	0.018900035
248	0x396f3d14	0.0002281557
249	0x3dadc5be	0.08484982
250	0x3d5cca11	0.053903643
251	0x3da5b06b	0.0809029
252	0x3b878d58	0.0041367225
253	0x3dccac3c	0.099937886
254	0xbc0655f8	-0.0081992075
255	0x3c9f5659	0.019450353

linear2.bias f4 [256]
0	0x3c1c99ee	0.009558184
1	0xbbb7d733	-0.0056103705
2	0xbd153ddc	-0.036435947
3	0x3d4d07c9	0.050056253
4	0xbd8ed3df	-0.06974005
5	0xbd882a31	-0.06648672
6	0x3cb09448	0.021555081
7	0x3c8036d9	0.015651153
8	0x3bc5fb50	0.0060419217
9	0xbda841e4	-0.08215693
10	0xbdd086fb	-0.101819955
11	0x3d242545	0.040074605
12	0xbd375132	-0.04475517
13	0x3c72b056	0.01481255
14	0xbd335d3a	-0.04379008
15	0xbd0278fb	-0.031853657
16	0x3d5f821a	0.054567434
17	0xbd1c5dc4	-0.03817536
18	0xbaebce0f	-0.0017990487
19	0x3d54e89c	0.051979646
20	0x3d377036	0.044784747
21	0xbc2d3b67	-0.010573245
22	0xbcd35016	-0.025795024
23	0xbcf43f76	-0.029815417
24	0xbd976ae2	-0.07393433
25	0x3d632526	0.05545535
26	0x3d1bb335	0.038012702
27	0x3df06659	0.11738271
28	0xbd65abd9	-0.05607209
29	0x3d5b534b	0.05354623
30	0x3d0bd0d3	0.034134697
31	0xbd0e0010	-0.03466803
32	0xbc9793d1	-0.018503102
33	0xbd08ca47	-0.03339603
34	0xbd1c0579	-0.038091157
35	0x3cd17651	0.025569113
36	0x3d5ec4bf	0.05438685
37	0xbd644e4b	-0.05573873
38	0x3cca082f	0.024662105
39	0xbdccc0f7	-0.099977426
40	0x3cbe172a	0.023204405
41	0xbc97f2a7	-0.018548323
42	0xbc2d7f46	-0.010589426
43	0xbaa8f27b	-0.0012889648
44	0x3d99a05f	0.075012915
45	0x3d0d4c36	0.03449651
46	0xbd51b4c8	-0.051197797
47	0xbcdab548	-0.02669777
48	0x3c951121	0.018196644
49	0x3b5107f5	0.0031895612
50	0x3d9a3c0a	0.07530983
51	0xbcf96e3e	-0.030448075
52	0x3c910623	0.017703122
53	0xbda71747	-0.08158737
54	0x3c33def2	0.010978447
55	0x3d865bbd	0.065604664
56	0xba6d6d40	-0.0009057112
57	0x3d4b79ea	0.049676813
58	0xbb409394	-0.0029384838
59	0xbcd1fa16	-0.025631946
60	0x3d0b04bc	0.033940062
61	0xbb3fc31c	-0.0029260581
62	0x3d1e13aa	0.03859297
63	0xbd6e1d65	-0.0581335
64	0x3c2e77a1	0.010648639
65	0x3cc0b6b6	0.023524623
66	0xbcbda81d	-0.023151452
67	0x3b234ae3	0.0024916462
68	0x3be8c01e	0.0071029803
69	0xbd087bdf	-0.033321258
70	0x3c465daa	0.012107292
71	0x3cd1f1a4	0.025627919
72	0x3cdf2737	0.027240379
73	0x3c02b543	0.0079777865
74	0x3ccb771c	0.02483707
75	0xbd81f712	-0.06345953
76	0xbd97b224	-0.074070245
77	0x3c28b248	0.010296412
78	0x3d021e5f	0.031767245
79	0xbcd0cf9e	-0.025489625
80	0xbaad244b	-0.0013209669
81	0x3c0f8b40	0.008761227
82	0x3d49c176	0.049256764
83	0xbc226e43	-0.009913984
84	0xbc8d86a9	-0.017276125
85	0x3d47cf8f	0.048781928
86	0xbd5687da	-0.052375652
87	0xbd9c26e7	-0.076246075
88	0xbb013ad1	-0.0019718895
89	0xbc21806b	-0.009857277
90	0xbdbef3e2	-0.09323861
91	0x3c486341	0.012230695
92	0x3c0b573a	0.008504683
93	0xbdb5cb55	-0.08876673
94	0xba9e0bf9	-0.0012058011
95	0xbcd5da79	-0.026105152
96	0x3c9e715e	0.019341167
97	0x3c9b41e7	0.018952323
98	0xbc64c6fb	-0.013963456
99	0x3b886e2a	0.004163523
100	0x3d109089	0.03529409
101	0xbbb92a70	-0.005650811
102	0x3cd2e947	0.025746
103	0x3da8d8e3	0.08244493
104	0xbd0ebcec	-0.03484814
105	0xbd09cf51	-0.033644978
106	0xbc3b053c	-0.011414822
107	0xbdabf882	-0.083970085
108	0x3d58e7fc	0.052955613
109	0x3d869734	0.065718085
110	0xbc38ffce	-0.011291457
111	0x3d923421	0.07138849
112	0xbdc4c056	-0.09606998
113	0x3d4ccc31	0.04999942
114	0xbd883923	-0.06651523
115	0x3cc0556a	0.023478229
116	0xbd97da04	-0.0741463
117	0xbc7d73f7	-0.015469543
118	0xbda39ec4	-0.079892665
119	0xbbf30c7b	-0.0074172593
120	0x3da737f4	0.08164969
121	0xbd241be8	-0.040065676
122	0xbc1b74db	-0.00948831
123	0xbcb28bbc	-0.021795146
124	0xbda3218d	-0.07965384
125	0xbcb7a3ef	-0.022417037
126	0xbd133353	-0.03593762
127	0x3d9326be	0.07185124
128	0xbdda5c14	-0.10662094
129	0xbd0d6de1	-0.034528617
130	0x3cd71165	0.026253412
131	0xbc80b6bf	-0.01571214
132	0x3ca5dea1	0.02024776
133	0xbdd8d1cb	-0.1058689
134	0xbe4b8d57	-0.19878136
135	0x3c623bfc	0.013808247
136	0xbcadf839	-0.021236526
137	0xbb9c47c2	-0.0047692964
138	0x3d16932c	0.036761448
139	0x3d74b6c2	0.059744604
140	0xbd0ae9c5	-0.033914346
141	0xbc921d6f	-0.0178363
142	0x3da34d18	0.07973689
143	0xbcb18b28	-0.0216728
144	0xbdf40bf1	-0.1191634
145	0xbd3c6e20	-0.04600346
146	0xbd62861b	-0.055303674
147	0xbd036f0d	-0.03208833
148	0x3d52929f	0.05140936
149	0x3bf31722	0.007418529
150	0xbc13466f	-0.008988961
151	0x3c042419	0.008065247
152	0xbd2f7b5b	-0.04284225
153	0x3c3a6d7c	0.011378642
154	0xbcf1b988	-0.029507414
155	0x3d2caa29	0.042154465
156	0x3dcaa9ee	0.09895693
157	0x3d3b77c0	0.0457685
158	0xbceefc24	-0.029172964
159	0xbc1d2951	-0.00959237
160	0xbcf15c65	-0.029463002
161	0x3cc08ecb	0.023505589
162	0xbc041c6b	-0.008063416
163	0xbd36436f	-0.044497903
164	0x3d1bd50c	0.038044974
165	0x3c02588f	0.007955684
166	0x3ccf85f0	0.025332421
167	0xba57597d	-0.0008214934
168	0xbbb4aebe	-0.005513995
169	0x3d8baecf	0.068204515
170	0xbe1e3796	-0.15450892
171	0x3d01f87f	0.031731125
172	0x3db5653c	0.088571995
173	0xbc435c2d	-0.011923832
174	0xbce27a34	-0.027646162
175	0xbc8ec7ab	-0.017429193
176	0xbd775c56	-0.060390793
177	0x3d541448	0.051777154
178	0x3c6ea241	0.0145650515
179	0x3d21b958	0.0394834
180	0x3b9b8179	0.004745659
181	0xbc34189e	-0.010992197
182	0xbd71d0e0	-0.05903709
183	0xbcb4bb8d	-0.022062087
184	0xbdc120cf	-0.09430086
185	0xbd21c306	-0.03949263
186	0xbb3dfbf6	-0.0028989292
187	0x3d85322d	0.06503711
188	0x3dc88902	0.09791757
189	0x3cc46dcc	0.023978136
190	0xbce97e9b	-0.028502753
191	0x3dc765b4	0.09736195
192	0xbd85ba95	-0.06529728
193	0xbbd60af0	-0.0065320656
194	0x3dc04df7	0.093898706
195	0xbd8b295c	-0.06794998
196	0x3c32db33	0.010916519
197	0xbc131b9e	-0.008978752
198	0x3d9ceab7	0.07661956
199	0x3c28baa2	0.010298403
200	0x3cfb925a	0.030709434
201	0x3c8c6c95	0.01714162
202	0x3d39f08f	0.04539543
203	0x3d263cc0	0.04058528
204	0xbc2ca460	-0.010537237
205	0x3aa1536f	0.001230819
206	0x3cbfaf44	0.023399003
207	0x3da50d37	0.08059161
208	0x3c0ac6f9	0.00847029
209	0x3d01011b	0.031495195
210	0x3d7fc482	0.062443264
211	0x3d56c29b	0.052431684
212	0x3afb34b5	0.0019165488
213	0x3baccc4c	0.0052733775
214	0xbd084d7f	-0.03327703
215	0x3d339485	0.04384281
216	0x3db233e5	0.08701304
217	0x3be36d54	0.006940523
218	0x3c3428e9	0.010996082
219	0x3bd3a095	0.006458352
220	0x3c7186ee	0.014741642
221	0x3d49a5d6	0.04923042
222	0xbac34355	-0.0014897386
223	0x3c990a18	0.01868157
224	0x3d739c65	0.05947532
225	0xbc252afc	-0.010081049
226	0xbdb73133	-0.08944931
227	0xbc99cf08	-0.018775478
228	0x3cdaa59e	0.0266903
229	0x3dfa7485	0.122292556
230	0x3d1210af	0.035660442
231	0xbccd50cc	-0.025062941
232	0x3d703693	0.058645796
233	0xbb7be5b0	-0.0038436465
234	0x3d96febe	0.07372807
235	0xbd164666	-0.03668823
236	0xbd76a7ce	-0.060218625
237	0xbd65cbb7	-0.05610248
238	0xbc362eea	-0.011119584
239	0xbd72dbe8	-0.05929175
240	0xbd6c343b	-0.057667
241	0x3d33b40b	0.043872874
242	0xbcb49e77	-0.022048218
243	0x3c16d822	0.0092068035
244	0x3c45a5d5	0.012063463
245	0x3d04c9d1	0.03241903
246	0x3d9b8c09	0.07595069
247	0x3c0ad61f	0.008473902
248	0x3d4cedb6	0.050031386
249	0x3da665d3	0.0812489
250	0x3d3f67ff	0.046730038
251	0x3c96c92e	0.018406477
252	0xbd16241e	-0.036655538
253	0x3d5cf0ea	0.05394069
254	0x3aaea385	0.0013323879
255	0xbbc86a58	-0.006116193

linear3.weight f4 [3, 256]
0	0xbd1b1cb7	-0.03786918
1	0x3ef3b7a2	0.47601038
2	0x3f30d8f4	0.69081044
3	0xbe99035f	-0.29885384
4	0x3f1169ff	0.5680236
5	0x3ae8d0b3	0.0017762393
6	0xbd5f6f48	-0.054549485
7	0xbb83ebae	-0.004025898
8	0x3effe5f6	0.49980134
9	0x3cebe4c2	0.028795604
10	0x3eb0777a	0.34466153
11	0x3c7676b3	0.015042949
12	0x3d2545ab	0.040349644
13	0x3d3f67de	0.046729915
14	0x3ecb1e10	0.39671373
15	0xbce6b13e	-0.028160688
16	0xbdaaf3ae	-0.083472595
17	0xbc75fd58	-0.015014015
18	0xbd361357	-0.044452038
19	0x3cc14f57	0.023597402
20	0xbc155323	-0.00911406
21	0xbec6935c	-0.387843
22	0xbf38e870	-0.7222967
23	0xbedce007	-0.4313967
24	0xbd4304d7	-0.047612038
25	0xbd341e78	-0.04397437
26	0xbf4b70d9	-0.79469067
27	0xbeee351f	-0.46524903
28	0xbcca8792	-0.024722848
29	0x3cc47b54	0.023984589
30	0xbf4996a5	-0.7874549
31	0xbe7f839c	-0.24952549
32	0x3c802457	0.015642328
33	0xbf8001fe	-1.0000608
34	0x3f2f1da4	0.68404603
35	0x3f06f00e	0.52710044
36	0xbc90a1e5	-0.017655322
37	0xbc17ae3e	-0.009257851
38	0xbd6fb15c	-0.058518752
39	0xbfe40d35	-1.781653
40	0x3cf9a0b1	0.030472131
41	0x3ce6d99b	0.028179934
42	0xbca5a034	-0.020217992
43	0x3c6bccbe	0.014392076
44	0xbce67cdc	-0.02813571
45	0x3f606336	0.87651384
46	0x3f987bd6	1.1912792
47	0x3f200f05	0.6252292
48	0x3f79431e	0.9736804
49	0xbe88ab1b	-0.26693043
50	0xbe1b7f0e	-0.15185186
51	0xbf0f1a38	-0.5589938
52	0xbe4bd95e	-0.19907138
53	0x3f81ddae	1.0145776
54	0x3eba0df3	0.36338767
55	0xbeabbfed	-0.33544865
56	0xbea9f714	-0.33196318
57	0x3eb06083	0.34448633
58	0xbd1e62e9	-0.038668547
59	0xbf132cfd	-0.5749052
60	0xbd0a71a4	-0.033799782
61	0x3d6bccf1	0.057568494
62	0xbf2c25a7	-0.6724495
63	0xbc7434e4	-0.014905188
64	0xbc99675d	-0.018726045
65	0xbd8ee077	-0.06976407
66	0xbd379db3	-0.044828128
67	0x3d8b5679	0.06803603
68	0x3e3619ff	0.17783354
69	0x3f53f1c7	0.827908
70	0xbf8a1ad8	-1.0789442
71	0x3d8c634d	0.068548776
72	0x3f3508cc	0.7071655
73	0x3d1e446a	0.038639463
74	0x3ddee648	0.108837664
75	0x3bad69fb	0.005292175
76	0xbdb16d66	-0.08663444
77	0x3ecf66f4	0.40508235
78	0x3ee4bed0	0.44676828
79	0xbd2c036e	-0.04199546
80	0x3bde450e	0.0067831343
81	0xbd194a42	-0.037424333
82	0xbe254bab	-0.16142146
83	0x3d42418f	0.047425803
84	0xb8b3373d	-8.545674e-05
85	0xbd5f00ed	-0.054444242
86	0xbc692c68	-0.014231779
87	0x3f015e86	0.50534856
88	0x3e77f2b1	0.24213673
89	0xbd59bdfb	-0.053159695
90	0xc002db9c	-2.044654
91	0xbdb54179	-0.088503785
92	0x3f1a18ea	0.60194266
93	0x3f7ba3ef	0.9829702
94	0x3e5b6046	0.21423444
95	0xbd0ba69e	-0.034094445
96	0x3f86fb3b	1.054542
97	0x3cd419d5	0.025891224
98	0xbd1cb721	-0.038260583
99	0xbf2a0f23	-0.66429347
100	0x3cd83b98	0.026395604
101	0xbd0f5993	-0.034997534
102	0xbcacf5df	-0.021113334
103	0xbc2ef7fe	-0.010679243
104	0x3e93d235	0.28871313
105	0xbc9d6972	-0.01921532
106	0x3b96319f	0.004583552
107	0x3d796d88	0.060895473
108	0x3f1e65b2	0.61873925
109	0xba1be902	-0.00059475016
110	0x3d7c863c	0.061651453
111	0xbc3edd27	-0.0116494065
112	0x3cf91331	0.030404659
113	0x3c20946f	0.009801014
114	0xbc8dbd21	-0.017302098
115	0xbd540292	-0.051760264
116	0x3e338315	0.17530473
117	0x3ec6a782	0.38799673
118	0x3ca19fcd	0.01972952
119	0xbed3d1c0	-0.41370964
120	0x3d039bcb	0.032130998
121	0x3ed4d19c	0.4156617
122	0xbf2375d2	-0.63851655
123	0x3f17da44	0.5931742
124	0xbcc666f3	-0.024219012
125	0x3c110bb4	0.008852888
126	0xbea0374e	-0.31292194
127	0x3c36bdf9	0.011153691
128	0xbb98dfb6	-0.0046653403
129	0xbf20fb91	-0.6288386
130	0xbf95d157	-1.170451
131	0x3d20eca6	0.039288186
132	0x3e6d18f7	0.23154055
133	0xbfada248	-1.3565149
134	0xbf87cc52	-1.0609229
135	0x3ee014e3	0.43765935
136	0x3d3590b5	0.044327457
137	0xbebde0a5	-0.37085453
138	0xbca7b705	-0.020473013
139	0xbb86babb	-0.0041116155
140	0xbf393318	-0.7234359
141	0xbc7dd18f	-0.015491857
142	0xbcce1386	-0.025155794
143	0x3c1f6b8b	0.00973023
144	0xbf2947c3	-0.66125125
145	0x3f17e1b5	0.59328777
146	0xbcb87d9b	-0.02252083
147	0xbf91335b	-1.1343797
148	0xbf62ac26	-0.8854393
149	0xbcdc7c61	-0.026914777
150	0xbd06ea38	-0.032938212
151	0xbc0aa003	-0.008461001
152	0xbcd3271a	-0.025775481
153	0x3ee584dd	0.4482793
154	0x3d2598b2	0.040428825
155	0x3c80ba2d	0.015713776
156	0xbd932c49	-0.07186181
157	0x3f1d5c32	0.61468804
158	0x3ca338a2	0.019924466
159	0x3deccf9a	0.11563034
160	0xbaa54c2c	-0.0012611202
161	0xbdbc7a34	-0.09202996
162	0xbbab9a30	-0.0052368864
163	0x3c03cd17	0.008044503
164	0xbb2d5081	-0.002644569
165	0x3b589e88	0.0033053476
166	0x3e294474	0.16530019
167	0x3f0f9120	0.5608082
168	0x3d2d50e8	0.042313486
169	0xbcf48bb1	-0.029851766
170	0xc007ffa9	-2.1249793
171	0x3d88fe89	0.06689174
172	0x3cf614c0	0.030039191
173	0xbd60a188	-0.05484155
174	0x3ede5e3e	0.43431276
175	0xb699b90c	-4.5812976e-06
176	0xbd19ca1d	-0.037546266
177	0x3f2255b2	0.6341201
178	0xbed187f3	-0.40924034
179	0xbecc632a	-0.39919406
180	0x39ae39d2	0.00033230946
181	0x3c478afb	0.012179132
182	0x3d0f47a0	0.034980416
183	0x3ed8c670	0.42338896
184	0x3f4eca6b	0.80777615
185	0xbca65bb3	-0.020307397
186	0xbd2d11e1	-0.04225338
187	0xbd10b2bd	-0.035326708
188	0xbe808266	-0.25099486
189	0x3cba52e7	0.022744609
190	0xbd17709c	-0.036972627
191	0xbf0f4928	-0.55971
192	0xbd027977	-0.03185412
193	0xbcf8b4a5	-0.030359576
194	0xbd551a04	-0.052026764
195	0x3cafa1ae	0.0214394
196	0x3c4aeeb4	0.012386013
197	0x3b0d5421	0.0021565037
198	0xbd651e95	-0.05593737
199	0x3d9fef57	0.07809322
200	0x3b8c7b91	0.004287191
201	0xbf1865d7	-0.59530395
202	0xbd110dc1	-0.035413507
203	0x3c09d665	0.008412932
204	0xbd09df9d	-0.03366052
205	0x3d1653b0	0.036700904
206	0x3c902cd8	0.017599508
207	0x3d2ca866	0.042152785
208	0xbcc2198a	-0.023693819
209	0xbd857ee1	-0.06518341
210	0xbe991201	-0.29896548
211	0xbd61855e	-0.05505883
212	0x3d4f4f6a	0.050612845
213	0xbcdd6b83	-0.027028805
214	0xbed0da7f	-0.407917
215	0x3c758f5f	0.014987796
216	0x3c94b3fc	0.01815223
217	0xbb02ba29	-0.0019947386
218	0x3d43c3ba	0.04779408
219	0xbe9341dd	-0.28761187
220	0x3e1b46a3	0.15163665
221	0x3eb33cc2	0.35007292
222	0xbd3939c3	-0.0452211
223	0xbcb6494b	-0.022251746
224	0x3c05461a	0.008134389
225	0x3efe57b8	0.496763
226	0x3c8b79d7	0.017025871
227	0xbfb5077d	-1.414291
228	0xbcceaaec	-0.025227986
229	0xbf9e4441	-1.236458
230	0xbe21814f	-0.15771984
231	0x3cba6933	0.022755241
232	0xbe0c1abe	-0.13682076
233	0x3cec88c3	0.028873807
234	0xbd52dafa	-0.051478364
235	0x3e51800c	0.20459002
236	0xbb14ade7	-0.0022686662
237	0x3defb484	0.117043525
238	0x3e92b20e	0.2865147
239	0x3f154b27	0.583178
240	0x3d1e8766	0.038703345
241	0xbe556082	-0.20837596
242	0xbe1a905d	-0.15094133
243	0xbccf0efd	-0.025275702
244	0x3f2d6418	0.67730856
245	0x3d07e207	0.03317454
246	0x3f92509a	1.1430848
247	0xbd33450a	-0.043767013
248	0xbd057278	-0.03257987
249	0x3edfcb93	0.43710002
250	0x3d42dfb7	0.047576632
251	0x3f3f6cd3	0.7477543
252	0xbc93be82	-0.018035177
253	0xbd1c399d	-0.03814088
254	0x3cd10c83	0.025518661
255	0x3b37c40b	0.0028040435

linear3.bias f4 [3]
0	0xb9504a1e	-0.00019864037
1	0x3c111b54	0.008856613
2	0x3c96f29e	0.018426236
