version_6_points_without_rotation/DDPG_GPU_MPI/w32_m_t005/actor.pth (torch, 312151 bytes, 6 tensors)

linear1.weight f4 [256, 42]
0.07417508 -0.100507684 0.08490019 -0.0068626567 -0.045153834 -0.08433258 0.0994843 0.032031503
0.15148285 0.028432686 -0.05894456 0.0717992 -0.10283165 0.019351967 0.13863216 -0.02779273
0.09459896 0.18270615 -0.09336802 0.18392622 0.14684214 0.039848953 -0.21223179 0.13998808
-0.08717902 0.11476935 -0.0026741242 0.06788554 -0.021874722 -0.08887671 -0.02107351 0.2076449
0.015880413 0.0024270068 0.09457014 -0.094299436 -0.095846385 0.27761772 -0.1369383 0.1247874
0.112651706 -0.1012967 0.030957622 0.1547195 -0.14222671 0.11354454 0.018326592 -0.047877178
0.0067879963 0.15487525 0.066275194 0.020950899 0.051393863 0.080532365 -0.11586699 -0.2086732
-0.112336494 0.030708732 -0.2977299 0.055082224 0.19715588 -0.42323697 -0.114401475 -0.08382794
-0.14190778 -0.19473442 0.10966783 -0.112983204 0.07402396 0.1443681 0.12040038 0.09485989
-0.10812899 0.28816614 0.09679079 -0.13950703 0.3079423 0.011983678 -0.077104524 0.113653734
0.17481016 -0.006287702 -0.15728328 0.006251738 0.054246027 0.37579018 -0.04971256 -0.032288935
-0.06314488 0.07440339 0.025360921 -0.020700525 0.14746445 -0.14096163 0.0686189 0.14260168
-0.14452754 0.13092424 0.14838725 0.08222423 -0.028468687 0.04277871 0.075202346 -0.30577493
0.007919771 -0.13545604 0.053026535 0.10800596 -0.10364888 -0.19152018 -0.049056042 0.07861663
-0.19537526 -0.0057446756 0.15604472 -0.31339267 0.09190341 -0.031795714 -0.08875502 -0.039690945
-0.12521213 -0.21263923 0.058473006 -0.019757112 0.047504496 0.06184788 0.13229285 0.01240887
0.07249518 -0.049991395 0.034775 0.04494219 -0.060350187 -0.13630418 0.15315361 -0.08294823
-0.016363664 0.09363701 -0.026774233 -0.1737647 0.08392985 0.010259135 0.049887072 0.17825785
0.08630326 -0.009163432 0.052315895 0.07824977 -0.052284416 0.057639163 -0.03360225 0.2019519
-0.073587865 -0.020595051 0.17125869 -0.14009185 0.14080612 0.19768222 0.12527911 -0.1122962
0.15865755 0.0012621502 0.08604345 0.08811829 -0.08240319 -0.058431838 0.2224512 -0.042019125
-0.0111601325 -0.3082131 0.13254096 -0.0096634375 -0.07463044 -0.2039737 -0.010604738 0.028925503
-0.09085606 -0.040531 0.124927334 -0.028232522 0.037046485 0.03449063 -0.08903389 0.026770439
0.050064724 0.047945824 0.1275463 0.24631056 0.073918864 -0.087312706 -0.3072463 0.105174065
0.11436705 0.06682807 -0.056450203 -0.10247213 0.15408862 0.011697794 0.12879683 0.16344132
0.1428187 0.082512096 0.14931768 -0.04042391 -0.011875558 -0.033665016 0.16589575 -0.017327689
0.112102084 -0.08167289 -0.04136073 0.049435288 -0.13100894 0.13095118 -0.042983606 0.06330823
-0.12613752 0.1403695 0.03380624 -0.091135934 -0.054844987 -0.02739749 0.13191518 -0.07352115
-0.10007779 0.188523 0.025311476 0.02617073 0.056481674 -0.1641514 -0.0026139722 0.17298192
0.14770544 -0.054773226 0.14158987 -0.16842702 0.071230926 -0.12195185 -0.027658444 0.1852329
0.12121034 0.020655053 -0.06535174 -0.018367078 -0.25005317 -0.0815051 -0.03308409 -0.16844021
0.16621672 -0.10911436 0.046067026 0.06551707 -0.010564712 -0.086561106 -0.09839914 0.097421095
00000000: 1be9 973d f9d6 cdbd 27e0 ad3d 23e0 e0bb
00000010: 3af3 38bd 8fb6 acbd 6dbe cb3d 7733 033d
00000020: 521e 1b3e aaeb e83c da6f 71bd 750b 933d
00000030: 6699 d2bd 0488 9e3c 97f5 0d3e 94ad e3bc
00000040: 19bd c13d 5217 3b3e bc37 bfbd 2857 3c3e
00000050: c95d 163e a838 233d 4a53 59be 0959 0f3e
00000060: ea8a b2bd 310c eb3d 5c40 2fbb 9307 8b3d
00000070: 9e32 b3bc fe04 b6bd 5ba2 acbc dda0 543e
00000080: a417 823c 6b0e 1f3b fdad c13d 1020 c1bd
00000090: 1c4b c4bd e923 8e3e 8e39 0cbe 8990 ff3d
000000a0: f0b5 e63d a574 cfbd d79a fd3c ca6e 1e3e
000000b0: e1a3 11be 0a8a e83d a621 963c dc1a 44bd
000000c0: d76d de3b 9e97 1e3e 4abb 873d 38a1 ab3c
000000d0: 5f82 523d 27ee a43d ac4b edbd 6dae 55be
000000e0: ad10 e6bd e190 fb3c 0e70 98be e69d 613d
000000f0: 3be3 493e 84b2 d8be 524b eabd fcad abbd
00000100: 4650 11be 7668 47be 8799 e03d bd63 e7bd
00000110: e099 973d 3bd5 133e 7994 f63d e745 c23d
00000120: bb72 ddbd 838a 933e 403a c63d eeda 0ebe
00000130: 9daa 9d3e 3057 443c fae8 9dbd 4ac3 e83d
00000140: 6f01 333e 1109 cebb de0e 21be 61db cc3b
00000150: 1531 5e3d 9267 c03e 669f 4bbd 6741 04bd
00000160: 1a52 81bd ce60 983d b5c1 cf3c 2694 a9bc
00000170: ec00 173e 3f58 10be 1188 8c3d 2d06 123e
00000180: 07ff 13be 0111 063e d4f2 173e 2d65 a83d
00000190: 2a37 e9bc bb38 2f3d b003 9a3d 888e 9cbe
000001a0: edc1 013c fdb4 0abe 5a32 593d 3b32 dd3d
000001b0: dd45 d4bd de1d 44be fdee 48bd c101 a13d
000001c0: 7410 48be d53d bcbb 30ca 1f3e 0175 a0be
000001d0: db37 bc3d 393c 02bd 31c5 b5bd f992 22bd
000001e0: 9c37 00be 19be 59be 6481 6f3d abd9 a1bc
000001f0: 1394 423d 3454 7d3d c777 073e 934e 4b3c
00000200: 5a78 943d c7c3 4cbd 3b70 0e3d 4d15 383d
00000210: c231 77bd 5393 0bbe 4dd4 1c3e c3e0 a9bd
00000220: 170d 86bc c3c4 bf3d a355 dbbc 60ef 31be
00000230: 6ae3 ab3d ee15 283c 6356 4c3d 3a89 363e
00000240: c3bf b03d 3822 16bc 3149 563d 6a41 a03d
00000250: 2f28 56bd 0b17 6c3d 83a2 09bd 7bcc 4e3e
00000260: 3cb5 96bd f4b6 a8bc 705e 2f3e 3d74 0fbe
00000270: 7b2f 103e 356d 4a3e 2b49 003e 8dfb e5bd
00000280: 2077 223e bc6e a53a 8c37 b03d 5d77 b43d
00000290: 01c3 a8bd 3956 6fbd 3fca 633e 3f1c 2cbd
000002a0: fdd8 36bc 1cce 9dbe d1b8 073e 6553 1ebc
000002b0: d8d7 98bd 7bde 50be 7fbf 2dbc 2df5 ec3c
000002c0: be12 babd d503 26bd e7d9 ff3d e447 e7bc
000002d0: 0ebe 173d 0c46 0d3d 6657 b6bd ae4d db3c
000002e0: ab10 4d3d d762 443d 7f9b 023e d638 7c3e
000002f0: c662 973d 01d1 b2bd 634f 9dbe 8065 d73d
00000300: 4639 ea3d 28dd 883d 5438 67bd e8dc d1bd
00000310: 68c9 1d3e 1ba8 3f3c 51e3 033e 295d 273e
00000320: 113f 123e 1afc a83d bce6 183e 8b93 25bd
00000330: b391 42bc 54e4 09bd 93e0 293e ccf2 8dbc
00000340: c795 e53d 1e44 a7bd de69 29bd a87c 4a3d
00000350: 3527 06be 1118 063e 940f 30bd bfa7 813d
00000360: 322a 01be 06bd 0f3e 6978 0a3d 7aa5 babd
00000370: 23a5 60bd b370 e0bc c614 073e 4292 96bd
00000380: 96f5 ccbd 2c0c 413e 035a cf3c 0064 d63c
00000390: 5459 673d 4e17 28be 2d4f 2bbb 2c22 313e
000003a0: 1840 173e e459 60bd effc 103e 2278 2cbe
000003b0: 85e1 913d e4c1 f9bd f693 e2bc b1ad 3d3e
000003c0: 203d f83d c934 a93c 22d7 85bd 8e76 96bc
000003d0: f806 80be 25ec a6bd 2f83 07bd 977b 2cbe
000003e0: b734 2a3e 5977 dfbd c7b0 3c3d d02d 863d
000003f0: 9d17 2dbc f346 b1bd 7d85 c9bd b684 c73d

linear1.bias f4 [256]
-0.0046275426 -0.07010069 -0.0056155086 -0.034159932 0.19356555 0.031977147 0.12344988 -0.12287005
0.09993294 -0.043399155 0.061409686 0.06374832 -0.0065437066 -0.005036971 -0.032427583 -0.03209767
0.06801201 -0.1467302 0.0027026657 0.009491567 -0.021310942 0.056626048 -0.14053313 -0.09799404
0.017586285 -0.05715623 0.049770623 -0.08429102 -0.03465513 0.022988701 -0.15694177 -0.0898409
0.06608352 -0.071627975 0.11159312 0.14725676 0.1579566 0.10117786 -0.040329814 0.0013029194
-0.09642123 0.035100203 -0.10063931 0.013670791 0.1465376 0.069924 0.15531631 -0.047473434
0.08488379 0.1300838 0.11130764 -0.007974832 -0.05575464 -0.07675547 0.108556755 0.0050578234
-0.11304081 0.057148375 0.058392335 0.094194114 0.11608219 0.15871169 -0.03285082 -0.004196075
-0.04560944 0.105090626 0.09540068 0.037636425 0.13645647 0.10935588 -0.055798646 -0.0057971794
0.14102355 -0.055705644 0.052588195 -0.022975242 -0.05211391 -0.12145742 0.07411003 -0.02164308
0.025729634 -0.013722264 0.0750607 -0.044653706 0.18364964 0.09245112 0.10271824 -0.10690426
0.13275416 -0.04901818 0.012360297 0.09084197 0.0743712 0.11411249 0.025429647 0.04551941
-0.17860697 -0.10580178 0.047829747 0.0707044 -0.13217747 -0.039136115 -0.05033524 0.031115891
-0.053773314 -0.13441274 -0.011741449 -0.020311086 0.014366826 0.10521775 -0.0013508751 0.181729
0.082218416 -0.12916571 0.017709143 0.071760654 0.03359138 0.049084473 -0.12725267 0.072593436
0.078226306 -0.122025445 -0.056725133 0.13191523 -0.17252414 0.0035011494 0.08256133 0.06939487
0.03701831 0.12265087 0.063628435 -0.11310072 0.18758942 -0.0632852 -0.030604823 -0.03851596
0.022760399 0.10639855 0.080053456 0.03884585 -0.10420391 0.1031643 0.120840184 -0.11309124
-0.08426926 -0.027790401 0.024979318 0.043734077 0.082349226 -0.089059845 -0.014037545 -0.012537403
-0.084822334 0.034052487 0.1511839 0.147598 -0.028813966 0.058075305 0.14148332 -0.04907414
-0.025324196 -0.07278404 0.059687465 0.14578979 0.04767464 0.008773067 -0.02814743 0.039199423
-0.11344252 0.09072364 -0.020696072 0.14772902 -0.07870741 0.095106 -0.022142518 0.028277768
0.028675497 -0.103883155 -0.05954999 -0.07475548 -0.08159221 0.03478585 0.09000848 0.07194144
0.123458825 0.038287517 -0.04217339 -0.06429004 -0.0065297754 0.11948924 0.15066986 0.10038168
0.19257994 0.055003192 -0.105700806 0.11248465 0.027798733 0.13596262 0.12757015 0.044238083
0.1862675 -0.12804452 0.011878308 0.00018521518 -0.1445473 -0.06755895 0.060894698 0.0076064416
0.057368767 0.11515803 0.16235602 -0.10523727 -0.033540647 -0.03483823 -0.093190104 0.038048152
-0.14875093 -0.1258408 -0.10031487 0.1687614 0.12283384 0.17823014 0.14366186 0.041259807
0.13962032 0.033647772 0.13693665 -0.04941217 0.08336166 0.033117484 -0.06383352 -0.002597869
0.017245037 0.058747105 -0.093875155 -0.015228205 0.02008494 0.05314676 -0.027280586 0.17542748
0.10683447 0.111459225 -0.12227308 -0.092078395 0.08580075 0.053151064 -0.0777157 0.050493136
-0.12030694 0.018714 -0.037018795 0.12168788 -0.012554501 0.04812002 0.19500251 0.07159367
00000000: a4a2 97bb f390 8fbd 4d02 b8bb 49eb 0bbd
00000010: 0c36 463e 78fa 023d 4ad3 fc3d 4ba3 fbbd
00000020: a4a9 cc3d 50c3 31bd b988 7b3d 7b8e 823d
00000030: 976c d6bb 2d0d a5bb c9d2 04bd d978 03bd
00000040: e149 8b3d 7140 16be 351f 313b 8482 1b3c
00000050: 4994 aebc b7f0 673d ebe7 0fbe 19b1 c8bd
00000060: 1d11 903c a71c 6abd 48dc 4b3d c5a0 acbd
00000070: 8af2 0dbd cd52 bc3c 58b5 20be 81fe b7bd
00000080: cc56 873d b0b1 92bd ef8a e43d 7aca 163e
00000090: 60bf 213e 5636 cf3d e030 25bd b8c6 aa3a
000000a0: 7e78 c5bd 3bc5 0f3d fc1b cebd 74fb 5f3c
000000b0: f40d 163e 5034 8f3d 3d0b 1f3e 8173 42bd
000000c0: 8dd7 ad3d b034 053e 43f5 e33d dfa8 02bc
000000d0: fa5e 64bd f931 9dbd 0153 de3d 19bc a53b
000000e0: f181 e7bd 6a14 6a3d cd2c 6f3d d8e8 c03d
000000f0: 80bc ed3d 5185 223e 958e 06bd 3a7f 89bb
00000100: f7d0 3abd c139 d73d 6f61 c33d a728 1a3d
00000110: 3fbb 0b3e faf5 df3d 1f8d 64bd 44f6 bdbb
00000120: 7a68 103e 9a2b 64bd b866 573d 9336 bcbc
00000130: 6575 55bd abbe f8bd 00c7 973d d44c b1bc
00000140: f4c6 d23c 59d3 60bc 6db9 993d cee6 36bd
00000150: a70e 3c3e 0357 bd3d f15d d23d 9ff0 dabd
00000160: b5f0 073e 4ac7 48bd d882 4a3c 5b0b ba3d
00000170: ed4f 983d cfb3 e93d d651 d03c 9072 3a3d
00000180: bfe4 36be 9bae d8bd 20e9 433d 78cd 903d
00000190: 8859 07be 314d 20bd 532c 4ebd c1e6 fe3c
000001a0: 6841 5cbd 7ea3 09be 355f 40bc 6f63 a6bc
000001b0: d662 6b3c 677c d73d d90f b1ba 2b17 3a3e
000001c0: 2162 a83d 0444 04be c412 913c 40f7 923d
000001d0: 1d97 093d cd0c 493d 864e 02be deab 943d
000001e0: 1d35 a03d 7ae8 f9bd 9d58 68bd c914 073e
000001f0: 2baa 30be 8a73 653b ea15 a93d e61e 8e3d
00000200: 83a0 173d 6130 fb3d a04f 823d 5aa1 e7bd
00000210: 7117 403e ac9b 81bd f7b6 fabc e9c2 1dbd
00000220: 0474 ba3c 7ce7 d93d 11f3 a33d d31c 1f3d
00000230: dc68 d5bd ce47 d33d 0f7b f73d 619c e7bd
00000240: 5d95 acbd b2a8 e3bc 6da1 cc3c 8122 333d
00000250: b6a6 a83d 0265 b6bd bbfd 65bc ae69 4dbc
00000260: 55b7 adbd 9f7a 0b3d f4cf 1a3e ee23 173e
00000270: 440b ecbc 5fe0 6d3d 01e1 103e f701 49bd
00000280: b074 cfbc cc0f 95bd d87a 743d eb49 153e
00000290: 7c46 433d e9bc 0f3c 7095 e6bc 938f 203d
000002a0: 8d54 e8bd 51cd b93d cf8a a9bc 4746 173e
000002b0: 5a31 a1bd efc6 c23d 3a64 b5bc c7a6 e73c
000002c0: e0e8 ea3c b1c0 d4bd b1ea 73bd 6719 99bd
000002d0: d119 a7bd 9c7b 0e3d 5e56 b83d 0956 933d
000002e0: fbd7 fc3d 5fd3 1c3d 01be 2cbd 7faa 83bd
000002f0: baf7 d5bb c6b6 f43d 3349 1a3e e994 cd3d
00000300: ad33 453e 074b 613d aa79 d8bd 5a5e e63d
00000310: 2bba e33c c939 0b3e c0a1 023e fe32 353d
00000320: e8bc 3e3e 1a1e 03be 3c9d 423c 5236 4239
00000330: 3504 14be 595c 8abd b86c 793d 753f f93b
00000340: 83fb 6a3d f9d7 eb3d a840 263e a386 d7bd
00000350: eb61 09bd 88b2 0ebd 74da bebd 61d8 1b3d
00000360: 2a52 18be 69dc 00be e271 cdbd cacf 2c3e
00000370: 4f90 fb3d f681 363e 181c 133e 0b00 293d
00000380: a1f8 0e3e 3fd2 093d 1f39 0c3e 6a64 4abd
00000390: 85b9 aa3d 33a6 073d 26bb 82bd 0241 2abb
000003a0: 7745 8d3c cea0 703d 9e41 c0bd b97f 79bc
000003b0: 2c89 a43c 6bb0 593d 897b dfbc 43a3 333e
000003c0: 08cc da3d bc44 e43d 4f6a fabd 9993 bcbd
000003d0: 4eb8 af3d eeb4 593d 6929 9fbd e4d1 4e3d
000003e0: 7c63 f6bd 1a4e 993c 05a1 17bd 7f37 f93d
000003f0: 65b1 4dbc 8019 453d bdae 473e b49f 923d

linear2.weight f4 [256, 256]
-0.055302773 0.085135624 -0.07236755 0.05215015 0.024153773 0.030129654 0.016484974 -0.076736346
-0.0071038473 0.097039685 0.11235072 0.0027350385 -0.037387643 -0.061458956 -0.09843033 0.011399782
-0.03936637 -0.064611465 -0.050909244 -0.0064008506 0.03888413 -0.0055420804 0.033644795 0.07326132
-0.057625283 0.019635592 0.029370334 -0.0303295 0.099705204 -0.15551992 -0.033263374 -0.036204156
0.011787756 0.035716735 0.08508566 0.082212895 -0.015754092 -0.026641937 0.036519073 0.0025432918
-0.0031965661 0.07586216 0.03175277 0.13148521 -0.03097864 -0.024716955 0.023659613 0.049598426
0.0007629135 0.07361665 0.01261912 -0.05906199 0.036142834 -0.004579748 0.0072355755 0.030507516
0.08943042 -0.08979341 0.038882766 0.058857586 0.0029885978 -0.11377284 0.037173722 0.027189653
0.06948233 0.057153907 0.062231164 -0.07138497 0.04543548 -0.041017294 -0.01932522 0.045524124
0.08900617 0.027468534 0.009331623 0.215643 0.005577956 0.021669764 -0.012217468 0.014573907
-0.3159542 0.014388941 -0.071571946 -0.072493926 0.053182747 0.03929812 0.02473378 0.08757554
-0.07066664 0.023669086 -0.012116216 -0.04424173 0.057898663 -0.044435028 -0.07539171 0.039353836
-0.058976345 -0.013627309 0.07827882 -0.0033397235 0.02532339 -0.011337857 -0.06079586 0.074187435
0.080584496 -0.06274513 0.011422203 -0.039716642 -0.037607063 0.08234325 -0.036063164 -0.025999648
-0.053940065 -0.058810722 -0.11480714 -0.12385044 0.014134917 0.023438746 0.059996795 0.026066296
0.013643426 -0.043208405 -0.0016482656 -0.020452267 -0.0032671797 0.11082205 0.070103586 -0.015587485
-0.031197844 0.12080321 0.060585946 0.025094379 0.088483535 0.0020690218 0.1253375 -0.10443888
0.064689085 0.062822774 -0.10917028 0.0172949 -0.105800904 0.085486285 -7.938619e-05 -0.008098333
-0.009458547 -0.003731394 0.045413397 0.07895509 0.029443327 -0.07973202 0.035708163 0.08745061
-0.031623185 -0.00077086827 0.036777597 -0.052391283 0.0018432759 -0.072021686 -0.019181306 0.019784521
-0.03715604 0.09444374 -0.06280366 -0.014218643 -0.04742911 0.044336934 0.07414699 0.039534293
0.029138999 0.022607196 -0.08050049 0.11962461 -0.04478684 0.013535792 -0.03558739 0.019900382
0.024553593 0.02199948 -0.054252714 -0.06001102 0.08351853 -0.036278427 -0.055583585 0.057043325
-0.028686367 -0.034791443 0.09211534 0.12535737 -0.0056508444 0.02670427 -0.0021268632 0.07010676
0.034968782 -0.019440437 -0.012370623 0.09166302 0.034739368 -0.0056696706 0.067958266 0.08715367
-0.106978334 0.07136291 -0.024800677 0.07277425 0.016007133 -0.0405171 0.3674731 -0.046065688
0.025520219 -0.031240832 0.028448543 0.0020008907 -0.16790244 0.073574156 0.08211923 -0.040553734
0.024409642 0.06625653 -0.003388482 0.021901166 0.015458242 0.0069685765 0.03954603 0.0061443704
-0.022876313 -0.25810307 0.05468111 0.020164186 0.017860465 -0.026203623 0.09242663 0.049506806
-0.0046241903 0.0013115029 -0.036683947 0.039349236 -0.022732219 0.03744387 -0.06564658 0.048530843
0.08884455 -0.08143122 -0.023941407 -0.07810135 0.018133443 -0.01989487 0.0033883925 0.038446024
-0.08587631 -0.061930522 0.038142417 0.0015702966 -0.037886035 0.02886137 0.0028354055 0.049788307
00000000: 2985 62bd 965b ae3d 7035 94bd 659b 553d
00000010: 22de c53c 77d2 f63c 7f0b 873c f227 9dbd
00000020: 64c7 e8bb bebc c63d 2218 e63d 553e 333b
00000030: c923 19bd 63bc 7bbd d795 c9bd 27c6 3a3c
00000040: a13e 21bd 0453 84bd 3686 50bd 3abe d1bb
00000050: f744 1f3d 579a b5bb 20cf 093d 080a 963d
00000060: 7d08 6cbd d2da a03c 0e9a f03c 9275 f8bc
00000070: 3e32 cc3d 9d40 1fbe 2d3f 08bd cf4a 14bd
00000080: 6f21 413c b64b 123d 6441 ae3d 3c5f a83d
00000090: ba0e 81bc 3140 dabc 0695 153d 5bad 263b
000000a0: 7b7d 51bb 9f5d 9b3d 310f 023d 0fa4 063e
000000b0: ebc6 fdbc 367b cabc ced1 c13c b827 4b3d
000000c0: 42fe 473a 54c4 963d 6dc0 4e3c fcea 71bd
000000d0: 820a 143d b611 96bb 6818 ed3b e6ea f93c
000000e0: 4c27 b73d 9be5 b7bd 8943 1f3d a714 713d
000000f0: 5adc 433b bc01 e9bd 7943 183d d6bc de3c
00000100: c04c 8e3d 371a 6a3d 1be6 7e3d 4832 92bd
00000110: 8e1a 3a3d c001 28bd ec4f 9ebc 8177 3a3d
00000120: de48 b63d b105 e13c aae3 183c 85d1 5c3e
00000130: 49c7 b63b ca84 b13c c62b 48bc 65c7 6e3c
00000140: c0c4 a1be 98bf 6b3c 5094 92bd b277 94bd
00000150: 27d6 593d 11f7 203d 7f9e ca3c ce5a b33d
00000160: acb9 90bd ace5 c13c 1883 46bc d136 35bd
00000170: 2627 6d3d 8101 36bd f866 9abd 7d31 213d
00000180: 2e91 71bd 1445 5fbc a550 a03d 43df 5abb
00000190: ff72 cf3c 6bc2 39bc 1405 79bd 95ef 973d
000001a0: 7c09 a53d 8580 80bd 3124 3b3c ebad 22bd
000001b0: dd09 1abd 94a3 a83d f8b6 13bd 37fd d4bc
000001c0: 42f0 5cbd 83e3 70bd 0120 ebbd 4da5 fdbd
000001d0: 2496 673c 9d02 c03c 33bf 753d fc88 d53c
000001e0: ad88 5f3c 4cfb 30bd 9e0a d8ba 838b a7bc
000001f0: 2e1e 56bb acf6 e23d 7892 8f3d a762 7fbc
00000200: 9f92 ffbc ac67 f73d f828 783d ba92 cd3c
00000210: db36 b53d 6d98 073b 7958 003e 0de4 d5bd
00000220: b67b 843d 3aa9 803d ab94 dfbd 09ae 8d3c
00000230: 25ae d8bd 6f13 af3d 237c a6b8 dfae 04bc
00000240: 06f8 1abc 678a 74bb 6603 3a3d 35b3 a13d
00000250: 2233 f13c 8b4a a3bd b942 123d 4e19 b33d
00000260: 5087 01bd 1814 4aba 1ba4 163d 3e98 56bd
00000270: 139a f13a 1b80 93bd 1d22 9dbc 2613 a23c
00000280: ef30 18bd b86b c13d 359f 80bd 50f5 68bc
00000290: 0745 42bd a59a 353d 61da 973d b6ee 213d
000002a0: e9b4 ee3c ba32 b93c 71dd a4bd bffd f43d
000002b0: 6872 37bd 3ac5 5d3c 15c4 11bd 2006 a33c
000002c0: 9e24 c93c 4138 b43c 1838 5ebd 1ece 75bd
000002d0: c30b ab3d b098 14bd 9dab 63bd 43a6 693d
000002e0: acff eabc 7981 0ebd f8a6 bc3d af5d 003e
000002f0: b82a b9bb eac2 da3c d862 0bbb 2294 8f3d
00000300: 6d3b 0f3d 8d41 9fbc 27ae 4abc d2b9 bb3d
00000310: de4a 0e3d a5c8 b9bb b42d 8b3d a07d b23d
00000320: 7517 dbbd b826 923d ca2a cbbc aa0a 953d
00000330: 6421 833c 42f5 25bd 6f25 bc3e 60af 3cbd
00000340: c70f d13c c6ec ffbc eb0c e93c 6021 033b
00000350: 9eee 2bbe 0cae 963d 202e a83d ac1b 26bd
00000360: bbf6 c73c 81b1 873d 4b11 5ebb 136a b33c
00000370: 9144 7d3c a858 e43b 05fb 213d b756 c93b
00000380: 1b67 bbbc 1626 84be 4df9 5f3d 5d2f a53c
00000390: 1c50 923c fba8 d6bc 2c4a bd3d a6c7 4a3d
000003a0: 8586 97bb bce6 ab3a e841 16bd aa2c 213d
000003b0: eb38 babc be5e 193d b771 86bd 47c8 463d
000003c0: 22f4 b53d 69c5 a6bd c520 c4bc 9af3 9fbd
000003d0: 968c 943c 91fa a2bc cb0f 5e3b 9479 1d3d
000003e0: ebdf afbd dcaa 7dbd 393b 1c3d 69d2 cd3a
000003f0: 632e 1bbd ae6e ec3c 36d2 393b d3ee 4b3d

linear2.bias f4 [256]
-0.0016572325 -0.057924554 -0.038205057 -0.021428766 -0.06128348 -0.06969998 -0.027496368 0.07001095
0.037249718 -0.058842525 0.11108007 -0.040042147 0.08792698 -0.022082783 -0.052935608 0.031760603
0.011331655 -0.0065131118 0.021282243 0.049365193 0.031728543 0.01686476 -0.008232815 -0.055867206
0.0070596472 -0.03956497 0.014419574 -0.013719395 0.07066788 -0.061296683 -0.0001182783 0.026818648
0.059748758 -0.07667885 -0.037882425 -0.03245168 -0.03986141 0.083732635 -0.025553463 -0.07887999
0.09208724 0.08677036 -0.029572582 -0.030752951 0.019477956 0.0607845 -0.05524778 -0.01107286
-0.010558719 0.055184133 -0.01761605 0.0049810433 -0.03551448 0.011170761 -0.027323384 -0.01214283
0.0062711914 -0.034459505 0.016016355 0.03529412 0.029140461 -0.084433496 0.071316324 0.00077046134
0.016661124 0.032207288 0.008046138 -0.022488268 0.010547515 -0.018852971 -0.03068823 0.0006192682
-0.0064372583 0.0791433 0.04035247 -0.059479397 -0.014990276 0.024866924 0.049476247 0.0026661302
0.0637477 -0.0012245212 0.0015549725 -0.027318269 -0.036667865 0.048424326 -0.015596001 -0.0360734
0.048353896 0.08274718 -0.050270777 -0.03370096 -0.029328475 0.019448336 -0.0039579025 0.006730918
0.028916562 0.014388469 0.0717692 0.02469775 0.034829564 0.047039717 -0.03788422 0.010641109
0.032289244 -0.006744417 0.009492621 0.043201715 0.01655946 -0.0049313013 -0.012393617 -0.01920708
-0.019832933 -0.095348306 -0.06565379 -0.001915735 0.013293044 -0.026261518 0.021795636 0.022379503
0.0453238 0.09510593 0.08458655 0.038796805 -0.012429446 0.02522403 -0.0972393 0.038769282
-0.002072824 -0.011032848 0.02031456 -0.057271026 0.0013890377 -0.007410851 -0.0028937892 0.036170322
-0.0029555594 0.012117685 -0.08196988 0.03517957 0.0010485363 -0.06181587 0.027658783 0.029194549
-0.011199852 -0.06833285 0.026888655 0.021760652 0.05184912 -0.015576562 0.045207642 0.017787468
-0.014764827 0.070114076 -0.021880738 0.021431701 0.015121186 -0.029214107 -0.077114835 0.0059969313
-0.037604958 -0.045827564 -0.015703116 -0.054634437 0.038279023 0.022407386 -0.08695571 -0.011696625
-0.011510597 -0.063702375 -0.073610865 -0.008041591 -0.007720163 0.06819265 0.010865925 -0.030408578
-0.052542575 -0.046186723 0.01601523 0.08151216 0.06747802 -0.06065715 -0.002424759 0.019477317
-0.071248025 0.016501619 -0.044764265 -0.048179433 -0.02760804 0.02807418 0.014659329 -0.065942794
0.006441533 0.016075263 0.014179311 0.08386008 0.062249634 0.015708786 0.027860703 -0.06652233
0.040040847 -0.0053770365 0.04868712 0.044763353 -0.020340106 -0.04977628 0.019758832 0.0060727955
-0.006737107 0.014988078 -0.010551494 -0.01975103 -0.023613634 -0.09205417 0.035243355 -0.05675586
0.007291761 -0.016615901 -0.044080056 -0.05558142 0.04425624 -0.043930832 0.0071280426 -0.031977806
0.032623317 -0.027962836 0.070786774 0.04796161 -0.041951843 0.022163989 0.0036306854 0.020469598
-0.056915116 -0.029959494 0.063889645 0.0232494 0.0633255 0.066486545 -0.04473727 -0.0002700945
0.011058893 0.001422566 0.04676561 0.0178637 -0.0675152 -0.04082835 -0.007353959 0.043305527
-0.071843855 0.00846898 -0.032359276 -0.051430337 0.08475903 0.0034302098 -0.008267911 0.011196079
00000000: 7f37 d9ba 4c42 6dbd e87c 1cbd 618b afbc
00000010: 6304 7bbd ddbe 8ebd 1040 e1bc e761 8f3d
00000020: 2993 183d dc04 71bd f37d e33d 3c03 24bd
00000030: 0f13 b43d f4e6 b4bc 02d3 58bd 6817 023d
00000040: 68a8 393c f16b d5bb 1958 ae3c 2833 4a3d
00000050: caf5 013d f727 8a3c eee2 06bc 03d5 64bd
00000060: 9d54 e73b e10e 22bd 1440 6c3c 50c7 60bc
00000070: 52ba 903d 3b12 7bbd 2e0c f8b8 c8b2 db3c
00000080: 1dbb 743d cd09 9dbd 9a2a 1bbd 0eec 04bd
00000090: b845 23bd 047c ab3d 7f55 d1bc d58b a1bd
000000a0: 3c98 bc3d a9b4 b13d 3342 f2bc 9ded fbbc
000000b0: 3c90 9f3c 2bf9 783d 7f4b 62bd f16a 35bc
000000c0: 7afe 2cbc c208 623d 894f 90bc 0538 a33b
000000d0: a277 11bd 9105 373c 4ad5 dfbc b8f2 46bc
000000e0: 917e cd3b 6925 0dbd bb34 833c 9190 103d
000000f0: fab7 ee3c 78eb acbd 4b0e 923d c9f8 493a
00000100: e97c 883c caeb 033d f3d3 033c 5139 b8bc
00000110: 7ccf 2c3c 8c71 9abc e265 fbbc 6356 223a
00000120: a3ef d2bb e215 a23d a248 253d aba0 73bd
00000130: c699 75bc b8b5 cb3c 9ba7 4a3d 3eba 2e3b
00000140: 278e 823d 1d80 a0ba 38d0 cb3a 90ca dfbc
00000150: 0b31 16bd 9658 463d 5f86 7fbc b4c1 13bd
00000160: bc0e 463d 5a77 a93d bbe8 4dbd 050a 0abd
00000170: 4542 f0bc 1e52 9f3c 4bb1 81bb 088f dc3b
00000180: 6de2 ec3c 9dbd 6b3c bbfb 923d f052 ca3c
00000190: 72a9 0e3d b8ac 403d 7c2c 1bbd 0c58 2e3c
000001a0: ba41 043d 4500 ddbb f086 1b3c 48f4 303d
000001b0: b4a7 873c c196 a1bb 990e 4bbc 2b58 9dbc
000001c0: ad78 a2bc f945 c3bd 7f75 86bd 6619 fbba
000001d0: 11cb 593c 6522 d7bc c38c b23c 3855 b73c
000001e0: 73a5 393d e6c6 c23d b73b ad3d 66e9 1e3d
000001f0: e0a4 4bbc a0a2 ce3c 6625 c7bd 8acc 1e3d
00000200: 37d8 07bb 1ec3 34bc b86a a63c 0695 6abd
00000210: 5f10 b63a b9d6 f2bb baa5 3dbb 5527 143d
00000220: 0fb2 41bb 4189 463c d3df a7bd 7418 103d
00000230: 0a6f 893a a332 7dbd ac94 e23c 6829 ef3c
00000240: 967f 37bc 18f2 8bbd 9945 dc3c 6543 b23c
00000250: be5f 543d d634 7fbc a62b 393d 06b7 913c
00000260: 2ce8 71bc f897 8f3d 3c3f b3bc 8991 af3c
00000270: dabe 773c 6c52 efbc 62ee 9dbd e881 c43b
00000280: a807 1abd afb5 3bbd d2a3 80bc 5cc8 5fbd
00000290: 77ca 1c3d b28f b73c d615 b2bd 33a3 3fbc
000002a0: f196 3cbc 6476 82bd 4bc1 96bd e1c0 03bc
000002b0: 6cf9 fcbb 97a8 8b3d fe06 323c 691b f9bc
000002c0: e236 57bd 4a2e 3dbd 5f32 833c d9ef a63d
000002d0: eb31 8a3d a273 78bd b5e8 1ebb e58e 9f3c
000002e0: 7cea 91bd 672e 873c bc5a 37bd cc57 45bd
000002f0: 422a e2bc d3fb e53c af2d 703c 040d 87bd
00000300: 7f13 d33b 45b0 833c 5750 683c d5be ab3d
00000310: 79f9 7e3d b6af 803c 213c e43c dc3c 88bd
00000320: df01 243d da31 b0bb 256c 473d c759 373d
00000330: 4ba0 a6bc 36e2 4bbd 46dd a13c 4dfe c63b
00000340: f3c2 dcbb 8e90 753c 2ce0 2cbc e9cc a1bc
00000350: 6171 c1bc e686 bcbd 565b 103d d578 68bd
00000360: baef ee3b 121e 88bc 4a8d 34bd 58a9 63bd
00000370: 0846 353d d1f0 33bd 5b92 e93b 29fb 02bd
00000380: 07a0 053d 5112 e5bc a8f8 903d 6573 443d
00000390: b2d5 2bbd 4191 b53c cbf0 6d3b dcaf a73c
000003a0: d31f 69bd 9d6d f5bc 93d8 823d 8775 be3c
000003b0: cdb0 813d 192a 883d 6d3e 37bd 789b 8db9
000003c0: 5c30 353c 6575 ba3a 4c8d 3f3d e556 923c
000003d0: 6945 8abd a13b 27bd 7bf9 f0bb 2361 313d
000003e0: df22 93bd 7ac1 0a3c 298b 04bd 9ea8 52bd
000003f0: 2496 ad3d 5fcd 603b 2276 07bc c26f 373c

linear3.weight f4 [3, 256]
0.06196046 0.12780346 -0.23503046 -0.06707849 -0.013150497 0.011539045 0.037603017 0.8584368
0.058519788 -0.032573536 0.06876168 -0.014875772 0.08254447 -0.038879015 -0.054627426 0.025488988
-0.23355304 -0.0074585443 0.06894302 0.04912658 0.041162755 -0.04517414 -0.059581965 -0.12350066
-0.012710078 -0.06362294 -0.085480906 -0.10313085 -0.05590556 -0.14854616 0.06282254 0.07247493
0.04692618 -0.05391159 -0.041365903 0.100423016 0.02831953 0.16632506 -0.04062842 -0.05409149
-0.023761831 -0.049523845 0.11022815 -0.102397054 -0.02931236 0.08605175 -0.09159547 -0.036855843
-0.062208798 0.05367351 0.048661966 0.01534736 0.095071696 0.069745295 -0.16945362 -0.09717691
-0.07125588 -0.080135 -0.08843485 0.90641844 0.18921134 -0.015164549 -0.08920325 -0.07081179
0.035111457 -0.10691548 -0.010334296 -0.10218853 -0.06637584 -0.074230775 0.20991896 -0.09672034
-0.13880602 0.028034829 -0.121873684 -0.021593928 -0.26669934 0.09038188 0.03715024 0.002471588
0.19140933 0.04969961 -0.022694286 -0.11811078 -0.014053517 -0.097763844 0.041607376 -0.18919984
-0.00179505 0.030979358 -0.0070147063 0.0254835 0.0993096 0.16168234 0.04003471 0.17441079
-0.046186816 0.0342201 0.010297434 0.07277424 -0.007861338 0.002994771 0.05145983 -0.08456324
-0.0993532 -0.05272381 -0.047615632 0.06363551 -0.19691506 0.14817081 0.038212325 0.030478094
-0.021932568 -0.25271967 -0.09615607 0.04946606 0.004442659 0.039414633 -0.0021904218 0.029754784
-0.25118095 0.009995414 -2.8441034e-05 -0.07654759 -0.034234136 0.060418848 -0.22139435 -0.060178716
-0.0056186253 -0.07569261 -0.0028461951 0.012545221 0.071455 -0.056681108 0.037039224 -0.12401613
-0.0033242034 0.22323859 -0.08146892 0.06970383 -0.29162422 -0.0043221544 0.07039191 -0.1318258
0.044595037 0.036045287 -0.14575724 0.1255722 0.016043756 0.88660127 -0.19780958 -0.09135266
0.04529127 0.060393374 -0.025499146 0.020838307 -0.09653009 0.063075 0.07207516 -0.058243535
0.08056842 -0.14038268 0.031232579 0.0475866 0.88472027 0.8709236 -0.03927939 0.10320313
-0.029931337 0.009857715 0.035229944 0.2990381 0.038457137 0.035315245 0.03155059 -0.0025310817
-0.09362619 0.06056659 0.22205366 0.0432259 -0.41703686 -0.0598501 0.15538295 0.10605003
0.07080906 0.07981384 0.10071608 0.0709274 -0.022941364 0.09482194 -0.11866321 0.041134305
0.019426988 0.15659346 0.27431422 0.11297358 -0.045482203 0.04407792 -0.08768892 -0.08650086
-0.09165792 -0.074040286 -0.061538454 -0.016429922 -0.033838347 -0.049578656 0.014504433 -0.08253218
-0.11884339 0.07837976 -0.042421572 0.06476756 -0.08218561 0.023675388 0.06145522 -0.08378485
0.25472164 0.05929837 0.023312714 -0.08325658 0.10009586 -0.09188699 0.057452336 -0.08819246
0.02799824 0.01916919 0.13235362 -0.060161192 -0.023573222 0.027706977 0.07084613 -0.42697245
0.0034026005 -0.15543683 -0.06412826 -0.0155591145 -0.034913074 -0.22096714 0.06573658 -0.043317717
-0.08169056 -0.21193519 0.03924333 0.03283851 0.21135393 0.053692665 -0.05074278 -0.055184238
-0.07897106 -0.23909159 -0.05023381 0.13841553 -0.025607927 -0.08512754 -0.11551126 0.08014333
00000000: 40ca 7d3d e9de 023e d3ab 70be 7360 89bd
00000010: 2f75 57bc 430e 3d3c 9f05 1a3d 84c2 5b3f
00000020: 72b2 6f3d d46b 05bd ecd2 8c3d 83b9 73bc
00000030: 130d a93d 9a3f 1fbd 02c1 5fbd 48ce d03c
00000040: 8728 6fbe ce66 f4bb 0032 8d3d f438 493d
00000050: 479a 283d 8508 39bd 380c 74bd eaed fcbd
00000060: ee3d 50bc be4c 82bd 9d10 afbd 4436 d3bd
00000070: 3afd 64bd 7c1c 18be 1ba9 803d bc6d 943d
00000080: ab35 403d 66d2 5cbd 4b6f 29bd 95aa cd3d
00000090: 5cfe e73c 1e51 2a3e fc69 26bd 0a8f 5dbd
000000a0: 2ca8 c2bc 84d9 4abd 4cbf e13d 8cb5 d1bd
000000b0: 7920 f0bc e63b b03d 6896 bbbd 27f6 16bd
000000c0: a7ce 7ebd c1d8 5b3d c551 473d 7e73 7b3c
000000d0: f3b4 c23d 9fd6 8e3d 4085 2dbe b004 c7bd
000000e0: 9aee 91bd d21d a4bd 551d b5bd 0a0b 683f
000000f0: 9ec0 413e bb74 78bc 32b0 b6bd c605 91bd
00000100: 08d1 0f3d 81f6 dabd 2e51 29bc 3848 d1bd
00000110: 0ef0 87bd 4e06 98bd fff4 563e 5015 c6bd
00000120: 2a23 0ebe 4ca9 e53c e998 f9bd c0e5 b0bc
00000130: d18c 88be 231a b93d da2a 183d 5efa 213b
00000140: cf00 443e d191 4b3d 5ee9 b9bc 11e4 f1bd
00000150: b940 66bc 6938 c8bd 7f6c 2a3d 9abd 41be
00000160: e247 ebba 6cc8 fd3c 9fdb e5bb c6c2 d03c
00000170: d562 cb3d 0e90 253e 70fb 233d be98 323e
00000180: 632e 3dbd 602a 0c3d 92b6 283c a90a 953d
00000190: d7cc 00bc ec43 443b 8bc7 523d 7e2f adbd
000001a0: b179 cbbd ecf4 57bd 9c08 43bd 5653 823d
000001b0: 1aa4 49be 17ba 173e 8784 1c3d 32ad f93c
000001c0: eeab b3bc 7964 81be 79ed c4bd ec9c 4a3d
000001d0: ba93 913b 3d71 213d 2e8d 0fbb 4ec0 f33c
000001e0: ca9a 80be cec3 233c a894 eeb7 fcc4 9cbd
000001f0: 1839 0cbd c179 773d 33b5 62be f57d 76bd
00000200: 721c b8bb ba04 9bbd 3b87 3abb 788a 4d3c
00000210: 0057 923d 732a 68bd 71b6 173d 2bfc fdbd
00000220: e1da 59bb a898 643e 2dd9 a6bd e2c0 8e3d
00000230: c54f 95be dca0 8dbb a229 903d 58fd 06be
00000240: 49a9 363d 39a4 133d 6341 15be 0096 003e
00000250: 326e 833c 4df8 623f 988e 4abe 1a17 bbbd
00000260: 5783 393d 0b5f 773d 96e3 d0bc 19b5 aa3c
00000270: 91b1 c5bd 772d 813d 249c 933d c690 6ebd
00000280: 0e01 a53d 7ac0 0fbe 77db ff3c 2bea 423d
00000290: 077d 623f d9f4 5e3f 6de3 20bd 2a5c d33d
000002a0: 9032 f5bc 4182 213c 464d 103d 861b 993e
000002b0: 3b85 1d3d b8a6 103d 313b 013d 81e0 25bb
000002c0: 17bf bfbd ac14 783d 0962 633e a40d 313d
000002d0: db85 d5be 6125 75bd b51c 1f3e c230 d93d
000002e0: 5704 913d 7075 a33d 3b44 ce3d 6242 913d
000002f0: 87ef bbbc 0132 c23d b205 f3bd 727c 283d
00000300: 5925 9f3c 095a 203e ea72 8c3e b15e e73d
00000310: 8c4b 3abd 0d8b 343d 4096 b3bd 5d27 b1bd
00000320: 26b7 bbbd 6fa2 97bd bf0f 7cbd 0b98 86bc
00000330: 149a 0abd fd12 4bbd 00a4 6d3c a206 a9bd
00000340: 2a64 f3bd 9185 a03d 3ec2 2dbd dba4 843d
00000350: ee50 a8bd e3f2 c13c 78b8 7b3d 6497 abbd
00000360: e06a 823e d9e2 723d 4efa be3c 6d82 aabd
00000370: 0fff cc3d 3f2f bcbd 2453 6b3d 409e b4bd
00000380: 915c e53c b508 9d3c b587 073e 956b 76bd
00000390: a11c c1bc bef9 e23c c717 913d 229c dabe
000003a0: 2afe 5e3b d52a 1fbe ad55 83bd a8eb 7ebc
000003b0: 0301 0fbd 3645 62be e6a0 863d eb6d 31bd
000003c0: 614d a7bd 8a05 59be 9dbd 203d ac81 063d
000003d0: 2a6d 583e d7ec 5b3d a9d7 4fbd de08 62bd
000003e0: 94bb a1bd 6dd4 74be f8c1 4dbd cdbc 0d3e
000003f0: b7c7 d1bc 5957 aebd 2b91 ecbd 3022 a43d

linear3.bias f4 [3]
-0.056151174 -0.0036322426 0.00055882544
00000000: c6fe 65bd eb0a 6ebb 247e 123a
