version_6_points_without_rotation/DDPG_GPU_MPI/w32_m_t005/critic.pth (torch, 315223 bytes, 6 tensors)

linear1.weight f4 [256, 45]
-0.11102539 -0.04466046 0.020257637 -0.023738945 0.020597026 0.038888186 0.10361022 -0.1355542
-0.008808265 -0.067730404 0.053487215 -0.084725596 -0.05106537 0.035816446 -0.011995947 -0.14295365
-0.14795154 -0.1654246 -0.083225965 -0.119230956 0.055172846 -0.04371069 -0.07418304 -0.046807166
-0.16802254 0.10942312 0.07173112 -0.032247234 0.054552764 -0.11181398 -0.12778112 -0.13046353
-0.018043132 -0.1657296 -0.087805286 -0.10687079 -0.08676868 -0.12949711 0.10465965 -0.13503906
-0.030128976 -0.111480184 0.11506629 -0.04899165 0.09024286 0.05948567 0.01487199 -0.13855696
-0.010760395 -0.0025191277 -0.0027380958 0.061261985 0.09528493 0.06862921 0.14555958 -0.03958053
-0.13462348 -0.01109298 -0.23209462 -0.009265565 0.068655305 -0.049534157 -0.02142054 -0.04086557
0.13883433 -0.14606793 0.03393769 0.07680925 0.13152765 0.0026485818 0.06053978 -0.06706109
-0.20118411 0.14094117 0.1446191 -0.18608439 -0.047097843 0.03073157 -0.11728225 0.25549912
0.017581556 0.07276524 0.3208101 -0.1653053 0.0056967745 -0.04738992 0.05726564 0.05905352
-0.031303108 0.030724132 0.258943 -0.1599662 0.12253491 0.0001817303 -0.0007931622 -0.0016011011
0.160719 -0.3811043 0.1647285 0.01002616 -0.3776083 -0.054287255 0.03156633 -0.619411
-0.0007528168 0.003791723 -0.6392097 0.08218721 -0.2520428 -0.10917439 -0.03419238 0.26484546
-0.364613 0.1434579 -0.0014645633 0.45687482 -0.14407735 0.0022650505 0.26962143 -0.1107181
0.04740814 -0.16859081 -0.13586783 -0.09586071 -0.32211274 0.09580555 -0.05316242 -0.30584836
0.01834658 -0.037968013 0.7740561 0.031088121 0.004064506 -0.005911562 -0.006203716 -0.12090647
-0.12074944 0.076674834 9.844942e-06 0.00046985355 -0.0010197349 0.12657455 -0.0032050286 -0.016121477
-0.024321616 -0.22041914 0.15798278 0.19127627 0.019408615 -0.07827293 0.20345256 -0.06336161
-0.1013895 -0.12637712 0.03716309 0.00539035 -0.08717003 0.037726957 0.15898882 0.10355127
0.11830227 -0.07096796 0.09270144 -0.06692909 -0.07927776 -0.018376455 -0.20433159 -0.062368285
0.069417484 -0.06098176 -0.09328219 -0.024814384 -0.1874648 -0.12224521 0.021457093 0.37387162
-0.13843998 -0.009004579 -0.0035699208 -0.00093071425 -0.22337972 -0.10338512 0.101645306 0.0013157378
-0.00017669113 -0.001673663 -0.12752391 0.037184138 0.123867586 0.03672629 -0.08511499 0.048873287
-0.14829056 -0.049114034 0.11480261 -0.26938486 -0.1388944 -0.00075649587 -0.16402465 -0.22552034
-0.107509576 -0.22354032 0.005907791 0.028551565 0.047709648 0.01035742 -0.025798164 0.12903522
0.06662063 0.013272243 0.19187346 0.14925282 0.06893094 0.21813612 0.32734808 0.09135892
0.21557498 0.07205942 -0.11817941 -0.13264722 -0.13755164 0.08449313 -0.000662564 -0.0057090884
0.00989697 0.21227898 0.064959556 -0.026201613 0.0010338384 0.0021207368 -0.00065631274 0.1564051
0.321719 -0.08498142 -0.07669175 0.36852488 -0.069390096 0.0040127253 0.2581445 -0.068601936
-0.2775587 0.084234074 0.114039876 -0.04219437 -0.92729443 0.14850998 0.23071006 0.1852882
0.11790006 -0.15464255 -0.3539413 -0.02336671 0.08355379 -0.1102023 0.07473618 0.009653292
00000000: 4861 e3bd e3ed 36bd 58f3 a53c 2d78 c2bc
00000010: 18bb a83c 3849 1f3d 9831 d43d b8ce 0abe
00000020: 8b50 10bc 3db6 8abd 6915 5b3d 9d84 adbd
00000030: ec29 51bd 44b4 123d a68a 44bc 7162 12be
00000040: 9c80 17be 1165 29be 6072 aabd 5c2f f4bd
00000050: ecfc 613d fb09 33bd 47ed 97bd dfb8 3fbd
00000060: 1a0e 2cbe 3b19 e03d c4e7 923d ad15 04bd
00000070: b872 5f3d bafe e4bd 0ed9 02be 3b98 05be
00000080: 31cf 93bc 05b5 29be 42d3 b3bd 13df dabd
00000090: c7b3 b1bd e49a 04be cc57 d63d ae47 0abe
000000a0: 0bd1 f6bc b94f e4bd e0a7 eb3d 78ab 48bd
000000b0: 40d1 b83d 3fa7 733d a6a9 733c e0e1 0dbe
000000c0: 5e4c 30bc f317 25bb a071 33bb d9ed 7a3d
000000d0: bf24 c33d 798d 8c3d 920d 153e 321f 22bd
000000e0: bdda 09be 55bf 35bc 36aa 6dbe 99ce 17bc
000000f0: 279b 8c3d 54e4 4abd 217a afbc a862 27bd
00000100: 962a 0e3e d592 15be 3f02 0b3d 2b4e 9d3d
00000110: 2faf 063e d493 2d3b 8ff8 773d 5357 89bd
00000120: 3503 4ebe e252 103e 0817 143e e88c 3ebe
00000130: abe9 40bd c6c0 fb3c ad31 f0bd c8d0 823e
00000140: 3207 903c f105 953d 3941 a43e cb45 29be
00000150: 02ac ba3b ef1b 42bd 608f 6a3d 1be2 713d
00000160: b037 00bd 2db1 fb3c 2d94 843e 2ece 23be
00000170: 95f3 fa3d db8e 3e39 37ec 4fba 0adc d1ba
00000180: 8693 243e 1a20 c3be 97ae 283e c344 243c
00000190: e055 c1be 505c 5ebd b24b 013d b891 1ebf
000001a0: ae58 45ba 8e7e 783b 3fa3 23bf c551 a83d
000001b0: c10b 81be d396 dfbd 4f0d 0cbd d399 873e
000001c0: 8eae babe a1e6 123e 97f6 bfba 7feb e93e
000001d0: 0389 13be 3e71 143b d20b 8a3e 2cc0 e2bd
000001e0: 0a2f 423d 12a3 2cbe f020 0bbe 9f52 c4bd
000001f0: f6eb a4be b335 c43d d6c0 59bd 2898 9cbe
00000200: 914b 963c 5984 1bbd 8a28 463f 84ac fe3c
00000210: 8c2f 853b c7b5 c1bb 8b48 cbbb d09d f7bd
00000220: 7b4b f7bd b207 9d3d b42b 2537 ad56 f639
00000230: a0a8 85ba c29c 013e 750b 52bb 3011 84bc
00000240: 203e c7bc 8eb5 61be 3dc6 213e eddd 433e
00000250: d1fe 9e3c 8f4d a0bd de55 503e bbc3 81bd
00000260: 4ca5 cfbd 0169 01be 5338 183d 88a1 b03b
00000270: 3386 b2bd 9587 1a3d f7cd 223e b012 d43d
00000280: 7648 f23d a657 91bd 41da bd3d 1e12 89bd
00000290: 615c a2bd 388a 96bc 4d3c 51be e375 7fbd
000002a0: c12a 8e3d 03c8 79bd bc0a bfbd 8947 cbbc
000002b0: c6f6 3fbe b25b fabd c9c6 af3c 1a6c bf3e
000002c0: 36c3 0dbe f187 13bc 55f5 69bb 2dfb 73ba
000002d0: a7bd 64be 94bb d3bd 6a2b d03d d674 ac3a
000002e0: 2a46 39b9 d05e dbba a195 02be 654e 183d
000002f0: 4aae fd3d 4e6e 163d c550 aebd 5b2f 483d
00000300: 7bd9 17be cc2b 49bd a11d eb3d d0ec 89be
00000310: 553a 0ebe 944f 46ba 14f6 27be ceee 66be
00000320: fb2d dcbd c1e7 64be 2596 c13b f9e4 e93c
00000330: 316b 433d 2bb2 293c ac56 d3bc cf21 043e
00000340: 6670 883d d273 593c 7a7a 443e bbd5 183e
00000350: aa2b 8d3d 135f 5f3e 2b9a a73e 631a bb3d
00000360: b0bf 5c3e e493 933d 0c08 f2bd acd4 07be
00000370: 56da 0cbe bc0a ad3d ebaf 2dba 4e13 bbbb
00000380: e726 223c a95f 593e 8409 853d c4a4 d6bc
00000390: dc81 873a 0ffc 0a3b 670c 2cba a928 203e
000003a0: 5ab8 a43e bd0a aebd 9010 9dbd 4baf bc3e
000003b0: 651c 8ebd 2e7d 833b 842b 843e 2c7f 8cbd
000003c0: 2d1c 8ebe ea82 ac3d bd8d e93d 01d4 2cbd
000003d0: 2b63 6dbf 0013 183e 423f 6c3e 31bc 3d3e
000003e0: 9675 f13d 9e5a 1ebe cb37 b5be 8b6b bfbc
000003f0: 401e ab3d beb1 e1bd 480f 993d d728 1e3c

linear1.bias f4 [256]
-0.1369332 0.14658344 -0.28898594 -0.22226804 -0.018300664 -0.057968065 -0.049522 0.099613436
0.015564161 0.030392844 0.106830895 0.062059265 0.21408749 0.061634306 -0.16103157 0.15755554
-0.013715889 -0.121829465 0.02095973 0.114960685 0.20967358 -0.21233658 0.089752935 0.15163136
-0.15685554 0.082761064 -0.25388828 0.15547007 -0.10932009 0.13799646 0.123876356 0.115563035
0.086359 -0.10110297 -0.12664546 -0.27388832 -0.05496262 0.17168693 -0.07907023 0.12203905
0.37865776 0.20544256 0.0034394895 -0.06693941 0.24971193 0.017385114 0.19877018 -0.11984027
-0.074647814 0.094763234 0.06017047 -0.060587917 -0.023614224 -0.17618212 -0.1833069 0.040575232
-0.17705752 0.0997714 0.1463039 -0.14573021 -0.07973559 0.1467203 -0.0018636195 -0.16100037
0.07298435 0.0051043173 0.014142478 0.09620878 -0.15930279 -0.110948235 0.04915019 0.15620905
0.052505977 0.022819659 -0.16569956 0.041231442 -0.085525185 -0.030632341 0.00841804 0.02986664
0.017203877 0.03682484 0.23865369 0.12145029 0.10903146 0.13370979 -0.07876491 -0.07325272
-0.096569784 0.23951642 -0.11182785 -0.086305775 0.12415704 -0.22047953 -0.12191624 -0.26217008
0.070524484 -0.18611144 0.19524802 0.09833792 0.15258193 0.15167513 0.033997435 0.01921873
0.05887217 0.010630652 -0.030463917 0.0073512695 -0.021719363 0.009584876 -0.027322553 -0.07820768
-0.0010767463 0.061864894 -0.16049013 0.17049742 0.16818279 0.011313824 0.096628174 -0.10240374
0.104499206 0.02335583 -0.22499086 0.20306727 -0.072175115 -0.09975843 0.09444255 -0.009804733
0.16274582 0.17833509 0.042946372 0.09064459 0.02960301 -0.21764864 -0.06975245 0.1910481
-0.10580424 0.12388896 -0.14315514 -0.09844208 -0.050970282 0.19541283 0.16856778 0.117239565
-0.12433723 -0.149216 -0.2715741 -0.028891506 0.02214829 0.08898591 0.047557518 0.061668552
0.15865505 -0.15546954 -0.004793717 -0.02687305 -0.14184712 0.063459404 -0.13709313 -0.36976567
-0.050479304 0.20944746 0.18950032 0.12792721 -0.24830969 -0.1858876 0.081925005 -0.14526476
0.17593162 0.07492169 0.03671832 0.07938322 0.050504446 -0.07232325 -0.11302529 -0.21989737
-0.1311911 -0.20048347 -0.40486488 -0.10338902 0.09641511 -0.20525828 -0.036123592 0.03364344
0.0350917 0.017435156 0.20202048 0.055899557 -0.089646906 -0.28618968 0.18933922 0.17120825
0.028027287 -0.044738315 0.1473274 -0.19992018 0.15675616 -0.051668555 -0.04802935 -0.13015035
-0.21246363 0.066280216 0.23100671 0.12047885 0.04801145 -0.117335215 -0.120225735 0.14471309
-0.071358025 -0.050611746 -0.04988697 0.14566115 0.10787968 0.03146906 -0.12470221 0.19257951
0.032428533 -0.06070982 0.001076741 -0.19145915 0.18692341 -0.13741136 -0.11797576 0.11020066
-0.07891171 -0.13441953 0.08275963 0.19871229 -0.0040797372 0.10530881 -0.19423167 0.13255306
-0.08550497 0.09734093 0.1460953 -0.17900732 -0.20724845 -0.032779913 0.031016393 -0.00933165
0.062469706 -0.009173676 -0.015841397 0.057426874 -0.0069925427 -0.30273208 -0.06984703 0.047428202
-0.21677476 0.15486948 -0.08473874 -0.04393404 -0.21212517 -0.0906681 -0.08492376 -0.09046751
00000000: 3738 0cbe f819 163e f7f5 93be 3c9a 63be
00000010: 46eb 95bc ec6f 6dbd 95d7 4abd 2102 cc3d
00000020: d300 7f3c 6afa f83c 28ca da3d db31 7e3d
00000030: c039 5b3e 4174 7c3d 76e5 24be 3d56 213e
00000040: 9cb8 60bc ba81 f9bd bdb3 ab3c 8270 eb3d
00000050: acb4 563e c36e 59be 63d0 b73d 4045 1b3e
00000060: bd9e 20be a27e a93d a5fd 81be 8c33 1f3e
00000070: 36e3 dfbd f24e 0d3e e3b2 fd3d 50ac ec3d
00000080: fddc b03d 130f cfbd 59af 01be 173b 8cbe
00000090: 7c20 61bd b3ce 2f3e 93ef a1bd 9cef f93d
000000a0: 6edf c13e 895f 523e 0f69 613b 8817 89bd
000000b0: 7cb4 7f3e 3a6b 8e3c 698a 4b3e d16e f5bd
000000c0: f4e0 98bd 3a13 c23d 5075 763d 092b 78bd
000000d0: 9e72 c1bc 1669 34be ceb4 3bbe 3732 263d
000000e0: 914e 35be f354 cc3d b1d0 153e 4d3a 15be
000000f0: 6a4c a3bd d93d 163e b244 f4ba 48dd 24be
00000100: d278 953d 1e42 a73b dab5 673c 1c09 c53d
00000110: 4520 23be d438 e3bd b651 493d 44f5 1f3e
00000120: 8210 573d 4bf0 ba3c 25ad 29be 4de2 283d
00000130: d427 afbd adf0 fabc d2eb 093c e2aa f43c
00000140: 25ef 8c3c a5d5 163d a261 743e eeba f83d
00000150: e34b df3d 38eb 083e 7f4f a1bd 8605 96bd
00000160: 61c6 c5bd cb43 753e 0006 e5bd 15c1 b0bd
00000170: 0c46 fe3d 63c5 61be 39af f9bd 283b 86be
00000180: 246f 903d ff93 3ebe 19ef 473e 6465 c93d
00000190: 703e 1c3e ba50 1b3e e540 0b3d 9970 9d3c
000001a0: f223 713d 302c 2e3c 778f f9bc ebe2 f03b
000001b0: ceec b1bc e209 1d3c 8cd3 dfbc 592b a0bd
000001c0: 9c21 8dba 0b66 7d3d 8657 24be e096 2e3e
000001d0: 1c38 2c3e 9e5d 393c fee4 c53d 0db9 d1bd
000001e0: ae03 d63d ba54 bf3c 0164 66be def0 4f3e
000001f0: 8cd0 93bd 264e ccbd 186b c13d 08a4 20bc
00000200: d7a6 263e 799d 363e 89e8 2f3d dfa3 b93d
00000210: 0382 f23c 49df 5ebe 5fda 8ebd 1da2 433e
00000220: e5af d8bd 7fb9 fd3d 4397 12be 009c c9bd
00000230: 37c6 50bd 4d1a 483e 089d 2c3e 4c1b f03d
00000240: 85a4 febd 14cc 18be c30b 8bbe e1ad ecbc
00000250: 5570 b53c 3f3e b63d accb 423d 2a98 7c3d
00000260: 7876 223e 6833 1fbe 9d14 9dbb df24 dcbc
00000270: 5f40 11be 01f7 813d 2462 0cbe ed51 bdbe
00000280: 63c3 4ebd 6579 563e 5f0c 423e 5aff 023e
00000290: e544 7ebe 5259 3ebe 4cc8 a73d 49c0 14be
000002a0: 6b27 343e 8b70 993d f365 163d ab93 a23d
000002b0: c0dd 4e3d 361e 94bd ce79 e7bd c72c 61be
000002c0: f656 06be 8a4b 4dbe 734a cfbe 9fbd d3bd
000002d0: 4975 c53d 3a2f 52be 55f6 13bd b4cd 093d
000002e0: 50bc 0f3d 2cd4 8e3c 75de 4e3e eff6 643d
000002f0: cc98 b7bd 7487 92be 24e2 413e 3751 2f3e
00000300: 7b99 e53c 863f 37bd fedc 163e e0b7 4cbe
00000310: b084 203e 68a2 53bd 6cba 44bd 2246 05be
00000320: 1190 59be ecbd 873d 068d 6c3e 9ebd f63d
00000330: a7a7 443d 724d f0bd e938 f6bd ab2f 143e
00000340: 2824 92bd 434e 4fbd 4856 4cbd 3228 153e
00000350: 06f0 dc3d b3e5 003d df63 ffbd 9033 453e
00000360: c8d3 043d dcaa 78bd 6f21 8d3a de0d 44be
00000370: da68 3f3e 90b5 0cbe 469d f1bd e2b0 e13d
00000380: 769c a1bd 46a5 09be e27d a93d 3c7b 4b3e
00000390: 51af 85bb 25ac d73d abe4 46be fdbb 073e
000003a0: 3b1d afbd ae5a c73d 029a 153e b24d 37be
000003b0: f038 54be 3b44 06bd 1716 fe3c c7e3 18bc
000003c0: 3ce0 7f3d 304d 16bc d1c5 81bc 7138 6b3d
000003d0: b321 e5bb b3ff 9abe f60b 8fbd 1344 423d
000003e0: 34fa 5dbe 1b96 1e3e 818b adbd 2ef4 33bd
000003f0: 5737 59be 32b0 b9bd 82ec adbd 0847 b9bd

linear2.weight f4 [256, 256]
-0.03715349 -0.043943565 0.08987887 0.18312779 0.029681653 0.11253508 -0.09923644 0.072283246
0.15073928 -0.028438337 0.02579346 -0.0030695878 0.019138373 -0.08808287 -0.04611875 0.037880007
0.039455622 -0.20455132 0.6427975 -0.048309386 -0.14201355 -0.053545576 0.31411994 0.049188618
0.08758471 -0.048794564 0.033686593 -0.0030832177 0.21094705 0.081526935 0.06645868 0.28491804
-0.2134039 0.048396662 0.14047006 -0.05435299 0.0036895669 -0.08885651 0.1280622 0.009786643
0.08072335 -0.17222203 -0.022429653 0.07689783 -0.01605596 -0.16038544 0.029581709 0.1257408
0.056762826 0.23526013 -0.051218312 -0.059800003 -0.21208401 0.033855174 0.15422347 -0.0001404135
-0.11742251 -0.053912695 0.13711035 0.19509615 -0.1941717 -0.017912457 -0.23415697 0.01350037
0.019525755 -0.17744492 0.16263284 0.111386314 0.0730955 -0.5784558 0.05770157 0.12195451
-0.06920785 0.06345552 -0.13319539 -0.02889098 0.021640025 -0.0041865944 0.08129378 -0.3356981
0.1650416 -0.10264612 0.14775866 -0.14769867 -0.0381281 0.038232513 0.041588537 -0.6294929
0.13598411 -0.026422594 -0.09916482 -0.021059671 0.15607111 -0.030736111 -0.23047005 -0.14631647
-0.051899493 -0.00881808 -0.051663425 0.013245481 -0.041298382 -0.032153297 -0.012238136 -0.027305247
-0.056840904 -0.026169697 0.2090794 -0.024762439 -0.07181322 -0.089385584 0.030078268 -0.060869467
-0.19083713 0.03850829 0.043630123 -0.06636413 -0.01955473 0.69189906 -0.017815914 0.09708646
-0.078484416 0.021893205 -0.15798777 -0.14012344 0.10096736 0.077408664 -0.107122585 -0.029247431
-0.0177663 0.02890314 -0.11217465 -0.079763226 0.20047353 -0.011202757 0.00078479236 0.13205846
0.031282045 -0.07702644 -0.41079324 -0.042052023 0.04642307 -0.03568575 0.20746312 0.0052667507
-0.13265948 -0.0049722665 -0.007199037 0.013253625 0.091999605 -0.1216433 0.09645841 -0.17124923
0.15880273 0.017192325 -0.0029055213 -0.15927008 0.112039275 -0.05382389 0.030936113 -0.058754463
0.023099983 0.035514574 -0.07432118 0.042998448 -0.0600592 0.04657206 -0.059285197 0.07306799
-0.22394292 0.06303356 -0.1724417 0.025386006 -0.2182748 0.04005034 0.055145346 -0.023133073
-0.058955744 0.104215465 0.032996647 -0.21009094 0.06257566 0.11228904 -0.052351322 -0.17860332
-0.5377854 -0.34286618 -0.007030286 0.079564065 0.13395965 0.3605625 -0.021834431 -0.054748286
0.049229532 0.11827323 -0.0152283255 -0.027292915 0.115323275 -0.20517893 0.035294525 -0.055528384
0.3245884 -0.015508608 -0.18080266 -0.17752181 -0.007753306 0.1370346 -0.16148782 -0.022690132
-0.02894937 -0.0115574915 0.07313921 0.12210136 0.055684257 0.00091759465 0.042991456 -0.009203338
-0.16092795 -0.038060255 -0.18449242 -0.13660274 -0.008772936 -0.002465625 0.06813371 0.031582937
0.17066991 -0.16282791 0.12212265 0.12786546 0.14031586 -0.13658533 -0.3288997 0.024430571
0.06182525 -0.012344848 -0.08999095 0.017792745 0.094426386 0.24087705 -0.098040245 -0.011942319
-0.10824416 -0.04216021 -0.34698805 -0.038657412 0.109479636 -0.071197465 0.4692883 0.027628468
-0.012624997 -0.111728564 -0.071780294 0.07599898 0.17561659 0.13399442 0.1412859 -0.030090293
00000000: 422e 18bd 2bfe 33bd 6a12 b83d da85 3b3e
00000010: f026 f33c cb78 e63d 7a3c cbbd 3d09 943d
00000020: 665b 1a3e 84f7 e8bc ce4c d33c 232b 49bb
00000030: 14c8 9c3c cb64 b4bd 04e7 3cbd 1128 1b3d
00000040: 389c 213d e775 51be 618e 243f 10e0 45bd
00000050: 006c 11be 9b52 5bbd 54d4 a03e 017a 493d
00000060: 9d5f b33d cfdc 47bd f4fa 093d cf0f 4abb
00000070: 8102 583e 98f7 a63d 7d1b 883d c7e0 913e
00000080: 8d86 5abe 943b 463d 62d7 0f3e 3ea1 5ebd
00000090: a9cc 713b 67fa b5bd bd22 033e 2858 203c
000000a0: 4952 a53d f95a 30be 64be b7bc 9c7c 9d3d
000000b0: ca87 83bc 153c 24be 5755 f23c 32c2 003e
000000c0: 2380 683d 08e8 703e 4bca 51bd d9f0 74bd
000000d0: 8d2c 59be b9ab 0a3d c2ec 1d3e f63b 13b9
000000e0: 377b f0bd 8fd3 5cbd a866 0c3e 49c7 473e
000000f0: f2d4 46be 25bd 92bc d8c6 6fbe a830 5d3c
00000100: 7af4 9f3c 1fb4 35be 3989 263e 821e e43d
00000110: 18b3 953d ae15 14bf 7b58 6c3d 49c3 f93d
00000120: d8bc 8dbd f8f4 813d 5f64 08be c7ac ecbc
00000130: 6c46 b13c b32f 89bb 5a7d a63d 9fe0 abbe
00000140: aa00 293e 2138 d2bd 0c4e 173e 523e 17be
00000150: 362c 1cbd b299 1c3d be58 2a3d 7226 21bf
00000160: 6b3f 0b3e 3274 d8bc ed16 cbbd 5585 acbc
00000170: 1bd1 1f3e 4cca fbbc 5700 6cbe fcd3 15be
00000180: 9094 54bd b579 10bc 079d 53bd 9303 593c
00000190: 7e28 29bd 2db3 03bd 7682 48bc 41af dfbc
000001a0: 02d2 68bd d561 d6bc e918 563e 99da cabc
000001b0: cf12 93bd ca0f b7bd b366 f63c 4352 79bd
000001c0: cf6a 43be deba 1d3d 80b5 323d ebe9 87bd
000001d0: 3e31 a0bc 4c20 313f aef2 91bc 44d5 c63d
000001e0: 70bc a0bd 6159 b33c 8cc7 21be 857c 0fbe
000001f0: fac7 ce3d 6f88 9e3d 1663 dbbd 4f98 efbc
00000200: a28a 91bc 47c6 ec3c d3bb e5bd e75a a3bd
00000210: ef48 4d3e c58b 37bc 86ba 4d3a 553a 073e
00000220: 9a21 003d 0ac0 9dbd 7e53 d2be be3e 2cbd
00000230: 1e26 3e3d 392b 12bd 3671 543e b594 ac3b
00000240: e3d7 07be 65ee a2bb e6e5 ebbb bb25 593c
00000250: 4a6a bc3d 1f20 f9bd fd8b c53d f55b 2fbe
00000260: 2f9d 223e ebd6 8c3c 8f6a 3ebb b217 23be
00000270: d974 e53d 7076 5cbd bb6d fd3c 85a8 70bd
00000280: 2d3c bd3c bb77 113d b435 98bd 241f 303d
00000290: a300 76bd 58c2 3e3d 09d5 72bd aca4 953d
000002a0: 4b51 65be bd17 813d 8f94 30be 50f6 cf3c
000002b0: 6e83 5fbe d30b 243d 16e0 613d 9281 bdbc
000002c0: 947b 71bd eb6e d53d 7e27 073d 1422 57be
000002d0: ab27 803d ccf7 e53d 576e 56bd cae3 36be
000002e0: 4eac 09bf 288c afbe 505e e6bb 7cf2 a23d
000002f0: b82c 093e a69b b83e 1fde b2bc bd3f 60bd
00000300: e8a4 493d 3c39 f23d 3a80 79bc 6495 dfbc
00000310: 9c2e ec3d 6d1a 52be fe90 103d bb71 63bd
00000320: 7330 a63e d117 7ebc 5524 39be 47c8 35be
00000330: 720f febb cc52 0c3e 105d 25be a8e0 b9bc
00000340: 3b27 edbc a25b 3dbc 03ca 953d 4710 fa3d
00000350: 2d15 643d bc8a 703a cf17 303d 99c9 16bc
00000360: 4cca 24be 12e5 1bbd 95eb 3cbe 97e1 0bbe
00000370: 5cbc 0fbc 5396 21bb b089 8b3d 1c5d 013d
00000380: 18c4 2e3e 5cbc 26be 711b fa3d 2aef 023e
00000390: f6ae 0f3e 06dd 0bbe 8b65 a8be 9f22 c83c
000003a0: 793c 7d3d 0c42 4abc 2d4d b8bd 17c2 913c
000003b0: 9f62 c13d 79a8 763e 53c9 c8bd b7a9 43bc
000003c0: 1daf ddbd 2fb0 2cbd 6ba8 b1be 3c57 1ebd
000003d0: dc36 e03d facf 91bd 8e46 f03e 1955 e23c
000003e0: 13d9 4ebc f2d1 e4bd 8c01 93bd 5aa5 9b3d
000003f0: d6d4 333e d535 093e 40ad 103e eb7f f6bc

linear2.bias f4 [256]
-0.058779635 0.03641186 0.033136968 0.068744615 -0.017318297 0.033553097 -0.008872381 -0.078077465
0.05171959 -0.06272389 -0.032965045 0.023023343 0.09526627 0.028135303 0.07562434 0.061905332
-0.016486518 0.037467644 0.09335311 -0.07550631 -0.05038047 0.06314281 0.064392775 0.029678093
-0.0320513 -0.002381337 0.10141326 -0.038645636 -0.13265988 -0.06802211 0.104355864 -0.030676657
-0.025268583 0.061440773 0.095714435 0.029875359 0.017741608 0.048909478 0.024762373 0.08437102
-0.0015950435 -0.032857813 0.01101989 -0.057400387 0.018965244 -0.05453587 0.08562706 0.036269747
-0.085215464 0.07238879 -0.18018539 0.06370378 0.10369334 -0.017998261 -0.09618449 -0.0095822485
-0.027980303 -0.0302419 -0.037369214 0.01861334 -0.03499109 0.024657821 0.008444124 -0.05970584
0.076722495 0.08309424 0.017786322 0.014544685 0.017937662 0.001764127 0.019896276 -0.067267336
-0.027552284 0.042410906 -0.027099468 0.01353967 0.023705212 0.03681694 0.042595156 0.016521558
0.07342009 0.025674285 -0.108205155 0.08626795 -0.031049391 -0.03224122 0.053888526 -0.08553691
-0.004759203 -0.05246508 -0.022132963 0.058579363 -0.063085586 0.07064533 0.07239315 -0.036347408
0.025438596 0.025610082 0.0736769 0.051099103 -0.050405733 -0.009038342 -0.031609263 0.09370134
0.09391515 -0.045605645 0.023854764 -0.038922258 -0.057574626 -0.011636019 -0.048383873 -0.050289948
0.02449567 0.022673618 0.026115423 -0.1361486 -0.06435144 0.060354367 -0.033668432 -0.038851663
0.013245729 0.07813277 0.07895903 0.038374282 0.0371745 -0.019674622 -0.06263452 0.009154972
-0.010356878 0.022917787 -0.0945669 -0.0028290106 -0.048629947 0.04813193 0.01386775 -0.009144783
0.034916427 0.10046067 -0.06340715 -0.094420195 -0.033854984 -0.031627636 0.07255979 -0.070104286
0.019798594 -0.028425312 0.028327843 0.08029628 0.04296604 0.04327246 -0.031032205 0.067595586
-0.014848284 -0.009833372 0.022118105 0.077657804 -0.003887338 0.0033937213 0.041551594 0.003188036
0.07621497 -0.0030252798 -0.10498692 -0.11140308 -0.08119603 -0.017181147 -0.06600113 -0.0588285
0.04547714 -0.016461406 -0.02933103 -0.015661903 -0.036330294 0.01927396 -0.071501054 -0.03977004
0.036140315 0.067611985 0.07926094 0.05615391 0.04484342 0.043371413 -0.06973012 0.02966964
0.0054061576 -0.04128149 -0.023945425 -0.009110707 -0.016193451 -0.084401116 -0.023420952 0.05969487
-0.07120379 -0.004984022 -0.021168454 -0.008356698 -0.04732525 -0.027504046 0.01636686 -0.017534493
0.04376277 -0.005414576 0.09167253 -0.034120582 0.03379126 0.091792844 0.036695782 0.020289747
0.012608543 -0.053989958 -0.09176496 0.0036067173 0.057281666 0.015843024 -0.059093956 0.06750596
-0.02053981 0.021566752 -0.0046139606 -0.07400133 0.089737505 0.089037366 0.007704728 -0.04728998
0.07594717 0.032320246 0.054320026 0.102114856 -0.023932103 -0.011472316 0.07922619 -0.07513989
-0.028523548 0.0028748827 0.052103586 -0.015207947 -0.050099622 -0.06192889 -0.007084315 -0.046573848
0.030458651 0.09534788 0.009155035 0.037344027 0.0631972 0.10125443 0.023822544 -0.02752356
0.031019341 0.059681874 0.08536754 -0.02495305 -0.011059818 0.044623483 0.03620035 -0.00911257
00000000: eac2 70bd 9a24 153d a1ba 073d fac9 8c3d
00000010: 1adf 8dbc f96e 093d 775d 11bc 14e7 9fbd
00000020: ecd7 533d 6275 80bd 5b06 07bd 739b bc3c
00000030: f61a c33d 027c e63c efe0 9a3d 7290 7d3d
00000040: bc0e 87bc ac77 193d ea2f bf3d 0da3 9abd
00000050: c05b 4ebd 0451 813d 5ce0 833d 791f f33c
00000060: 3948 03bd 3510 1cbb c1b1 cf3d e34a 1ebd
00000070: fed7 07be 2d4f 8bbd 87b8 d53d 9d4d fbbc
00000080: 0f00 cfbc 52a9 7b3d ee05 c43d 2bbd f43c
00000090: d956 913c 4e55 483d 76da ca3c b7ca ac3d
000000a0: c710 d1ba ea95 06bd c58c 343c ab1c 6bbd
000000b0: 005d 9b3c 0161 5fbd 3d5d af3d 968f 143d
000000c0: 7285 aebd 9340 943d 8582 38be 2177 823d
000000d0: 2d5d d43d 1771 93bc 60fc c4bd ddfe 1cbc
000000e0: f336 e5bc dcbd f7bc 7610 19bd 017b 983c
000000f0: d152 0fbd 33ff c93c 3959 0a3c 1c8e 74bd
00000100: af20 9d3d 502d aa3d 9fb4 913c d54c 6e3c
00000110: 01f2 923c 483a e73a 84fd a23c 75c3 89bd
00000120: 54b5 e1bc 0fb7 2d3d b4ff ddbc 7ed5 5d3c
00000130: 6f31 c23c 5ccd 163d 4278 2e3d 3858 873c
00000140: 465d 963d e152 d23c aa9a ddbd 40ad b03d
00000150: 4b5b febc 5f0f 04bd 37ba 5c3d fa2d afbd
00000160: 17f3 9bbb a0e5 56bd 3050 b5bc eaf0 6f3d
00000170: 0433 81bd 80ae 903d dc42 943d 05e1 14bd
00000180: 9a64 d03c 3ccc d13c eae3 963d 4b4d 513d
00000190: 3e76 4ebd 8e15 14bc b778 01bd 7de6 bf3d
000001a0: 9656 c03d fccc 3abd 116b c33c f26c 1fbd
000001b0: 5fd3 6bbd 00a5 3ebc 2b2e 46bd d5fc 4dbd
000001c0: 25ab c83c 06be b93c 03f0 d53c 8a6a 0bbe
000001d0: b0ca 83bd 2436 773d e9e7 09bd ec22 1fbd
000001e0: 9d04 593c 1304 a03d 46b5 a13d 5a2e 1d3d
000001f0: 4a44 183d ac2c a1bc 8746 80bd bcfe 153c
00000200: e5af 29bc 15be bb3c 4aac c1bd ec66 39bb
00000210: 3230 47bd fd25 453d 8f35 633c 00d4 15bc
00000220: 8704 0f3d 53be cd3d 9cdb 81bd 605f c1bd
00000230: 86ab 0abd fb8b 01bd 3a9a 943d d692 8fbd
00000240: a930 a23c 33dc e8bc cb0f e83c 6072 a43d
00000250: 29fd 2f3d 773e 313d 4037 febc 8e6f 8a3d
00000260: 3846 73bc 271c 21bc 0731 b53c 0e0b 9f3d
00000270: b6c2 7ebb 3269 5e3b 0132 2a3d 5eee 503b
00000280: 9816 9c3d c643 46bb 6203 d7bd 4c27 e4bd
00000290: 1b4a a6bd 7abf 8cbc 9a2b 87bd 27f6 70bd
000002a0: 3d46 3a3d 12da 86bc a147 f0bc 644d 80bc
000002b0: 13cf 14bd 6ce4 9d3c 256f 92bd e9e5 22bd
000002c0: de07 143d 2778 8a3d 8f53 a23d a401 663d
000002d0: bcad 373d 39a6 313d aace 8ebd bf0d f33c
000002e0: 2326 b13b c816 29bd 3229 c4bc 1345 15bc
000002f0: 21a8 84bc 7eda acbd 4cdd bfbc 9c82 743d
00000300: 4bd3 91bd 0251 a3bb 7769 adbc 88ea 08bc
00000310: 1fd8 41bd 2a50 e1bc cb13 863c 7fa4 8fbc
00000320: 9740 333d c16c b1bb cfbe bb3d 06c2 0bbd
00000330: b468 0a3d e3fd bb3d 514e 163d af36 a63c
00000340: 1094 4e3c 9324 5dbd 44ef bbbd ad5e 6c3b
00000350: 2ea0 6a3d 3bc9 813c 810c 72bd 9140 8a3d
00000360: 1b43 a8bc c2ac b03c b530 97bb 028e 97bd
00000370: 4cc8 b73d 3959 b63d f177 fc3b 23b3 41bd
00000380: 318a 9b3d 3c62 043d ad7e 5e3d 9821 d13d
00000390: 420d c4bc 62f6 3bbc 5741 a23d f1e2 99bd
000003a0: 37aa e9bc 8768 3c3b 926a 553d c12a 79bc
000003b0: 4335 4dbd 26a9 7dbd 8b23 e8bb 38c4 3ebd
000003c0: 6c84 f93c c045 c33d 00ff 153c 0df6 183d
000003d0: 896d 813d 7c5e cf3d 7f27 c33c 1779 e1bc
000003e0: 461c fe3c fb74 743d 2dd5 ae3d 576a ccbc
000003f0: 3d34 35bc 1dc7 363d d146 143d e44c 15bc

linear3.weight f4 [3, 256]
0.46375126 -0.032108415 0.08581728 -0.055859227 -1.2782942 0.02307455 0.028457751 -0.03173272
-0.05251641 -0.007310496 0.22923467 -0.094929144 -0.019602232 0.1901155 -0.059405986 0.57989836
0.17443499 0.416508 0.60718673 -0.031537652 0.0077235736 0.0074449372 -0.082010336 -0.049386453
0.016707594 -0.022935966 0.005674971 -0.020715551 -1.5747457 0.028035423 -0.4618701 -0.0063759377
-0.025065972 -0.8393186 -0.09974801 0.31980705 -0.24609458 -0.5451754 0.50306296 -0.4168304
0.037214484 -0.03430913 -0.079054624 -0.055114932 -0.05196698 0.015419141 -0.033141818 0.031618997
0.035115074 -0.08171565 -1.556038 -1.1187817 -0.10396533 -0.025110217 0.76398677 0.24915211
-0.8290658 0.66198707 0.03500546 -0.120464884 0.03447183 -0.3593236 -1.2976513 -1.0775622
-0.09558065 0.36654034 0.18092407 -0.0030185962 0.018324587 0.010885637 -0.28255692 0.6957779
-0.01225079 -0.039786045 -1.1544323 -0.59937143 0.27540872 -0.097982645 -0.07800997 0.0077511175
1.2449272 -0.078704655 1.1467597 -0.4260501 0.42835 -0.016168853 -0.0084908195 0.6920507
0.8621945 -0.043346178 0.06388123 0.29927292 0.029752238 -0.1077356 -0.086488605 0.04656176
0.006604598 -0.038468696 0.8788637 0.44983932 -0.0043173274 -0.07746907 0.80641466 -0.058401957
-0.009272098 0.53978854 -0.016237523 0.01739649 -0.050329942 -0.6400201 0.0135853235 0.030059963
-0.28382918 0.28314647 0.37326074 1.327371 0.04569624 -0.08028017 0.063880764 0.008989675
-0.88134 -0.28632742 -0.42585346 -0.07449988 -0.05510565 0.75814945 0.053908143 -0.006801809
-0.04222368 0.050050862 -0.964475 -0.24185903 0.065516375 0.2820726 0.73346275 -0.465909
-0.059690192 -0.83685184 -0.7481317 0.5376206 0.067419164 -0.015459403 -0.0059674345 -0.036652755
-0.07423948 0.019217333 0.019291185 -0.061264846 0.23264556 -0.054593977 -0.04285783 -0.28710556
0.8500005 0.1709124 -0.20537837 -0.09473248 -0.19205706 0.02721413 1.1028475 0.011097292
-0.24164666 0.175437 0.90587735 0.931638 -0.004886152 0.009899774 -0.0011987425 -0.019009326
-0.03327121 -0.083907165 0.03862023 -0.021827172 0.8483544 0.012198082 -0.012257022 0.047235224
-0.029031614 -0.06013766 -0.05062783 -0.43829188 0.53330004 0.01326516 -0.02372234 -0.9107416
0.4795155 0.0046373014 0.017848467 0.01597286 -0.0671352 -0.049695265 -0.0615363 -0.041700244
-0.009450752 -0.03064744 0.036204226 0.025175167 0.010538309 -0.047996003 0.5318803 -0.54675204
-0.056272488 -0.03556559 -0.04759865 0.99110234 -0.048879247 0.5910645 -0.9089257 0.51849526
0.08663147 0.026414793 0.016657803 -0.08095708 -0.10783288 -0.9239391 -0.04399257 -0.06538703
-0.032199908 0.03732243 -0.027132208 0.034294754 -0.08864987 0.4164858 -0.51174736 0.050343357
0.43544066 0.38753885 -0.0012637456 -0.07905799 0.74768114 0.35837927 -0.058567528 -0.9973955
-0.03972684 -0.021434976 -0.05489434 0.21831594 0.21138115 0.008065045 -0.0879508 0.7126047
-0.0019156826 -0.030715205 -0.02454432 -0.04770254 -0.079345055 -0.06322873 1.0016538 0.013924856
-0.10254345 -0.0047174273 -0.07828538 0.010634654 -0.006412516 0.032592386 0.00071812136 0.011530118
00000000: ce70 ed3e 1d84 03bd f8c0 af3d a5cc 64bd
00000010: 259f a3bf d706 bd3c 3b20 e93c 2bfa 01bd
00000020: 721b 57bd e38c efbb 7ebc 6a3e 366a c2bd
00000030: dc94 a0bc a3ad 423e b153 73bd 3874 143f
00000040: 169f 323e 8940 d53e 9770 1b3f a02d 01bd
00000050: 0816 fd3b a9f4 f33b 09f5 a7bd 7349 4abd
00000060: 5dde 883c 35e4 bbbc 1bf5 b93b a9b3 a9bc
00000070: 4491 c9bf 8baa e53c 3d7a ecbe 3eed d0bb
00000080: 2757 cdbc 95dd 56bf af48 ccbd c0bd a33e
00000090: 3800 7cbe 9d90 0bbf bcc8 003f cb6a d5be
000000a0: 376e 183d bb87 0cbd 64e7 a1bd 32c0 61bd
000000b0: 54db 54bd 91a0 7c3c b7bf 07bd ec82 013d
000000c0: d3d4 0f3d 895a a7bd 412c c7bf 3d34 8fbf
000000d0: c6eb d4bd f1b3 cdbc a394 433f bb21 7f3e
000000e0: a83d 54bf fc77 293f e361 0f3d 4bb6 f6bd
000000f0: 5532 0d3d 43f9 b7be 7019 a6bf 8fed 89bf
00000100: cabf c3bd 2dab bb3e 2944 393e a4d3 45bb
00000110: 721d 963c ac59 323c 4dab 90be 801e 323f
00000120: 8ab7 48bc b1f6 22bd 70c4 93bf 6870 19bf
00000130: 5f02 8d3e 20ab c8bd b1c3 9fbd 16fd fd3b
00000140: c659 9f3f e82f a1bd 06c9 923f 3d23 dabe
00000150: b150 db3e 8b74 84bc 141d 0bbc 3c2a 313f
00000160: c7b8 5c3f c38b 31bd 2ad4 823d 4d3a 993e
00000170: f7ba f33c 7ba4 dcbd f020 b1bd 8bb7 3e3d
00000180: 626b d83b 5a91 1dbd 36fd 603f 5751 e63e
00000190: 5e78 8dbb 1ba8 9ebd 3171 4e3f e436 6fbd
000001a0: ffe9 17bc 952f 0a3f 8e04 85bc 1583 8e3c
000001b0: c526 4ebd 5bd8 23bf fa94 5e3c 5040 f63c
000001c0: 0f52 91be 93f8 903e 081c bf3e 4be7 a93f
000001d0: fb2b 3b3d ee69 a4bd ebd3 823d 6e49 133c
000001e0: 809f 61bf 8299 92be 7709 dabe 6593 98bd
000001f0: 76b6 61bd 1516 423f c9ce 5c3d b6e1 debb
00000200: bdf2 2cbd 2202 4d3d d5e7 76bf e5a9 77be
00000210: 732d 863d d26b 903e 37c4 3b3f a08b eebe
00000220: b47d 74bd ec3b 56bf 8f85 3fbf 81a1 093f
00000230: 0f13 8a3d 7049 7dbc 788a c3bb 3321 16bd
00000240: de0a 98bd ab6d 9d3c 8c08 9e3c d9f0 7abd
00000250: a33a 6e3e ef9d 5fbd b18b 2fbd 80ff 92be
00000260: a299 593f a903 2f3e b54e 52be 1a03 c2bd
00000270: 9baa 44be 2bf0 de3c 1b2a 8d3f 6bd1 353c
00000280: 3972 77be c2a5 333e 94e7 673f d47f 6e3f
00000290: 041c a0bb a932 223c 201f 9dba 72b9 9bbc
000002a0: 6447 08bd 85d7 abbd 3f30 1e3d e6ce b2bc
000002b0: c12d 593f 77da 473c add1 48bc b979 413d
000002c0: b5d3 edbc e852 76bd 215f 4fbd cb67 e0be
000002d0: 5a86 083f 1d56 593c 5a55 c2bc 5d26 69bf
000002e0: 0e83 f53e 81f4 973b f336 923c 84d9 823c
000002f0: 2e7e 89bd 438d 4bbd 7d0d 7cbd e0cd 2abd
00000300: 54d7 1abc 5710 fbbc e24a 143d 273c ce3c
00000310: dfa8 2c3c 7597 44bd 4f29 083f f1f7 0bbf
00000320: fb7d 66bd 39ad 11bd cdf6 42bd e2b8 7d3f
00000330: 9b35 48bd 0150 173f 5baf 68bf 1bbc 043f
00000340: d76b b13d d663 d83c f275 883c d3cc a5bd
00000350: 7cd7 dcbd 4687 6cbf 8e31 34bd a3e9 85bd
00000360: 0de4 03bd 68df 183d 5d44 debc a878 0c3d
00000370: 108e b5bd a03d d53e e001 03bf d634 4e3d
00000380: 14f2 de3e 7e6b c63e 44a4 a5ba 28e9 a1bd
00000390: 0868 3f3f 7d7d b73e 81e4 6fbd 5055 7fbf
000003a0: 9cb8 22bd 6798 afbc e3d8 60bd 378e 5f3e
000003b0: 4d74 583e 4023 043c 8d1f b4bd 436d 363f
000003c0: a417 fbba 749e fbbc 2b11 c9bc bd63 43bd
000003d0: a97f a2bd 107e 81bd 3136 803f 1425 643c
000003e0: 4d02 d2bd a694 9abb 1654 a0bd f93c 2e3c
000003f0: 1520 d2bb 987f 053d 4f40 3c3a d2e8 3c3c

linear3.bias f4 [3]
-0.073179245 -0.0339087 -0.033634335
00000000: 00df 95bd d9e3 0abd 28c4 09bd
