version_2_points_without_rotation/DDPG_GPU_MPI/w32_m_t005/actor.pth (torch, 287575 bytes, 6 tensors)

linear1.weight f4 [256, 18]
0.112086326 -0.13550022 0.12832293 -0.02140383 -0.08927731 -0.19922194 0.1412691 0.05304543
0.22347227 -0.034091737 0.035936758 0.10157021 -0.19431387 -0.09451257 0.11095933 -0.06717665
0.1610442 0.17193004 -0.058391415 0.29451752 0.1299205 0.033416517 -0.19454683 0.15196788
-0.10467689 0.2493174 0.059659608 0.15022373 0.016558416 -0.081999026 -0.0012834426 -0.048652172
0.124153316 0.04536125 -7.468964e-05 -0.041432086 -0.1258719 0.29410803 -0.2348836 0.19354568
0.1024738 -0.04595971 0.06569539 0.32916132 -0.24174105 0.2764363 0.29598415 -0.08678432
0.003892629 -0.05581854 0.18218945 0.024269052 -0.06092441 0.21417664 -0.1874333 -0.31578106
-0.11169777 -0.0731443 -0.21374933 0.047301147 0.21512176 -0.26151443 -0.08688617 -0.052903682
-0.37834746 -0.22960839 0.23532683 0.2468115 0.13258666 0.32043013 0.15249859 0.16571239
-0.1808972 0.39355177 0.06801463 -0.22329032 0.16746761 -0.11401648 -0.18905294 0.049675785
0.21389477 -0.112604216 -0.0063370406 -0.076661564 0.015978388 0.23387462 -0.16897367 -0.15645084
0.10968043 0.060731243 0.01477001 -0.13653499 0.22616684 -0.15623985 0.03576671 0.1999755
-0.25011733 0.38828933 0.22646752 0.091914505 0.2544583 0.057480298 0.18027316 -0.47529796
0.009187108 -0.14632389 -0.47109538 0.1577065 -0.114716575 -0.2792092 -0.18115619 0.065649316
-0.107981816 -0.02767889 0.26758757 -0.36946717 0.025820857 -0.07701539 0.14638254 -0.18566296
-0.2671493 0.37908897 0.0436272 -0.109113745 0.124006666 0.06562175 0.25822327 0.29821187
0.11873495 0.044524457 0.064403035 0.23482308 -0.05591566 0.07554834 0.2335576 -0.14537604
0.25197268 0.1290406 -0.02754425 -0.24936967 0.10868673 0.06327108 -0.19392887 0.2535935
0.07944214 -0.05118091 -0.0255418 0.05733288 0.04239177 0.002774479 -0.15540065 0.2458881
-0.114315405 -0.08841448 0.32768205 -0.21431513 0.25560686 -0.07434624 0.27417934 -0.11089677
-0.14673604 0.09736252 0.15042807 -0.15495154 -0.044225737 -0.12557937 0.19847569 -0.0001316379
0.07486324 -0.40171823 0.23477255 0.07285519 -0.6796679 -0.14285533 0.014223395 0.13766003
-0.121950865 -0.08401585 0.5526164 -0.03133505 0.117182374 -0.31743422 -0.07853104 -0.050929114
-0.13022721 0.13015948 0.21196032 -0.17591281 0.19133748 -0.061481044 -0.4152449 0.2277953
0.12604761 0.2769544 -0.12077326 -0.19888519 0.19009162 -0.0221715 0.16221528 0.34712857
0.15790811 0.06278405 0.15931214 -0.14233123 -0.071261905 0.17221273 0.19065449 -0.11187235
0.2318513 -0.20164213 -0.03672598 -0.17839324 -0.11493786 0.29422373 -0.5366363 0.22822982
-0.15785077 0.2326301 0.07243904 -0.06495065 -0.12160318 0.039334353 0.24157181 -0.10832171
-0.13321654 0.3164322 -0.03984066 0.061866947 -0.046048924 -0.087912776 0.09583242 0.18536225
0.083702534 -0.020760704 0.3259017 -0.33753398 0.06867208 -0.13781853 -0.037289537 0.14834325
0.31221792 -0.039396238 -0.13634759 0.057552557 -0.47457847 -0.15506673 -0.08833902 0.1720624
0.21234694 -0.18747318 0.18852188 0.05794727 0.07878326 -0.030182278 -0.14705606 0.26520178
00000000: 848d e53d 92c0 0abe 1667 033e 1657 afbc
00000010: 06d7 b6bd d600 4cbe d9a8 103e 2a46 593d
00000020: ead5 643e c7a3 0bbd 6c32 133d 0b04 d03d
00000030: 37fa 46be ce8f c1bd a53e e33d e993 89bd
00000040: c5e8 243e 6e0e 303e d62b 6fbd 00cb 963e
00000050: e109 053e c2df 083d 4937 47be 789d 1b3e
00000060: d660 d6bd 0f4d 7f3e a25d 743d 40d4 193e
00000070: 84a5 873c 1bef a7bd 3039 a8ba 8047 47bd
00000080: 1844 fe3d b8cc 393d b2a2 9cb8 b1b4 29bd
00000090: 90e4 00be 5495 963e 5485 70be d730 463e
000000a0: c9dd d13d 4040 3cbd 4e8b 863d d587 a83e
000000b0: f78a 77be 0f89 8d3e 3c8b 973e fabb b1bd
000000c0: 7a1b 7f3b fba1 64bd df8f 3a3e e4cf c63c
000000d0: e08b 79bd 1f51 5b3e 84ee 3fbe 0eae a1be
000000e0: cdc1 e4bd aecc 95bd 1be1 5abe d9be 413d
000000f0: e148 5c3e 38e5 85be 60f1 b1bd 88b1 58bd
00000100: c2b6 c1be 761e 6bbe 84f9 703e 27bc 7c3e
00000110: ccc4 073e 6b0f a43e 9728 1c3e 82b0 293e
00000120: 1e3d 39be 9e7f c93e 414b 8b3d 38a6 64be
00000130: a17c 2b3e 7981 e9bd 1897 41be d678 4b3d
00000140: 3b07 5b3e 0a9d e6bd f3a6 cfbb bd00 9dbd
00000150: 1ce5 823c d47c 6f3e 6f07 2dbe a634 20be
00000160: 22a0 e03d 53c1 783d e9fd 713c d4cf 0bbe
00000170: 4898 673e 57fd 1fbe 1d80 123d 61c6 4c3e
00000180: 610f 80be dccd c63e 1ae7 673e ac3d bc3d
00000190: 5c48 823e 7670 6b3d 8799 383e 415a f3be
000001a0: 8685 163c eed5 15be 6a33 f1be d07d 213e
000001b0: 86f0 eabd 82f4 8ebe 0281 39be 2673 863d
000001c0: 9225 ddbd d7be e2bc 3d01 893e cd2a bdbe
000001d0: 4386 d33c 3fba 9dbd 4ee5 153e 6e1e 3ebe
000001e0: cbc7 88be f317 c23e 6fb2 323d 0777 dfbd
000001f0: 35f7 fd3d b264 863d d735 843e 3aaf 983e
00000200: 4f2b f33d 475f 363d bde5 833d 7675 703e
00000210: d207 65bd 17b9 9a3d b929 6f3e 75dd 14be
00000220: 9002 813e 3823 043e 7ba4 e1bc c35a 7fbe
00000230: 2697 de3d 4594 813d 4a95 46be 02d7 813e
00000240: 90b2 a23d 13a3 51bd 093d d1bc e2d5 6a3d
00000250: fea2 2d3d 09d4 353b 5921 1fbe 17ca 7b3e
00000260: 321e eabd a712 b5bd f1c5 a73e 6d75 5bbe
00000270: e7de 823e d742 98bd 3c61 8c3e d91d e3bd
00000280: f941 16be 0066 c73d d109 1a3e 9eab 1ebe
00000290: 0c26 35bd e197 00be 363d 4b3e 4808 0ab9
000002a0: e651 993d 03ae cdbe 3768 703e 1a35 953d
000002b0: b7fe 2dbf ab48 12be 3e09 693c c0f6 0c3e
000002c0: 60c1 f9bd 8110 acbd 4578 0d3f 2e59 00bd
000002d0: 50fd ef3d bd86 a2be e2d4 a0bd 0c9b 50bd
000002e0: 485a 05be 8748 053e 200c 593e 7d22 34be
000002f0: f9ed 433e 8cd3 7bbd fb9a d4be 2c43 693e
00000300: a012 013e f8cc 8d3e f957 f7bd 8fa8 4bbe
00000310: 61a7 423e 01a1 b5bc c31b 263e d6ba b13e
00000320: aab2 213e ed94 803d b922 233e 47bf 11be
00000330: c3f1 91bd 8958 303e ee3a 433e 551d e5bd
00000340: 6d6a 6d3e 467b 4ebe fb6d 16bd b8ac 36be
00000350: 8a64 ebbd 7ea4 963e ff60 09bf 14b5 693e
00000360: a2a3 21be 9636 6e3e eb5a 943d d904 85bd
00000370: 170b f9bd 0f1d 213d 9a5e 773e c6d7 ddbd
00000380: eb69 08be 6703 a23e f62f 23bd 3268 7d3d
00000390: cc9d 3cbd 9d0b b4bd ca43 c43d 9acf 3d3e
000003a0: 3c6c ab3d 5a12 aabc 96dc a63e 41d1 acbe
000003b0: f3a3 8c3d 4d20 0dbe eabc 18bd 4be7 173e
000003c0: 07db 9f3e f35d 21bd b49e 0bbe 3bbc 6b3d
000003d0: f3fb f2be d0c9 1ebe 17eb b4bd 2031 303e
000003e0: 7a71 593e f8f8 3fbe e10b 413e 1e5a 6d3d
000003f0: 1e59 a13d d340 f7bc dd95 16be 87c8 873e

linear1.bias f4 [256]
0.08523238 0.17996143 0.18506819 0.06380998 -0.22362529 0.016372945 -0.20168558 -0.074230835
0.2462408 0.019342901 -0.026561406 0.040313534 -0.10191358 0.064730495 0.08540436 0.08285509
0.026249416 0.11263609 0.048180185 0.2325634 -0.005257644 0.10031463 -0.096674964 0.26047435
0.016317163 0.23662326 -0.081606634 0.09783303 0.078149326 0.24042667 -0.0943401 -0.031560533
0.001318159 0.012181238 -0.2121403 0.08560742 0.3139967 0.17435366 -0.03444078 -0.12659347
0.179006 -0.05006486 0.17105252 -0.11896219 0.18906318 -0.11019969 -0.19071941 -0.0807716
0.2791955 -0.005233648 0.26362628 -0.10710852 0.1855845 -0.19829808 0.22911768 0.09226575
-0.1502451 -0.18833703 -0.09464455 0.21639079 0.30730492 -0.13289717 -0.12143199 0.11035943
-0.06343054 -0.16615853 -0.219722 -0.057915855 0.26431152 0.014735674 -0.12181235 -0.078322105
0.20374332 -0.22354436 -0.16166234 -0.1586108 -0.17928495 -0.13417754 0.022774424 -0.062278926
0.17405319 -0.17492244 0.16102427 0.19825397 -0.12236061 0.16870682 0.08258906 -0.0038169394
-0.14146733 -0.061442044 -0.13094966 0.2034757 0.11189921 0.06375452 0.019638136 -0.111575566
0.20175433 -0.018450085 0.14404665 -0.1804748 -0.10843058 -0.07556357 -0.041596062 -0.059142016
0.13769278 0.064418994 0.20484067 -0.12906499 0.03125055 -0.12462403 -0.0380553 0.18114904
0.19835648 0.022240508 0.15232998 0.061706696 0.13253178 -0.021146525 -0.076813884 -0.03486328
-0.24100055 -0.16837168 -0.01139967 -0.1326667 0.2807231 0.035484117 -0.061284684 -0.05841646
-0.050747182 -0.2136807 -0.1357321 0.16250624 -0.21130617 0.026597438 -0.15658028 0.19355366
0.1302509 0.24049467 0.09494941 0.20375131 -0.078531235 -0.040669728 0.19152007 0.104813226
0.21314298 -0.018619796 0.110781625 0.03883909 -0.22371618 0.12812498 0.13010244 0.22768
-0.0006635324 -0.16386893 -0.19167131 0.012019575 -0.031016616 0.22149394 0.03425572 -0.03919721
0.2533715 0.22619571 0.25128648 -0.11912043 -0.018451037 -0.002144684 -0.19539703 0.11925102
0.101737276 -0.19236918 0.0150372805 0.04845004 0.27757993 -0.12125773 0.101853706 -0.05602986
-0.11634722 0.17998597 0.23252663 -0.11990823 -0.020854399 0.22515696 0.16715814 0.14240988
0.12775262 0.051359273 -0.26890612 -0.10572795 0.120733745 0.047920898 0.1493304 0.2098535
0.18070176 0.06802771 0.21676312 0.15674636 0.08499305 0.09807715 -0.046524823 0.22821833
0.058367405 -0.09280455 0.14795144 0.06646087 -0.04253793 -0.038063105 -0.17376651 -0.18457034
-0.122793786 -0.023847016 0.14728558 0.10474905 -0.12780966 0.08793109 0.1707123 -0.20718753
0.13232644 -0.19327654 0.010201605 0.20253241 0.15821904 -0.042654287 0.09286137 0.0994349
0.20293553 0.23631033 0.08292644 0.12536544 -0.0941763 0.10379065 0.12714589 0.0075031584
0.23542552 -0.020766562 -0.08731958 -0.2606398 0.13558877 -0.26205784 -0.10529007 -0.24853425
0.18809852 0.04679813 0.04791778 0.119318046 0.045533746 0.17621075 0.14965267 -0.20486298
-0.036977563 -0.1144762 -0.21259448 -0.0023250072 -0.03216503 -0.032366578 0.0344234 0.073815316
00000000: 508e ae3d cf47 383e 8482 3d3e cfae 823d
00000010: 07fe 64be 8e20 863c aa86 4ebe 5606 98bd
00000020: 8c26 7c3e 0175 9e3c 4e97 d9bc ce1f 253d
00000030: 11b8 d0bd 6c91 843d 7be8 ae3d eeaf a93d
00000040: 0409 d73c c0ad e63d 9658 453d 1a25 6e3e
00000050: 5148 acbb c271 cd3d 86fd c5bd e55c 853e
00000060: 92ab 853c 5e4d 723e 6121 a7bd af5c c83d
00000070: c10c a03d 6932 763e 6235 c1bd 9e45 01bd
00000080: 14c6 ac3a d193 473c 4f3b 59be f152 af3d
00000090: 2dc4 a03e c489 323e c611 0dbd b8a1 01be
000000a0: 594d 373e d010 4dbd 6428 2f3e 73a2 f3bd
000000b0: c799 413e 60b0 e1bd f34b 43be 956b a5bd
000000c0: b6f2 8e3e 057f abbb 06fa 863e b65b dbbd
000000d0: dd09 3e3e a70e 4bbe d39d 6a3e d3f5 bc3d
000000e0: dad9 19be 6cdb 40be 00d5 c1bd 8c95 5d3e
000000f0: 1257 9d3e 3216 08be 56b1 f8bd 2004 e23d
00000100: dfe7 81bd 7625 2abe cefe 60be 2d39 6dbd
00000110: d753 873e e56d 713c c178 f9bd 5767 a0bd
00000120: 17a2 503e d0e8 64be d08a 25be df6a 22be
00000130: 7996 37be d665 09be 6e91 ba3c 3018 7fbd
00000140: 003b 323e de1e 33be 8ce3 243e 1703 4b3e
00000150: 3398 fabd 7bc1 2c3e 7424 a93d 9e25 7abb
00000160: d0dc 10be a7aa 7bbd ab17 06be ef5b 503e
00000170: 6a2b e53d bb91 823d 28e0 a03c bb81 e4bd
00000180: b098 4e3e a224 97bc f780 133e 63ce 38be
00000190: da10 debd 13c1 9abd a260 2abd e63e 72bd
000001a0: 56ff 0c3e 1bee 833d c1c1 513e 9d29 04be
000001b0: 9400 003d e23a ffbd e0df 1bbd 227f 393e
000001c0: f61d 4b3e ba31 b63c 64fc 1b3e 29c0 7c3d
000001d0: 69b6 073e 7a3b adbc 9950 9dbd cccc 0ebd
000001e0: d9c8 76be a069 2cbe aec5 3abc c8d9 07be
000001f0: f0ba 8f3e cb57 113d a605 7bbd 1946 6fbd
00000200: 47dc 4fbd 1dcf 5abe 5bfd 0abe 0968 263e
00000210: a560 58be dfe2 d93c 9556 20be ee32 463e
00000220: 7e60 053e 3c44 763e d674 c23d 2fa4 503e
00000230: fcd4 a0bd 4d95 26bd d61d 443e 51a8 d63d
00000240: 2742 5a3e 8b88 98bc 7ae1 e23d bd15 1f3d
00000250: db15 65be 3233 033e 9339 053e f224 693e
00000260: e8f0 2dba 42cd 27be 7c45 44be c0ed 443c
00000270: 8f16 febc 4fcf 623e ba4f 0c3d 418d 20bd
00000280: e9b9 813e d99f 673e 9fa8 803e 69f5 f3bd
00000290: a126 97bc d48d 0cbb 2916 48be e139 f43d
000002a0: a25b d03d 6dfc 44be ed5e 763c 8d73 463d
000002b0: f51e 8e3e f955 f8bd ad98 d03d 917f 65bd
000002c0: 7447 eebd 3e4e 383e 761b 6e3e 7292 f5bd
000002d0: d8d6 aabc 8c8f 663e 812b 2b3e e5d3 113e
000002e0: 95d1 023e 1a5e 523d 10ae 89be e587 d8bd
000002f0: 4143 f73d b448 443d 12ea 183e d6e3 563e
00000300: e209 393e 1d52 8b3d 27f7 5d3e 1e82 203e
00000310: d610 ae3d acdc c83d d090 3ebd 11b2 693e
00000320: a912 6f3d 5010 bebd 9580 173e a31c 883d
00000330: 413c 2ebd 0fe8 1bbd d9ef 31be 0200 3dbe
00000340: 4f7b fbbd d15a c3bc 08d2 163e ac86 d63d
00000350: 89e0 02be 3715 b43d 35cf 2e3e f828 54be
00000360: 9580 073e 49ea 45be a224 273c a864 4f3e
00000370: 2c04 223e 43b6 2ebd 1a2e be3d 86a4 cb3d
00000380: 55ce 4f3e 56fb 713e 56d5 a93d cc5f 003e
00000390: 81df c0bd 3190 d43d 8832 023e 0edd f53b
000003a0: 6313 713e a31e aabc 9cd4 b2bd 9472 85be
000003b0: c8d7 0a3e 722c 86be 52a2 d7bd c37f 7ebe
000003c0: e69c 403e 65af 3f3d 6f45 443d 055d f43d
000003d0: 9881 3a3d 9770 343e 8d3e 193e 9ac7 51be
000003e0: c975 17bd 7f72 eabd 5eb2 59be 265f 18bb
000003f0: 7abf 03bd d192 04bd 8dff 0c3d 7c2c 973d

linear2.weight f4 [256, 256]
-0.015506058 -0.010161382 -0.05644909 0.055453293 -0.035024997 -0.0224769 -0.0063044503 -0.04350657
-0.0640382 0.0007972855 0.05287125 -0.037426814 -0.01663602 -0.04222529 0.018889805 -0.004457232
0.0044652484 0.037010916 0.046832312 0.009724017 -0.031548984 -0.0009508505 0.032563843 -0.045718636
-0.0055252197 0.02633608 -0.04421014 0.039880153 -0.007040837 -0.05615596 -0.05601784 -0.04612162
-0.0022516346 -0.0021529526 -0.04496332 0.005648835 -0.0061256485 0.048296448 0.037502736 -0.024612976
-0.0019284189 -0.03490115 0.03821725 -0.015318076 0.041258976 0.011087178 -0.015804466 -0.008141887
0.015365302 -0.047236487 0.036959626 -0.0054977476 -0.05365138 -0.037449196 0.0024790494 -0.029458089
-0.059565052 -0.04595924 -0.007826428 -0.064976335 0.03558953 -0.035706006 -0.045378506 0.05392076
0.04445648 -0.05747343 -0.02457629 -0.019789053 -0.010307965 0.02676901 0.03254945 -0.052627552
-0.06426514 -0.005929874 -0.060284466 -0.04576901 0.0452711 -0.025889324 0.021513203 -0.034558196
0.018912427 0.03572903 -0.036031477 0.045913566 -0.060855247 0.025867622 0.027730238 0.027934387
0.030543394 0.0129608335 0.02212068 -0.056815885 0.057988983 -0.0005293944 -0.012150878 0.03562946
-0.056346763 0.055016767 0.011086343 -0.006669083 -0.033533167 0.047356308 -0.05380562 0.013307719
-0.033389106 -0.06254908 -0.044157133 -0.037206404 0.05104701 -0.044271417 -0.046872437 -0.009910042
0.049023814 -0.057271462 -0.012610431 0.028714841 0.030065957 -0.044361036 0.052147772 0.0401613
-0.052839458 0.022256937 -0.047094937 -0.014537424 0.010452484 -0.06250926 0.00996659 0.051106256
-0.02570444 0.05552773 -0.030268762 -0.008971501 -0.06081869 -0.008532875 0.040216647 -0.026137311
-0.010206259 -0.00068782293 0.017974466 0.049306992 0.0042955764 -0.059887797 -0.017606512 0.044811293
0.008765964 0.04507885 -0.047656137 0.033628516 -0.0058870986 0.047115345 -0.03835756 -0.03448759
0.04269022 -0.006934522 0.008068708 -0.023370713 -0.022991009 -0.03962018 -0.006439457 0.016566977
-0.032240074 -0.04419495 0.0036665685 -0.018336177 -0.050092645 0.041810837 0.06135807 0.036799524
0.002816982 -0.017835299 0.04893038 -0.0290832 -0.037663713 0.04376865 0.056901064 0.036894243
-0.038817655 -0.028885165 -0.013443778 0.010075867 -0.04586605 0.0024520047 0.049397796 -0.028208893
0.0031050984 0.05370571 0.024866732 0.016981576 -0.038449977 0.008322771 0.032086145 -0.006707769
-0.00030712452 -0.04116952 0.02511758 0.0036136117 0.0008700525 0.01934584 -0.013307394 -0.06674039
0.040822513 0.006630166 -0.030656768 -0.059934884 -0.034515247 -0.00849876 -0.014103526 -0.029666215
0.02036558 0.0008713569 -0.058193125 0.027311213 0.034643296 0.0004941576 0.033916827 0.03377424
0.044890642 -0.05592951 -0.043597527 -0.052255176 0.03612422 -0.0053955344 -0.05586516 0.04918443
0.03060722 -0.018713646 -0.016132738 0.030909983 -0.064975165 -0.015333948 -0.05839059 0.015351512
0.027325314 -0.06636118 -0.018798307 0.011982334 -0.051689018 -0.051287737 0.047340274 -0.022362785
0.05440634 -0.013587994 -0.02465055 0.0030396965 -0.058935758 -0.019916853 -0.05467914 -0.06314407
0.011782164 -0.035030294 -0.0077801803 0.014951026 -0.033542257 -0.00044154347 -0.064413115 -0.032144047
00000000: 1f0d 7ebc ed7b 26bc 2937 67bd fe22 633d
00000010: 5f76 0fbd 7a21 b8bc 9095 cebb f233 32bd
00000020: 7626 83bd ed00 513a 868f 583d dc4c 19bd
00000030: 4348 88bc 6df4 2cbd cbbe 9a3c f90d 92bb
00000040: 3851 923b c298 173d 3dd3 3f3d 7c51 1f3c
00000050: 8239 01bd 7f42 79ba aa61 053d 7743 3bbd
00000060: e70c b5bb c3be d73c b115 35bd 5f59 233d
00000070: d2b6 e6bb cb03 66bd f672 65bd 06ea 3cbd
00000080: 2990 13bb 8d18 0dbb 752b 38bd dd19 b93b
00000090: aab9 c8bb 7fd2 453d 789c 193d 27a1 c9bc
000000a0: 00c3 fcba 82f4 0ebd b189 1c3d abf8 7abc
000000b0: 2cff 283d ffa6 353c 5e78 81bc 8d65 05bc
000000c0: bfbe 7b3c 0c7b 41bd fa62 173d 7326 b4bb
000000d0: 8dc1 5bbd 5464 19bd 8c77 223b 1752 f1bc
000000e0: 7cfa 73bd c23f 3cbd 6b3a 00bc 5012 85bd
000000f0: 54c6 113d 7640 12bd d0de 39bd 04dc 5c3d
00000100: ff17 363d 4269 6bbd 3754 c9bc a71c a2bc
00000110: bde2 28bc af4a db3c 9252 053d fd8f 57bd
00000120: 719d 83bd 634f c2bb d8ec 76bd 4978 3bbd
00000130: 306e 393d d915 d4bc 753c b03c e58c 0dbd
00000140: 3cee 9a3c 9a58 123d be95 13bd dd0f 3c3d
00000150: 5a43 79bd 56e8 d33c 862a e33c a8d6 e43c
00000160: 2436 fa3c ad59 543c 6e36 b53c c6b7 68bd
00000170: db85 6d3d 0fc7 0aba 7a14 47bc 32f0 113d
00000180: ddcb 66bd 4359 613d 7ea3 353c 5388 dabb
00000190: 135a 09bd b0f8 413d 4863 5cbd 9e08 5a3c
000001a0: 04c3 08bd bb19 80bd 1cde 34bd be65 18bd
000001b0: ab16 513d f255 35bd 50fd 3fbd bb5d 22bc
000001c0: 32cd 483d 7b95 6abd fb9b 4ebc 633b eb3c
000001d0: e24c f63c ebb3 35bd e798 553d 2d80 243d
000001e0: 306e 58bd 2e54 b63c 9fe6 40bd 602e 6ebc
000001f0: e540 2b3c db04 80bd e94a 233c cb54 513d
00000200: 1e92 d2bc 0c71 633d 32f6 f7bc 34fd 12bc
00000210: 051d 79bd 79cd 0bbc 36ba 243d ea1d d6bc
00000220: 2738 27bc 044f 34ba 303f 933c 21f6 493d
00000230: e8c1 8c3b e84c 75bd 883b 90bc 0c8c 373d
00000240: 1e9f 0f3c 9aa4 383d 1533 43bd 0ebe 093d
00000250: 90e8 c0bb 05fc 403d d11c 1dbd dc42 0dbd
00000260: f1db 2e3d fd3a e3bb 9d32 043c f073 bfbc
00000270: a457 bcbc c548 22bd 1502 d3bb 78b7 873c
00000280: 2b0e 04bd c405 35bd d04a 703b c035 96bc
00000290: f22d 4dbd d741 2b3d 9952 7b3d 19bb 163d
000002a0: 1e9d 383b 551b 92bc 396b 483d e43f eebc
000002b0: 4445 1abd c246 333d 1711 693d 6b1e 173d
000002c0: 43ff 1ebd 95a0 ecbc 4b43 5cbc 4015 253c
000002d0: 0ade 3bbd d0b1 203b 5855 4a3d 5616 e7bc
000002e0: e87e 4b3b 85fa 5b3d 51b5 cb3c f21c 8b3c
000002f0: b97d 1dbd 3b5c 083c c36c 033d d8cc dbbb
00000300: 8e05 a1b9 5fa1 28bd 62c3 cd3c 58d2 6c3b
00000310: 3c14 643a 2b7b 9e3c 4207 5abc 30af 88bd
00000320: 8235 273d dd41 d93b e723 fbbc 487e 75bd
00000330: dc5f 0dbd 623e 0bbc 7a12 67bc 9006 f3bc
00000340: b8d5 a63c c66b 643a ea5b 6ebd c4bb df3c
00000350: 21e6 0d3d 5b8a 013a 5fec 0a3d dc56 0a3d
00000360: 40df 373d 5816 65bd 5293 32bd 8609 56bd
00000370: fdf6 133d 06cd b0bb ded2 64bd 9d75 493d
00000380: febb fa3c 5c4d 99bc ce28 84bc ef36 fd3c
00000390: b311 85bd 3d3b 7bbc f92a 6fbd e884 7b3c
000003a0: 56d9 df3c 5fe8 87bd e8fe 99bc 8d51 443c
000003b0: ddb7 53bd 1713 52bd e0e7 413d 2932 b7bc
000003c0: 2fd9 5e3d 2da0 5ebc f3ef c9bc a535 473b
000003d0: 9f66 71bd ab28 a3bc 3cf7 5fbd ae51 81bd
000003e0: fa09 413c ed7b 0fbd e2f0 febb 26f5 743c
000003f0: 9b63 09bd f67e e7b9 06eb 83bd 7aa9 03bd

linear2.bias f4 [256]
0.05272554 0.07495745 0.050180316 -0.05184591 0.046161514 0.06349705 0.04685812 -0.027455285
0.08572861 -0.11904392 0.036583923 0.040472165 0.039148193 0.037306856 0.07906236 -0.038910173
-0.012063465 -0.024451962 0.007930331 0.023585632 -0.047218475 -0.05630259 -0.05696759 0.061941594
0.018018326 -0.0058151367 0.023817502 0.04042956 0.05272029 -0.0061241174 0.030884517 0.039332144
-0.008688131 0.036247358 0.04670387 -0.04340251 -0.02693735 -0.023265556 0.0010432206 0.007884055
-0.034368634 0.041563984 -0.037945542 0.078988194 -0.0008935013 -0.041796483 -0.007824037 -0.0069042505
0.020792216 0.05743771 -0.022493066 0.011128435 -0.017967632 0.042656966 0.022977566 0.025887312
-0.06657119 -0.061654545 0.07587193 -0.058407966 0.0542774 0.06455626 0.035254147 0.007209015
-0.008836998 -0.06276622 -0.0151202055 0.035167012 -0.035056345 -0.077520736 -0.008830364 -0.07790137
0.081219934 -0.08356666 -0.049294602 -0.036127914 -0.025622696 0.0016623065 0.026453374 0.032613374
0.013132549 -0.02457769 0.010645106 -0.033625986 0.047437206 -0.050763953 0.0724745 0.027464006
-0.018923666 -0.06394525 0.04822348 0.024304956 -0.027649501 0.01925028 0.043947477 -0.00094243087
-0.028730292 0.05135248 -0.007586454 0.071305685 -0.0018930087 0.004193055 0.021317663 -0.081562474
0.0624735 -0.074206255 0.07888646 0.008957006 0.053563952 0.007125346 -0.060216576 0.054951865
0.038313966 -0.0077392636 -0.08870614 -0.07517275 0.001099929 -0.03368035 -0.017693808 -0.05431093
0.037826743 0.044957176 0.02989014 0.025194753 -0.0038173757 0.03798334 0.028331919 0.023550251
0.023335518 0.053469714 -0.026909454 -0.013769873 -0.04193507 -0.022317767 -0.06440213 0.0043106084
0.04543329 0.051774953 0.018858708 0.013465799 0.038550798 0.04721531 0.04495858 0.01288884
0.032088745 0.052099083 0.051717773 0.045071255 0.037823856 0.015914781 -0.0009993181 0.04944574
0.04766099 0.07759431 0.006192906 0.076502584 0.08338678 0.017835818 -0.022464143 -0.0013062066
-0.010623029 0.044085823 0.0125249205 0.045343306 -0.057750776 -0.0457635 -0.035792723 0.077325545
-0.022683289 0.03706731 0.019644385 0.03399789 0.041962977 0.033601638 -0.0673658 0.0061791106
0.06380526 -0.033879917 -0.029165495 -0.012273298 -0.015969822 0.034536723 -0.06531849 -0.042787567
-0.03961571 0.08012181 0.039493777 0.055057637 -0.035847146 0.072245285 -0.040578138 -0.00043746125
0.052297413 -0.039357133 -0.051201608 0.09617308 0.083647124 0.05044402 -0.008267326 -0.01709197
-0.05294314 0.09258941 -0.0043638027 0.09043576 -0.025533447 -0.033503965 -0.043182537 0.0051185936
0.013914441 0.025036614 0.01806576 -0.057970837 0.024127426 0.026574098 0.009335237 0.05636483
-0.006308652 -0.017019106 0.04101368 -0.07347099 0.04030284 -0.026673038 0.03289672 0.045088664
-0.033218987 -0.071762666 -0.024596639 -0.03618704 -0.03532367 -0.05214323 0.051600575 0.0012818677
0.050401047 -0.019367332 -0.010670992 -0.018700056 0.009707239 -0.05640898 -0.0018948873 0.006181189
-0.036834367 -0.003457429 0.036914647 0.0776844 0.03802007 0.036052015 0.031763975 0.026531365
0.032710604 -0.031169929 0.029516296 -0.031440374 0.018618766 0.05276051 0.045330923 -0.031094655
00000000: bcf6 573d 4b83 993d e089 4d3d 605c 54bd
00000010: db13 3d3d be0a 823d 4dee 3f3d e8e9 e0bc
00000020: 7b92 af3d 4ccd f3bd 06d9 153d 24c6 253d
00000030: db59 203d 13cf 183d 72eb a13d 4660 1fbd
00000040: d7a5 45bc 7b4f c8bc 38ee 013c a836 c13c
00000050: 2968 41bd 8b9d 66bd d956 69bd 78b6 7d3d
00000060: 2b9b 933c e78c bebb ec1c c33c 7799 253d
00000070: 3bf1 573d d2ac c8bb 8701 fd3c be1a 213d
00000080: aa58 0ebc 1c78 143d 8f4c 3f3d d5c6 31bd
00000090: b8ab dcbc 6897 bebc adbc 883a 202c 013c
000000a0: 20c6 0cbd ff3e 2a3d c96c 1bbd 90c4 a13d
000000b0: db39 6aba ca32 2bbd 6430 00bc 0d3d e2bb
000000c0: 7054 aa3c ce43 6b3d 6143 b8bc 0a54 363c
000000d0: db30 93bc 12b9 2e3d 733b bc3c a111 d43c
000000e0: 7a56 88bd 7a89 7cbd be62 9b3d 313d 6fbd
000000f0: fb51 5e3d 1336 843d a766 103d 9a39 ec3b
00000100: 0ec9 10bc 938b 80bd bdba 77bc 490b 103d
00000110: 3e97 0fbd 31c3 9ebd 3bad 10bc c18a 9fbd
00000120: a356 a63d ff24 abbd 23e9 49bd ddfa 13bd
00000130: b0e6 d1bc c0e1 d93a bfb4 d83c 9a95 053d
00000140: e729 573c 2757 c9bc d068 2e3c 67bb 09bd
00000150: 844d 423d dded 4fbd 836d 943d 32fc e03c
00000160: ce05 9bbc baf5 82bd fc85 453d 301b c73c
00000170: 3581 e2bc c3b2 9d3c 4502 343d 770d 77ba
00000180: ca5b ebbc fa56 523d ca97 f8bb b708 923d
00000190: d51e f8ba e565 893b 61a2 ae3c 3a0a a7bd
000001a0: 36e4 7f3d 73f9 97bd 398f a13d 68c0 123c
000001b0: e065 5b3d bc7b e93b a8a5 76bd 3515 613d
000001c0: 1bef 1c3d a699 fdbb 91ab b5bd 2cf4 99bd
000001d0: 7e2b 903a 68f4 09bd 9bf2 90bc 2375 5ebd
000001e0: 37f0 1a3d 0425 383d 2bdc f43c 3a65 ce3c
000001f0: f02c 7abb 6b94 1b3d 5718 e83c 75ec c03c
00000200: 212a bf3c 0f03 5b3d 3771 dcbc 099b 61bc
00000210: 1cc4 2bbd c0d3 b6bc 44e5 83bd 0140 8d3b
00000220: 4218 3a3d f911 543d 947d 9a3c a89f 5c3c
00000230: 71e7 1d3d d764 413d 7d26 383d b72b 533c
00000240: 7d6f 033d d965 553d 04d6 533d a39c 383d
00000250: 30ed 1a3d b75f 823c 8dfb 82ba 9e87 4a3d
00000260: 2c38 433d c4e9 9e3d dced ca3b 63ad 9c3d
00000270: b0c6 aa3d 6c1c 923c b906 b8bc 0535 abba
00000280: 370c 2ebc 5693 343d 5335 4d3c e7b9 393d
00000290: 148c 6cbd 8272 3bbd 649b 12bd db5c 9e3d
000002a0: 4ed2 b9bc e4d3 173d 43ed a03c 5f41 0b3d
000002b0: 5fe1 2b3d dfa1 093d 15f7 89bd 237a ca3b
000002c0: 55ac 823d abc5 0abd 7aec eebc f115 49bc
000002d0: 25d3 82bc 6176 0d3d b3c5 85bd 0442 2fbd
000002e0: 1544 22bd e716 a43d 3ac4 213d 1e84 613d
000002f0: 75d4 12bd 56f5 933d 4335 26bd 0e5b e5b9
00000300: d035 563d f234 21bd c7b8 51bd 64f6 c43d
00000310: 2f4f ab3d 649e 4e3d ae73 07bc 7604 8cbc
00000320: e8da 58bd 849f bd3d 3bfe 8ebb 6236 b93d
00000330: 852b d1bc 743b 09bd 2ce0 30bd e0b9 a73b
00000340: 65f9 633c 9619 cd3c a5fe 933c d472 6dbd
00000350: e1a6 c53c ecb1 d93c d2f2 183c cfde 663d
00000360: cfb8 cebb a76b 8bbc f6fd 273d f577 96bd
00000370: 9714 253d 6a81 dabc b6be 063d e4ae 383d
00000380: a210 08bd 4ef8 92bd e47e c9bc dd38 14bd
00000390: 8daf 10bd 2494 55bd 205b 533d 5804 a83a
000003a0: 5471 4e3d 3da8 9ebc 62d5 2ebc dc30 99bc
000003b0: 1d0b 1f3c 1a0d 67bd de5d f8ba 928b ca3b
000003c0: a2df 16bd 0896 62bb d033 173d 0019 9f3d
000003d0: efba 1b3d 47ab 133d f11a 023d 4e58 d93c
000003e0: 8efb 053d 1458 ffbc 29cc f13c 9fc7 00bd
000003f0: 6286 983c 681b 583d ebac 393d 38ba febc

linear3.weight f4 [3, 256]
0.047200646 0.18304333 -0.266504 -0.29728538 -0.29107076 0.0005460252 -0.0441569 -0.060667492
0.2632457 0.03943044 0.08733208 -0.118190974 0.20868699 -0.05499926 -0.09659655 0.0034662005
0.20057303 0.03871487 -0.101751976 -0.30659172 -0.047844496 0.029806653 -0.18623684 0.010963626
-0.16434899 0.052807134 -0.18434434 0.015095502 0.05832491 0.13034159 -0.014518102 0.16405547
-0.31029013 0.17341329 0.08250794 -0.0311849 -0.008350108 0.20134117 0.040079948 0.03418243
-0.00075254333 0.26477766 -0.13690695 0.22889692 0.081757605 -0.11782255 0.18407929 0.09181479
0.12263805 -0.040396065 -0.019874569 0.29373282 -0.25822255 0.0812337 0.25079787 -0.13416243
-0.22989516 -0.060837034 0.062706575 -0.053458568 0.09024969 -0.12827753 0.41249758 0.08790466
0.12094036 -0.42597666 0.063772984 -0.32787967 -0.33923277 -0.19651064 0.048583314 -0.002086497
-0.05110157 -0.16462539 0.059472322 -0.19162472 -0.017194774 -0.11711751 -0.31096226 -0.3728595
0.22633883 -0.5092925 -0.24914598 0.16448882 -0.316088 -0.4431235 0.17064846 0.08366904
-0.045591887 -0.06284583 -0.2268141 -0.28674498 0.06725742 0.10643898 0.2103239 -0.03538097
0.013539468 0.09835224 -0.16966383 0.14721511 0.08462078 -0.60170466 -0.1319444 0.07186156
-0.07980476 0.12364477 0.16417389 0.17354499 -0.24511354 -0.34927574 -0.03588586 -0.020817146
-0.019762922 0.08467686 -0.3545586 -0.07890322 0.03650675 -0.026875427 0.14631563 -0.010860724
-0.06724795 -0.03040037 -0.48289263 -0.1775284 0.0034404634 0.11384114 0.06900395 0.0062383083
0.3466329 -0.062356565 -0.12840146 -0.16520329 -0.016777439 -0.22309877 0.13772452 -0.07469513
-0.14542848 -0.3664332 -0.024313577 -0.23767714 0.07880381 0.16973855 -0.2991688 0.059716936
0.07438798 0.14783622 -0.18481632 0.08633846 -0.016996764 0.057704717 0.068664625 0.13758717
-0.28354284 0.2693406 0.1712154 0.08411972 0.09312303 -0.020824421 -0.13744669 0.14484346
-0.26296848 -0.047966506 -0.3155457 -0.15132993 0.050681524 0.23684523 -0.15492408 0.04614734
0.10651127 -0.06469583 -0.3194242 -0.059707593 0.010989769 0.124615535 0.11068618 -0.38924342
0.10712181 -0.2228816 -0.058594815 -0.18430023 -0.019122116 0.16101609 -0.09202091 -0.28185922
0.02217539 0.3013742 0.18569477 0.092942 -0.047544032 0.10122471 0.04851622 0.09453899
-0.27180138 0.0028117183 0.04293115 0.08499138 0.3043185 -0.017836604 -0.18994634 0.28846654
-0.1880997 0.32488582 -0.02256721 0.083205834 -0.11397647 -0.0063153356 0.011975273 0.018236455
0.031569235 -0.1951826 -0.14392221 -0.22644013 0.25210527 0.026034802 -0.56620353 -0.17720376
0.17650893 -0.44281414 -0.13262224 -0.08699406 0.16939402 0.30676246 0.2115877 -0.121201195
0.27146855 -0.17513758 0.039867632 -0.020008858 -0.07941254 -0.02774604 -0.05390106 -0.049853552
0.11259644 -0.18697408 0.02577777 -0.04230088 0.16048504 -0.42923102 -0.010161114 0.2547559
0.075960666 -0.0014527952 0.0665161 -0.020092199 -0.0046614916 -0.32137278 -0.32036167 0.12187814
0.020786604 0.060966916 0.105054766 -0.1777298 -0.10567859 0.12791955 -0.008326363 0.08169627
00000000: 7755 413d b66f 3b3e 3673 88be ca35 98be
00000010: 3a07 95be 2223 0f3a dedd 34bd 7a7e 78bd
00000020: 24c8 863e d081 213d 29db b23d 1c0e f2bd
00000030: 0bb2 553e e746 61bd 69d4 c5bd 3229 633b
00000040: 0463 4d3e 7c93 1e3d 5763 d0bd 97f9 9cbe
00000050: 97f8 43bd 152d f43c dfb4 3ebe c8a0 333c
00000060: 1a4b 28be 4b4c 583d c3c4 3cbe 2053 773c
00000070: 1ae6 6e3d 4478 053e 55dd 6dbc 28fe 273e
00000080: 59de 9ebe 4193 313e ecf9 a83d 7a77 ffbc
00000090: e4ce 08bc 612c 4e3e df2a 243d e002 0c3d
000000a0: 5446 45ba f090 873e 5631 0cbe f463 6a3e
000000b0: 8870 a73d f34c f1bd 487f 3c3e 6509 bc3d
000000c0: a829 fb3d 5876 25bd fecf a2bc 2664 963e
000000d0: bf35 84be db5d a63d 9468 803e e061 09be
000000e0: a369 6bbe 4130 79bd 4e6c 803d 5ff7 5abd
000000f0: d4d4 b83d 2f5b 03be e232 d33e 5c07 b43d
00000100: 94af f73d 9d19 dabe 699b 823d d8df a7be
00000110: ebaf adbe 163a 49be 4cff 463d 9cbd 08bb
00000120: e14f 51bd 8f93 28be 4099 733d 4539 44be
00000130: 0edc 8cbc 4edb efbd 7236 9fbe 71e7 bebe
00000140: 5ec5 673e fe60 02bf 2020 7fbe c26f 283e
00000150: 49d6 a1be 15e1 e2be 78be 2e3e ac5a ab3d
00000160: 8fbe 3abd 51b5 80bd f541 68be 3dd0 92be
00000170: 42be 893d aefc d93d 265f 573e a3eb 10bd
00000180: a5d4 5d3c e66c c93d 5bbc 2dbe 8fbf 163e
00000190: a94d ad3d 5109 1abf 6f1c 07be 272c 933d
000001a0: ae70 a3bd 7839 fd3d 331d 283e c7b5 313e
000001b0: 0bff 7abe 45d4 b2be 0dfd 12bd b888 aabc
000001c0: dae5 a1bc 106b ad3d b488 b5be 0398 a1bd
000001d0: 1a88 153d db29 dcbc c4d3 153e 2ef1 31bc
000001e0: 4bb9 89bd 320a f9bc b43d f7be 01ca 35be
000001f0: 6679 613b 8b25 e93d f151 8d3d b96a cc3b
00000200: de79 b13e 9969 7fbd ac7b 03be 0d2b 29be
00000210: d770 89bc 0174 64be a807 0d3e c3f9 98bd
00000220: 34eb 14be 229d bbbe 442d c7bc a361 73be
00000230: e463 a13d f1cf 2d3e a72c 99be bf99 743d
00000240: ba58 983d 6162 173e 7d40 3dbe 38d2 b03d
00000250: cc3c 8bbc c85b 6c3d 0aa0 8c3d a7e3 0c3e
00000260: 872c 91be 03e7 893e 1753 2f3e f646 ac3d
00000270: 4ab7 be3d fa97 aabc d3be 0cbe d851 143e
00000280: cea3 86be 8778 44bd 358f a1be 3cf6 1abe
00000290: 6e97 4f3d 8e87 723e 6ba4 1ebe fe04 3d3d
000002a0: 9522 da3d 3f7f 84bd 928b a3be f38f 74bd
000002b0: 6f0e 343c 6e36 ff3d 70af e23d ea4a c7be
000002c0: ae62 db3d 133b 64be 1e01 70bd 33b9 3cbe
000002d0: fca5 9cbc 67e1 243e 7575 bcbd da4f 90be
000002e0: 2aa9 b53c b84d 9a3e c526 3e3e 6058 be3d
000002f0: 88bd 42bd e74e cf3d f2b8 463d a89d c13d
00000300: 8d29 8bbe ce44 383b 93d8 2f3d f60f ae3d
00000310: a2cf 9b3e 121e 92bc 4b81 42be e3b1 933e
00000320: 359d 40be 6f57 a63e dfde b8bc d267 aa3d
00000330: 7f6c e9bd e0f0 cebb ef33 443c 9e64 953c
00000340: be4e 013d f3dd 47be 5860 13be ecdf 67be
00000350: f113 813e f046 d53c b7f2 10bf e774 35be
00000360: c2be 343e 89b8 e2be 20ce 07be f129 b2bd
00000370: a075 2d3e f80f 9d3e 72aa 583e 5538 f8bd
00000380: edfd 8a3e 4457 33be 3e4c 233d 9ee9 a3bc
00000390: 0ba3 a2bd aa4b e3bc 5cc7 5cbd 3d33 4cbd
000003a0: f698 e63d 2276 3fbe e72b d33c b043 2dbd
000003b0: 3156 243e 2bc4 dbbe cd7a 26bc 5e6f 823e
000003c0: 4491 9b3d b86b beba 9839 883d 6598 a4bc
000003d0: 6dbf 98bb f98a a4be 7206 a4be 3f9b f93d
000003e0: ab48 aa3c 72b8 793d f426 d73d cdfe 35be
000003f0: 046e d8bd 58fd 023e 4c6b 08bc 6050 a73d

linear3.bias f4 [3]
0.083547935 -0.011224108 -0.014572497
00000000: 2e1b ab3d 52e5 37bc 7cc1 6ebc
