version_2_points_without_rotation/DDPG_GPU_MPI/w32_m_t005/actor.pth (torch, 287575 bytes, 6 tensors)

linear1.weight f4 [256, 18]
0	0x3d991edf	0.07476591
1	0x3d74b9f4	0.05974765
2	0x3e1126cf	0.1417496
3	0x3bf5347c	0.0074830633
4	0xbe308c16	-0.17240939
5	0xbe224571	-0.15846802
6	0x3dd7f59c	0.10544893
7	0x3de302ff	0.11084556
8	0x3e71e97c	0.23624223
9	0xbd674229	-0.05645958
10	0xbd986516	-0.074411556
11	0x3ddf0a92	0.10890688
12	0xbe59aa86	-0.21256456
13	0xbe25c09b	-0.16186754
14	0x3deb9b11	0.11504186
15	0xbd984df0	-0.074367404
16	0x3e30c51e	0.17262694
17	0x3e313a0f	0.17307304
18	0xbd83e9b0	-0.06441057
19	0x3e827e08	0.2548678
20	0x3e24a753	0.16079454
21	0x3dc19c12	0.09453596
22	0xbe8b380e	-0.27191204
23	0x3e1f46b6	0.15554318
24	0xbe0f1a1e	-0.13974807
25	0x3e431804	0.1905213
26	0x3db81db6	0.08990042
27	0x3d2c622c	0.04208581
28	0xbbd0202d	-0.006351492
29	0xbd6570fe	-0.05601596
30	0xbdbaa552	-0.091135636
31	0xbdf457f4	-0.11930838
32	0x3d89e355	0.06732813
33	0xbd62040d	-0.055179644
34	0xbcc99aa5	-0.024609873
35	0xbdd4a52e	-0.10383068
36	0xbde2d1dc	-0.11075184
37	0x3e7e7601	0.24849702
38	0xbe312bc4	-0.17301852
39	0x3e24fd54	0.16112262
40	0x3d778722	0.060431607
41	0xbd5dd415	-0.054157335
42	0x3db73a3b	0.089466535
43	0x3e9f73ed	0.31143132
44	0xbe3693e9	-0.17829861
45	0x3ea3a580	0.31962204
46	0x3e3b0bea	0.18266264
47	0xbce165cd	-0.027514363
48	0x3d956b37	0.0729584
49	0x3e01b70e	0.12667486
50	0x3e604131	0.21899869
51	0x3da173b5	0.078833975
52	0xbd70bd96	-0.058774553
53	0x3e7fd09c	0.24981922
54	0xbe3f8130	-0.18701625
55	0xbe44793c	-0.19186872
56	0xbe3748a9	-0.17898811
57	0xbde8b560	-0.113627195
58	0xbe171054	-0.14752322
59	0x3e0347a9	0.12820305
60	0x3e75dd63	0.24010234
61	0xbe0fff95	-0.1406234
62	0xbe1ab49b	-0.15107958
63	0xbcc93685	-0.02456213
64	0xbe877324	-0.26455033
65	0xbe961cd9	-0.29318884
66	0x3e51e65f	0.20498036
67	0x3e462bd5	0.19352658
68	0x3d92d708	0.0716992
69	0x3e8f7cd1	0.28024915
70	0x3d79d920	0.060998082
71	0x3de2ffdd	0.11083958
72	0xbe06862c	-0.1313712
73	0x3edfdfc2	0.437254
74	0x3e216209	0.15760054
75	0xbe8201b0	-0.25391912
76	0x3e221991	0.15830065
77	0xbd8bf9d8	-0.06834763
78	0xbe04343e	-0.12910554
79	0x3d960e19	0.07326908
80	0x3e9ceed9	0.30650976
81	0xbd3f5548	-0.04671219
82	0x3df7e4f7	0.121042185
83	0x3c885e2a	0.016646463
84	0x3d4d093a	0.050057627
85	0x3e6b1458	0.2295698
86	0xbdd33718	-0.10313243
87	0xbdddefb6	-0.10836737
88	0x3d92429c	0.07141611
89	0x3e01eb3e	0.12687394
90	0x3d804b3b	0.06264349
91	0xbe2edb06	-0.17075738
92	0x3e75286e	0.23941204
93	0xbe391773	-0.18075351
94	0xbd01420c	-0.031557128
95	0x3e3834a1	0.17988826
96	0xbe528732	-0.20559385
97	0x3eab2f77	0.3343465
98	0x3e760123	0.24023871
99	0x3dcd2fcb	0.100188814
100	0x3e4076e2	0.1879535
101	0x3d8afc1c	0.06786367
102	0x3e0780dd	0.13232751
103	0xbf0be632	-0.54648125
104	0x3c70d5fc	0.014699455
105	0xbe4960e0	-0.19665861
106	0xbed64eb6	-0.41856927
107	0x3e263428	0.16230834
108	0xbe31bde7	-0.17357598
109	0xbc80bb9f	-0.015714465
110	0xbdf091ad	-0.117465355
111	0x3d581912	0.052758284
112	0xbb596f85	-0.0033178043
113	0xbd1bf371	-0.03807396
114	0x3e45f0fe	0.19330212
115	0xbe52f362	-0.20600656
116	0x3db442db	0.08801814
117	0xbdc312bf	-0.0952506
118	0xbd910c17	-0.07082384
119	0xbe001f27	-0.12511884
120	0xbe0b8ffa	-0.13629141
121	0xbee461f7	-0.4460599
122	0x3dd86d06	0.105676696
123	0x393e716e	0.00018162068
124	0xbec4d0b1	-0.3844047
125	0x3e09caf1	0.13456322
126	0x3e7547d7	0.23953186
127	0x3e8d06bb	0.27544197
128	0x3ddd6463	0.10810163
129	0x3c86a373	0.01643536
130	0x3db7982b	0.089645706
131	0x3e089c0e	0.1334078
132	0xbdb893ca	-0.090125635
133	0xbd4e8098	-0.050415605
134	0x3e61ae1f	0.22039078
135	0xbe44b532	-0.19209746
136	0x3da74990	0.08168328
137	0x3df2cacc	0.11855087
138	0xbd32e763	-0.0436777
139	0xbed23e7a	-0.4106329
140	0x3dedfdf2	0.11620702
141	0x3d44b040	0.048019648
142	0xbd82025d	-0.06348107
143	0x3e854132	0.26026303
144	0x3e1d6379	0.15369977
145	0xbe15a24e	-0.14612696
146	0xbd8c7dc8	-0.06859928
147	0x3db90287	0.09033685
148	0xbc1311c3	-0.008976403
149	0x3d7d7139	0.061875556
150	0xbd9a7e41	-0.07543612
151	0x3e35e73c	0.1776399
152	0xbe202643	-0.15639596
153	0xbc4368e7	-0.011926866
154	0x3e572e10	0.21013665
155	0xbe85b085	-0.26111236
156	0x3e5659ec	0.2093274
157	0xbe27fff5	-0.16406234
158	0x3e80a0e5	0.25122753
159	0xbe3d32ec	-0.18476456
160	0xbe09c72c	-0.13454884
161	0x3d906cd9	0.07052011
162	0x3e2b9be8	0.16758692
163	0xbe830f59	-0.25597647
164	0xbd547fa7	-0.05187955
165	0xbdedeed6	-0.1161782
166	0x3e3c7820	0.18405199
167	0x3c638498	0.013886593
168	0x3d9e1c9b	0.077203
169	0xbed3fd63	-0.41404256
170	0x3e66d876	0.22543511
171	0x3d78ae15	0.060712893
172	0xbf0ec01c	-0.55761886
173	0xbe1ddc55	-0.15416081
174	0x3d2c9445	0.04213359
175	0x3e9bccbe	0.30429643
176	0xbe089f27	-0.13341962
177	0xbd1e05e7	-0.038579848
178	0x3f0669c6	0.5250515
179	0xbd3b6696	-0.04575213
180	0x3da46b95	0.08028332
181	0xbe960459	-0.29300192
182	0xbd9ccec9	-0.07656629
183	0xbd3a73ff	-0.04552078
184	0xbdbd9b30	-0.09258115
185	0x3dc40552	0.09571327
186	0x3e4a04d1	0.197284
187	0xbe45cfcd	-0.19317551
188	0x3e475d5e	0.1946921
189	0xbd628bd3	-0.055309128
190	0xbefd0839	-0.49420336
191	0x3e6ffba1	0.23435833
192	0x3e1360e1	0.14392425
193	0x3e670852	0.22561768
194	0xbdffc3a2	-0.12488486
195	0xbe2bc37d	-0.16773792
196	0x3e89253e	0.26786226
197	0xbcbb5333	-0.02286682
198	0x3e571aae	0.21006271
199	0x3e6c2526	0.23061046
200	0x3e4e76a1	0.20162441
201	0x3d5e6b3d	0.05430149
202	0x3e1a781e	0.15084884
203	0xbdff87d6	-0.124770805
204	0xbd00ba13	-0.031427454
205	0x3cca345b	0.024683168
206	0x3e6ebdba	0.23314562
207	0xbda536b0	-0.080670714
208	0x3d7d5db6	0.061856948
209	0xbe202a3c	-0.15641111
210	0xbcb9faf2	-0.022702668
211	0xbecf7a3a	-0.4052294
212	0xbd7fbd26	-0.062436245
213	0x3e90d254	0.28285468
214	0xbec15917	-0.37763283
215	0x3e900aba	0.28133184
216	0xbe8175ae	-0.25285095
217	0x3ce5a1b4	0.028031208
218	0x3df8e0b0	0.12152231
219	0xbda40d77	-0.08010381
220	0xbe0ee79a	-0.13955536
221	0x3d79eb98	0.061015695
222	0x3e0d371b	0.13790552
223	0xbe1a7e21	-0.15087177
224	0xbdb02541	-0.086008556
225	0x3e677801	0.22604372
226	0x3e35d2b4	0.17756158
227	0x3dca8092	0.09887804
228	0xbcd5f146	-0.026116025
229	0xbea3fceb	-0.320289
230	0x3dc518f8	0.09623903
231	0x3e622377	0.22083841
232	0xbe194443	-0.14967446
233	0xbc989172	-0.018624041
234	0x3e76a2a6	0.24085483
235	0xbe609c30	-0.21934581
236	0x3d1e1059	0.03858981
237	0xbe782bef	-0.2423551
238	0x3cfb1aa3	0.03065235
239	0x3e12b97b	0.14328568
240	0x3e752995	0.23941644
241	0x3d8ad3a7	0.06778651
242	0xbe2ac86e	-0.1667802
243	0x3d32de0a	0.043668784
244	0xbed11745	-0.40838066
245	0xbe35c48e	-0.17750761
246	0xbd57dce5	-0.052700896
247	0x3e87bc08	0.26510644
248	0x3e41f442	0.18940833
249	0xbe22f39f	-0.15913247
250	0x3e962147	0.29322264
251	0x3d07c969	0.033151064
252	0xbcd8dd6d	-0.026472772
253	0xbdc668c7	-0.096879534
254	0xbe315514	-0.17317611
255	0x3e5e5ab6	0.21714291

linear1.bias f4 [256]
0	0x3dc615d2	0.09672131
1	0x3e0fa2e1	0.14026977
2	0x3e578b5d	0.21049257
3	0xbbaee6fa	-0.005337593
4	0xbe248caf	-0.16069292
5	0x3cfb8558	0.030703232
6	0xbe1b4c59	-0.15165843
7	0xbd4c16f7	-0.04982659
8	0x3e6f35f4	0.23360425
9	0xbb55d796	-0.003262972
10	0xbcd6a728	-0.026202753
11	0x3dec19b2	0.115283385
12	0xbdebf6c9	-0.1152168
13	0x3d3d1ada	0.046168186
14	0x3dca69e4	0.09883478
15	0x3d5d1222	0.05397237
16	0x3d336bae	0.043803863
17	0x3ddc5f17	0.107603244
18	0x3d3df662	0.046377547
19	0x3e726d40	0.23674488
20	0x3932891a	0.00017026477
21	0x3e54ce20	0.20781755
22	0xbd875e34	-0.06609765
23	0x3e871f53	0.26391086
24	0x3c8e1560	0.017344177
25	0x3e8f28fc	0.27960956
26	0xbdab246e	-0.08356558
27	0x3da8cb6f	0.08241927
28	0x3d709fc5	0.058746118
29	0x3e7e6003	0.24841313
30	0xbe08391a	-0.13303033
31	0x3ca3b9ba	0.019986022
32	0xbc5ce327	-0.013481892
33	0x3d903c2e	0.07042728
34	0xbe1f9bac	-0.15586728
35	0x3dc931c7	0.098239474
36	0x3e8cb94c	0.2748512
37	0x3de7267b	0.112866364
38	0xbd853237	-0.06503718
39	0xbe0d3a7a	-0.13791838
40	0x3e1cd3ba	0.15315142
41	0xbdce2122	-0.10064913
42	0x3e417003	0.18890385
43	0xbe28d2ad	-0.16486616
44	0x3e21afdc	0.15789741
45	0xbe01646d	-0.12635966
46	0xbdff88db	-0.12477275
47	0xbd8d9c26	-0.069145486
48	0x3e6b0bd7	0.22953735
49	0x3d2fa82d	0.042884994
50	0x3e8caa5a	0.27473718
51	0xbdeed945	-0.116625346
52	0x3e34f2f6	0.17670807
53	0xbdb7066a	-0.0893677
54	0x3e54da92	0.20786503
55	0x3d5b67f2	0.053565927
56	0xbe2532eb	-0.16132705
57	0xbe30caa2	-0.17264798
58	0xbc1c2fb7	-0.0095328605
59	0x3e373e8b	0.17894952
60	0x3e88b233	0.26698455
61	0xbe1402e0	-0.14454222
62	0xbdc63bb6	-0.09679358
63	0x3e13acbe	0.14421365
64	0xbd23b9d9	-0.03997216
65	0xbe2366d0	-0.15957189
66	0xbe6ee0d4	-0.23327953
67	0xbdcbe8c5	-0.09956507
68	0x3e80c931	0.25153497
69	0xbb06badc	-0.0020558154
70	0xbdb8ab6d	-0.09017072
71	0xbd8c68cb	-0.06855925
72	0x3e69b67e	0.22823521
73	0xbe537bd3	-0.20652704
74	0xbe3cafa3	-0.18426375
75	0xbe241f4f	-0.16027568
76	0xbe123e7c	-0.14281648
77	0xbe0d5438	-0.13801658
78	0x3c482286	0.012215262
79	0xbdfa0791	-0.122084744
80	0x3e632635	0.22182544
81	0xbdd8d854	-0.10588136
82	0x3e3df746	0.18551359
83	0x3e34fb0c	0.17673892
84	0xbdeaee72	-0.11471261
85	0x3e1045ff	0.14089201
86	0x3dbc627a	0.091984704
87	0x3db11c97	0.08648031
88	0xbdfc21c2	-0.12311126
89	0xbcf05f80	-0.029342413
90	0xbe0bc40b	-0.13649003
91	0x3e3f36c3	0.18673234
92	0x3e4fe933	0.20303802
93	0x3db0b844	0.08628896
94	0x3d59c69d	0.053167928
95	0xbdfb3cb0	-0.122674346
96	0x3e32753e	0.17427537
97	0xbd421e9c	-0.047392473
98	0x3e3b51e1	0.18292953
99	0xbdfb189d	-0.12260554
100	0xbdf7a0b8	-0.120912015
101	0xbe2938a0	-0.16525507
102	0xbd8e9bab	-0.06963285
103	0xbd19c57b	-0.037541848
104	0x3e3ef355	0.18647511
105	0x3dc8eb3d	0.09810493
106	0x3e39a8cb	0.18130796
107	0xbe0d8c68	-0.13823092
108	0x3d82a95c	0.06379959
109	0xbd8be511	-0.068308
110	0xbd42b252	-0.04753334
111	0x3e1a60d5	0.15076001
112	0x3e330e4b	0.17485921
113	0xbc0ba680	-0.008523583
114	0x3dac1bb1	0.08403719
115	0x3da09099	0.0784008
116	0x3d8f2cea	0.069909886
117	0xbd46ea24	-0.048563138
118	0xbd8f700c	-0.07003793
119	0xbdc5375c	-0.096296996
120	0xbe205c12	-0.15660122
121	0xbe28b27b	-0.16474335
122	0xbd13be48	-0.03607014
123	0xbcbf97b7	-0.023387773
124	0x3e8cf34d	0.27529374
125	0x3da66445	0.08124594
126	0xbd96a660	-0.07355952
127	0xbdeeaae0	-0.116536856
128	0xbd7c7707	-0.06163695
129	0xbe77157b	-0.24129288
130	0xbdc183ef	-0.094489925
131	0x3e18dce2	0.1492801
132	0xbe41b48c	-0.1891653
133	0x3ce0e3f8	0.027452454
134	0xbddf1e30	-0.1089443
135	0x3e478299	0.19483413
136	0x3dc6786e	0.09690939
137	0x3e648999	0.22318114
138	0x3e013d8a	0.12621132
139	0x3e52107e	0.20514104
140	0xbdbe4493	-0.09290423
141	0xbce2bdf1	-0.027678462
142	0x3e65cbfb	0.22441094
143	0x3da5e8de	0.081010565
144	0x3e76eb2c	0.24113148
145	0xbcabfd69	-0.020994859
146	0x3d910fe0	0.07083106
147	0xbc2a2ba5	-0.010386382
148	0xbe37dda2	-0.1795564
149	0x3dea9641	0.1145444
150	0x3e214828	0.15750182
151	0x3e65eae8	0.22452891
152	0x3c83470a	0.016025085
153	0xbe72c60c	-0.23708361
154	0xbe39232c	-0.18079823
155	0xbd0edb71	-0.034877244
156	0xbd06858e	-0.03284221
157	0x3e6cc620	0.23122454
158	0x3bf0f816	0.007353793
159	0xbe0746bb	-0.13210575
160	0x3e484bf6	0.19560227
161	0x3e546dbd	0.20744987
162	0x3e8f5a00	0.27998352
163	0xbde904ba	-0.11377855
164	0x3d055c7e	0.03255891
165	0xbd97ba40	-0.07408571
166	0xbdfc44b3	-0.12317791
167	0x3e13c50d	0.14430638
168	0x3dd90abb	0.1059775
169	0xbe3d0cd7	-0.1846193
170	0x3bae40bc	0.0053177755
171	0x3dd35bf2	0.103202716
172	0x3e5c7b3f	0.2153139
173	0xbe18e1d6	-0.149299
174	0x3dd5f8bd	0.10447834
175	0xbd47bc92	-0.04876382
176	0xbe2545d7	-0.16139923
177	0x3e4a182b	0.19735782
178	0x3e816605	0.25273147
179	0xbe2942d8	-0.16529405
180	0xbd3f4859	-0.046699855
181	0x3e590ca3	0.21196227
182	0x3e3b36bb	0.18282597
183	0x3e80d0db	0.25159344
184	0x3ddfa0b1	0.10919321
185	0x3dd7a03a	0.10528608
186	0xbe678a47	-0.22611342
187	0xbe06707c	-0.13128847
188	0x3e124a94	0.14286262
189	0x3cdc1aa7	0.026868178
190	0x3e007406	0.1254426
191	0x3e6dcd8c	0.23222941
192	0x3e3b6be6	0.18302879
193	0x3d820d34	0.063501745
194	0x3e35717c	0.17719072
195	0x3e256d40	0.16154957
196	0x3d863c07	0.06554418
197	0x3d09448b	0.033512633
198	0xbda03b78	-0.07823843
199	0x3e690098	0.22754133
200	0x3d4a6503	0.04941274
201	0xbd88e40b	-0.06684121
202	0x3e21fae0	0.15818357
203	0x3d04f74c	0.032462403
204	0xbda79a10	-0.08183682
205	0xbd4e1905	-0.05031683
206	0xbe367b81	-0.1782055
207	0xbe6769fa	-0.2259902
208	0xbe0b8b65	-0.13627394
209	0x3c845c9c	0.01615744
210	0x3dde8447	0.10865074
211	0x3dd290d0	0.10281527
212	0xbe0122f0	-0.12610984
213	0x3de7340d	0.11289225
214	0x3dfdcc6b	0.12392505
215	0xbe146b6b	-0.14494102
216	0x3d6d72ef	0.057970937
217	0xbe2329ed	-0.15933962
218	0x3c962efd	0.018332953
219	0x3e6d2870	0.23159957
220	0x3e5ce6bc	0.21572393
221	0xbdccb0f7	-0.09994691
222	0xbc818c48	-0.015813962
223	0x3e0c240e	0.13685629
224	0x3e5bab3a	0.21452036
225	0x3e33ebfa	0.17570487
226	0x3da12a8e	0.07869445
227	0x3dea6334	0.11444703
228	0xbd9b8146	-0.07593016
229	0x3d87fe8f	0.0664035
230	0x3e2ebb81	0.17063715
231	0xbcf092a0	-0.029366791
232	0x3e6ff57b	0.23433487
233	0xbd34b970	-0.04412216
234	0xbd6669bf	-0.05625319
235	0xbe25f607	-0.16207133
236	0x3e328ad0	0.17435765
237	0xbe2f3218	-0.17108953
238	0xbdf62785	-0.120192565
239	0xbe505caa	-0.20347849
240	0x3e225479	0.15852536
241	0x3d12f170	0.035874784
242	0x3d823404	0.063575774
243	0x3e194d43	0.1497088
244	0x3d347152	0.044053383
245	0x3e18f77e	0.14938161
246	0x3e014a89	0.12626089
247	0xbe3352b3	-0.17512016
248	0xbc1df15e	-0.009640066
249	0xbe0098a7	-0.12558232
250	0xbe348495	-0.17628701
251	0x3c90ad7e	0.017660853
252	0x3ca38df1	0.019965144
253	0xbc9aae77	-0.01888202
254	0xbc8b0a6a	-0.01697274
255	0x3d92ec17	0.07173937

linear2.weight f4 [256, 256]
0	0xbc77e398	-0.015129946
1	0xbc241e0a	-0.0100169275
2	0xbd668b36	-0.056285106
3	0x3d6342c6	0.055483602
4	0xbd100c25	-0.035167832
5	0xbcb6b5e9	-0.022303538
6	0xbbeaa68b	-0.0071609668
7	0xbd3176a9	-0.043326054
8	0xbd81c22a	-0.06335862
9	0x3a7903f4	0.0009499185
10	0x3d56578e	0.052329592
11	0xbd1aeb4e	-0.03782206
12	0xbc859201	-0.016304972
13	0xbd2b9080	-0.041885853
14	0x3c98aa38	0.018635854
15	0xbb975274	-0.0046179835
16	0x3b9ddaa8	0.0048173256
17	0x3d17c590	0.037053645
18	0x3d3ff54e	0.0468648
19	0x3c296c7a	0.010340804
20	0xbd0087a0	-0.031379342
21	0xbab2ad0f	-0.0013631898
22	0x3d06b707	0.032889392
23	0xbd3beb5a	-0.045878746
24	0xbbad904b	-0.005296742
25	0x3cd57491	0.02605656
26	0xbd355c79	-0.044277642
27	0x3d2364fb	0.039891224
28	0xbbf95f50	-0.007610239
29	0xbd675377	-0.056476083
30	0xbd63b538	-0.055592746
31	0xbd3fd26d	-0.046831537
32	0xbb3e3fd1	-0.0029029737
33	0xbb001d6a	-0.0019548782
34	0xbd3b5eb9	-0.04574463
35	0x3bb17a96	0.0054162247
36	0xbbcf860c	-0.0063331183
37	0x3d424fa5	0.047439236
38	0x3d15d683	0.036581527
39	0xbcc6f5cc	-0.024287127
40	0xbaed0a44	-0.0018084724
41	0xbd0eec54	-0.03489335
42	0x3d1db9dc	0.038507327
43	0xbc7b23cf	-0.015328362
44	0x3d272379	0.040805314
45	0x3c37089f	0.011171489
46	0xbc836e2b	-0.016043743
47	0xbc04d1e7	-0.008106685
48	0x3c8278ff	0.015926836
49	0xbd40c2b2	-0.047060676
50	0x3d172a0a	0.036905326
51	0xbbb1d5ea	-0.005427112
52	0xbd5a4cc4	-0.053295866
53	0xbd1c9313	-0.0382262
54	0x3b2b944a	0.0026180916
55	0xbcf36bf7	-0.029714568
56	0xbd731f90	-0.059356272
57	0xbd3b66eb	-0.045752447
58	0xbc0576aa	-0.0081459675
59	0xbd84418d	-0.06457815
60	0x3d1119f5	0.035425145
61	0xbd13c6ae	-0.036078148
62	0xbd3b5b21	-0.045741204
63	0x3d5e0dfc	0.054212555
64	0x3d366a3a	0.0445349
65	0xbd6b07de	-0.05738055
66	0xbcc82468	-0.024431422
67	0xbca2fa43	-0.019894725
68	0xbc24be7f	-0.010055183
69	0x3cdae10b	0.026718637
70	0x3d062b30	0.03275603
71	0xbd57641c	-0.052585706
72	0xbd832d4d	-0.06405125
73	0xbbc28621	-0.0059363996
74	0xbd768414	-0.060184553
75	0xbd3bcaf8	-0.045847863
76	0x3d37cc23	0.044872414
77	0xbc95559a	-0.018229295
78	0x3cb34e98	0.021888062
79	0xbd0e0179	-0.034669373
80	0x3c9d6b40	0.01921618
81	0x3d0ebb81	0.034846786
82	0xbd11e199	-0.035615537
83	0x3d3da484	0.046299472
84	0xbd79a07d	-0.06094407
85	0x3d53cf04	0.051711097
86	0x3ce5f55d	0.0280711
87	0x3ce68f76	0.02814458
88	0x3cfc574c	0.030803345
89	0x3c4f68b0	0.012659237
90	0x3cac6f11	0.021049054
91	0xbd669482	-0.05629397
92	0x3d6adae9	0.057337675
93	0xb9b07e6f	-0.00033663536
94	0xbc43fe28	-0.011962451
95	0x3d1099e5	0.035303015
96	0xbd65848c	-0.05603461
97	0x3d62bfe2	0.055358775
98	0x3c3a323e	0.011364518
99	0xbbf3a6bc	-0.007435648
100	0xbd099855	-0.03359254
101	0x3d43d0aa	0.04780642
102	0xbd5c6183	-0.053803932
103	0x3c5fbef5	0.013656368
104	0xbd085230	-0.033281505
105	0xbd7ee5d0	-0.062230885
106	0xbd34fbc6	-0.044185422
107	0xbd1893fb	-0.0372505
108	0x3d527f6b	0.051391046
109	0xbd3570db	-0.04429708
110	0xbd3ffa3f	-0.046869513
111	0xbc218f2b	-0.009860794
112	0x3d48c5f3	0.049016904
113	0xbd6a625c	-0.05722271
114	0xbc4e5633	-0.012593794
115	0x3ced40bf	0.028961537
116	0x3cf6bf04	0.03012038
117	0xbd34a22e	-0.04409998
118	0x3d5705b6	0.05249568
119	0x3d25ea7c	0.040506825
120	0xbd5c96fe	-0.053854935
121	0x3cb7a84e	0.022419121
122	0xbd42c3ce	-0.047550015
123	0xbc6f122a	-0.014591733
124	0x3c2a5e84	0.010398511
125	0xbd7f384c	-0.06230955
126	0x3c23d176	0.00999867
127	0x3d50de63	0.050993335
128	0xbccf534e	-0.025308277
129	0x3d64f3a6	0.055896424
130	0xbcf81542	-0.030283574
131	0xbc0cb76b	-0.008588652
132	0xbd78f1ff	-0.06077766
133	0xbc09161b	-0.008367087
134	0x3d24e00c	0.04025273
135	0xbcd37cc6	-0.025816333
136	0xbc20d2ff	-0.00981593
137	0xbad6389d	-0.0016343776
138	0x3c94feec	0.018187962
139	0x3d49ba61	0.04925001
140	0x3b8cdad0	0.0042985454
141	0xbd77a456	-0.060459457
142	0xbc8e0e27	-0.017340733
143	0x3d37a17b	0.044831734
144	0x3c129306	0.008946186
145	0x3d39c719	0.04535589
146	0xbd415301	-0.0471983
147	0x3d0b77f0	0.03404993
148	0xbbae0be3	-0.0053114756
149	0x3d44273d	0.047888983
150	0xbd1bfb8f	-0.0380817
151	0xbd0ceae1	-0.034403685
152	0x3d2dc597	0.042424764
153	0xbbdf62fb	-0.0068172193
154	0x3c035a60	0.008017153
155	0xbcc086ca	-0.023501772
156	0xbcc60046	-0.024170052
157	0xbd24ac94	-0.040203646
158	0xbbcb4587	-0.0062033567
159	0x3c862936	0.016377073
160	0xbd02cb9b	-0.031932455
161	0xbd338afa	-0.04383371
162	0x3b6235a7	0.0034516843
163	0xbc99a844	-0.018756993
164	0xbd4c0b41	-0.04981542
165	0x3d282101	0.0410471
166	0x3d77df9a	0.060515977
167	0x3d178c0c	0.036998793
168	0x3b420d74	0.002961007
169	0xbc8f8a39	-0.017521964
170	0x3d48d719	0.049033258
171	0xbcea6198	-0.02861099
172	0xbd1af43c	-0.037830576
173	0x3d34ca01	0.04413796
174	0x3d6ac71a	0.057318784
175	0x3d1748c9	0.036934648
176	0xbd1eb4c8	-0.038746625
177	0xbce9e350	-0.028550774
178	0xbc592460	-0.013253301
179	0x3c2c2f82	0.010509374
180	0xbd3c440e	-0.04596334
181	0x3b1c75c6	0.002387391
182	0x3d4be0dd	0.049774993
183	0xbce869ff	-0.028370855
184	0x3b30571a	0.0026907385
185	0x3d5b8fbd	0.053603876
186	0x3ccae7aa	0.02476867
187	0x3c8b462b	0.017001232
188	0xbd1f45da	-0.038884975
189	0x3c0405d9	0.008058035
190	0x3d04d4d3	0.032429527
191	0xbbd0c5f3	-0.0063712536
192	0xb9ee26f3	-0.00045423917
193	0xbd27e7f3	-0.04099269
194	0x3ccf4e94	0.025306024
195	0x3b692eb4	0.0035580816
196	0x3aa71e3c	0.0012750099
197	0x3ca1785e	0.019710716
198	0xbc5b67cc	-0.013391446
199	0xbd87fffe	-0.066406235
200	0x3d28b6f9	0.04119012
201	0x3bdfe687	0.006832901
202	0xbcfa69a8	-0.030567959
203	0xbd755f9b	-0.05990563
204	0xbd0d1644	-0.034445062
205	0xbc15c644	-0.0091415085
206	0xbc5f5d1d	-0.01363304
207	0xbcf2c486	-0.029634725
208	0x3ca8a0a7	0.020584418
209	0x3a8332a4	0.0010009599
210	0xbd6eabb4	-0.058269218
211	0x3ce1ccb5	0.027563432
212	0x3d0de143	0.034638654
213	0x3a134531	0.00056179153
214	0x3d08b616	0.033376776
215	0x3d0a046a	0.033695616
216	0x3d38d138	0.0451214
217	0xbd67252b	-0.05643193
218	0xbd3197b6	-0.043357573
219	0xbd563828	-0.05229965
220	0x3d159337	0.03651735
221	0xbbbb63a6	-0.005718666
222	0xbd6439a0	-0.055719018
223	0x3d480024	0.04882826
224	0x3cfdd268	0.030984119
225	0xbc994e3a	-0.01871406
226	0xbc7035e7	-0.014661289
227	0x3cfff4f1	0.031244727
228	0xbd8489e0	-0.0647161
229	0xbc7371c2	-0.014858665
230	0xbd6e1eef	-0.05813497
231	0x3c7a7ba1	0.0152882645
232	0x3ce3026c	0.027711116
233	0xbd874893	-0.06605639
234	0xbc9a32f1	-0.018823119
235	0x3c41bd77	0.011824957
236	0xbd533620	-0.05156529
237	0xbd51b69d	-0.051199544
238	0x3d43bb6b	0.047786158
239	0xbcb7584f	-0.022380976
240	0x3d609ebd	0.054838885
241	0xbc591e13	-0.013251799
242	0xbcc6bb21	-0.024259152
243	0x3b43e35a	0.002989015
244	0xbd6f7e0d	-0.05846982
245	0xbc9fe82a	-0.019519884
246	0xbd60e77d	-0.054908264
247	0xbd82132a	-0.063513115
248	0x3c3fe7e6	0.011713004
249	0xbd0eeaae	-0.034891777
250	0xbbf8964c	-0.007586276
251	0x3c76c1c7	0.015060849
252	0xbd082835	-0.03324147
253	0xba9c2d4a	-0.0011915353
254	0xbd84367e	-0.06455706
255	0xbd028c7f	-0.03187227

linear2.bias f4 [256]
0	0x3d5974b7	0.053089824
1	0x3d67b0f8	0.056565255
2	0x3d3ac383	0.04559661
3	0xbd755c8c	-0.059902713
4	0x3d4f8822	0.050666936
5	0x3d696f2f	0.0569908
6	0x3cb46c72	0.022024367
7	0xbd1e3516	-0.038624845
8	0x3d986124	0.07440403
9	0xbbdc0dc5	-0.0067155086
10	0xbc04681a	-0.00808146
11	0x3bf6773e	0.007521539
12	0x3bf5e367	0.007503915
13	0x3d191073	0.037369203
14	0x3d5c115c	0.053727493
15	0x3b100309	0.0021974465
16	0xbc856351	-0.01628271
17	0xbd50ebc5	-0.051006097
18	0x3d5df290	0.054186404
19	0x3d37c636	0.044866763
20	0xbd428d55	-0.047498066
21	0xbd755228	-0.059892803
22	0xbd5b59e0	-0.05355251
23	0x3d8a6d2e	0.067591056
24	0x3d3765ab	0.044774693
25	0xbca0114e	-0.019539502
26	0x3b719a23	0.0036865554
27	0x3d1e25a2	0.03861011
28	0x3d55ab57	0.052165356
29	0x3c253d97	0.010085485
30	0x3c9bbca9	0.019010859
31	0x3c75b416	0.014996549
32	0xbc7a4725	-0.015275751
33	0x3cfa0e49	0.03052439
34	0x3d9a834b	0.075445734
35	0xbbbb080f	-0.005707748
36	0xbc7b4b05	-0.01533771
37	0xbd6e0176	-0.058106862
38	0xbb96adbb	-0.004598347
39	0x3c1db6bb	0.009626086
40	0x3c77137b	0.015080328
41	0x3ce1785f	0.027523218
42	0xbc97b596	-0.018519204
43	0x3d42fedf	0.047606345
44	0xbcd99834	-0.026561834
45	0xbd2cb68d	-0.04216628
46	0xbd719d7a	-0.058988072
47	0xbce5e141	-0.028061511
48	0x3d8b2eb4	0.06796017
49	0x3db4d17b	0.08829018
50	0xbca684df	-0.02032703
51	0x3b669d36	0.003518892
52	0xbd0af983	-0.03392936
53	0x3c0c3c16	0.0085592475
54	0x3cef1b17	0.029187722
55	0x3d85d950	0.0653559
56	0xbc865799	-0.016399192
57	0xb92a996a	-0.00016269615
58	0x3d4f3519	0.050587747
59	0xbd6f4103	-0.05841161
60	0x3ccb5d61	0.0248248
61	0x3d6177d1	0.055045906
62	0x3aadceb5	0.0013260456
63	0x3d2ee575	0.042699296
64	0xbd69fd80	-0.057126522
65	0xbce486b2	-0.027896259
66	0xbd2e85f7	-0.042608228
67	0x3cb4f8f1	0.02209136
68	0xbd5d9f49	-0.054106984
69	0xbd3e18da	-0.04641042
70	0x3cca29ca	0.02467813
71	0xbcceb23a	-0.02523147
72	0x3d3c8dfa	0.046033837
73	0xbd7f6c57	-0.06235918
74	0xbccd6aea	-0.025075395
75	0xbc1c226e	-0.009529693
76	0xbc115e1f	-0.008872538
77	0x3d0ba4bf	0.03409266
78	0x3d82d92d	0.06389079
79	0x3d011efa	0.031523682
80	0xbb83a3b3	-0.004017317
81	0xbcf62ebe	-0.030051585
82	0x3d53d23f	0.05171418
83	0xbc94e4d7	-0.018175526
84	0x3d65b0a5	0.056076664
85	0xbd177eb9	-0.036986087
86	0x3d330c06	0.04371264
87	0x3d006777	0.03134867
88	0xbd057388	-0.032580882
89	0xbd344e3f	-0.044019934
90	0x3db8a109	0.0901509
91	0x3cd4d558	0.025980636
92	0xbd223534	-0.03960152
93	0xbc321f2a	-0.010871688
94	0x3c29b173	0.010357249
95	0x3b6a79f7	0.0035778263
96	0xbd0aaa48	-0.0338538
97	0x3d889f1c	0.06670973
98	0xbc20475d	-0.009782639
99	0x3d68d36f	0.056842264
100	0xbd24aa2e	-0.04020136
101	0xbb5f2294	-0.003404771
102	0x3c85ccfe	0.0163331
103	0xbd2bb95e	-0.041924827
104	0x3d319706	0.043356918
105	0xbcac006d	-0.020996297
106	0x3d9fbb10	0.07799351
107	0xbbfe62da	-0.007763249
108	0x3d06d938	0.032922
109	0x3d46cbe5	0.048534293
110	0xbd76ee84	-0.06028606
111	0x3d0ab305	0.033862133
112	0x3d8857da	0.06657381
113	0x3d0a1e9b	0.033720594
114	0xbd5c32c3	-0.053759348
115	0xbd2486ef	-0.040167745
116	0xbca2d952	-0.019879017
117	0xbd8486e1	-0.064710386
118	0x3b6eeeeb	0.0036458324
119	0xbd9b9a80	-0.07597828
120	0x3d803265	0.06259612
121	0x3d39a5be	0.04532408
122	0x3d27a806	0.040931724
123	0x3d202af8	0.03910348
124	0x3ca162fe	0.019700523
125	0x3c272313	0.010201233
126	0xbb84d70a	-0.004053955
127	0x3d68ff73	0.05688424
128	0x3cb0029e	0.021485623
129	0x3cf27601	0.029597284
130	0xbb82a5fc	-0.003987072
131	0xbbd49973	-0.006488019
132	0xbc845943	-0.016155845
133	0x3d24e52a	0.04025761
134	0xbd144cb7	-0.036205973
135	0x3d309e2a	0.043119587
136	0x3d4ac5f7	0.0495052
137	0x3d38f32c	0.04515378
138	0xbc73e934	-0.014887143
139	0x3d3718fd	0.044701565
140	0xbcce15f6	-0.025156956
141	0x3d14c4b0	0.03632039
142	0x3d16806c	0.036743566
143	0xbd06f1fd	-0.03294562
144	0x3d1befad	0.03807037
145	0x3cfd585d	0.030925924
146	0x3d7afc00	0.061275482
147	0xbc0a9ffc	-0.008460995
148	0x3d2684c9	0.040653978
149	0x3c80d515	0.015726605
150	0xb9fe7b06	-0.00048538315
151	0x3d6c7368	0.057727247
152	0x3d4cafb2	0.049972244
153	0x3da98390	0.08277047
154	0x3c6ebf07	0.014571912
155	0x3dc51fa9	0.09625179
156	0x3cf84303	0.030305391
157	0x3bd0797d	0.006362139
158	0xbd07a5a8	-0.033116966
159	0xbcaa742a	-0.020807344
160	0xbc7b3d26	-0.015334403
161	0x3d351f9f	0.04421961
162	0x3bf08d4b	0.007341062
163	0x3d36c98d	0.044625808
164	0xbd7e3e23	-0.062070977
165	0xbce7add8	-0.028281137
166	0xbcb0dc70	-0.021589488
167	0x3d1c44dc	0.038151607
168	0xbd226f76	-0.03965708
169	0x3d7fec37	0.06248113
170	0x3d424f55	0.04743894
171	0x3d62b2ca	0.055346288
172	0x3d93dfe0	0.07220435
173	0x3ca7ced7	0.020484371
174	0xbca4e23f	-0.020127414
175	0x3d5f8c0c	0.05457692
176	0x3d26ed54	0.040753677
177	0xbc34bcc2	-0.0110313315
178	0xbb0e43b3	-0.0021707832
179	0x3c8d52b7	0.017251356
180	0xbd37fc1a	-0.044918157
181	0xbc62d14a	-0.013843844
182	0xbda1d9e9	-0.07902891
183	0xbc6861b9	-0.014183455
184	0x3d2ba394	0.041904047
185	0x3da581b4	0.080813795
186	0x3ca056f3	0.01957271
187	0x3cc7ba86	0.024380933
188	0xbd11d8f2	-0.035607286
189	0x3d1a296a	0.03763715
190	0xbbff95a4	-0.007799821
191	0x3d350236	0.04419156
192	0x3d42b3f3	0.047534894
193	0xbd3d368d	-0.0461946
194	0xbd1eaafd	-0.038737286
195	0x3d802218	0.06256503
196	0x3d150bf4	0.036388353
197	0x3ce7bde3	0.028288787
198	0xbc2e50b5	-0.010639359
199	0xbd8b7d43	-0.06811001
200	0xbd706f0a	-0.058699645
201	0x3db460c6	0.088075206
202	0x3c9cfe3e	0.0191642
203	0x3da46345	0.08026747
204	0xbc704a82	-0.014666202
205	0x3c396359	0.01131519
206	0xbd30e2a9	-0.04318491
207	0x3d57541b	0.052570444
208	0xbc0501b7	-0.008118085
209	0x3d096b97	0.03354987
210	0x3cdb98d1	0.026806267
211	0xbd6be11d	-0.05758773
212	0x3c0d0200	0.008606434
213	0x3cda4587	0.026644481
214	0x3cfb69e7	0.030690147
215	0x3d80152c	0.06254038
216	0x3ce37365	0.027764985
217	0x3c6cbec1	0.014449776
218	0x3d389765	0.045066256
219	0xbcf44aac	-0.029820763
220	0x3cae846c	0.021303378
221	0xbc3fc45f	-0.011704533
222	0xbc04dbe2	-0.008109065
223	0x3d09148b	0.033466857
224	0xbd87f50f	-0.06638538
225	0xbd7b4ee2	-0.061354525
226	0x3cbf0f3d	0.023322696
227	0xbd099262	-0.033586867
228	0x3c54ab00	0.012980223
229	0xbd4a54d2	-0.049397297
230	0x3d4a8643	0.04944445
231	0x3c7561b3	0.014976907
232	0x3ab4605a	0.0013761625
233	0x3be3718f	0.0069410275
234	0xbb53fab0	-0.0032345466
235	0xbd3b9516	-0.045796476
236	0xbc346d17	-0.011012337
237	0xbcf57d94	-0.029967107
238	0xbaebcf24	-0.001799081
239	0xbb6e65ab	-0.0036376517
240	0xbd345f22	-0.04403604
241	0xbccd3d20	-0.02505356
242	0x3b6ff1e8	0.0036612693
243	0x3d29f40e	0.041492514
244	0x3d815e4a	0.06316812
245	0x3c19c00c	0.009384166
246	0x3d0c7474	0.034290746
247	0xbc80b532	-0.0157114
248	0x3d70c232	0.05877895
249	0xbcff5814	-0.031169929
250	0xbc239cf2	-0.009986149
251	0xbcc9a962	-0.0246169
252	0x3a19974e	0.0005859033
253	0x3cd55438	0.026041135
254	0x3c8cbab4	0.01717887
255	0xbdaddea7	-0.08489733

linear3.weight f4 [3, 256]
0	0x3d3da642	0.046301134
1	0x3d7863af	0.06064194
2	0xbd387da0	-0.04504168
3	0xbe272f34	-0.163266
4	0xbc013f3b	-0.0078886105
5	0x3cd15d61	0.025557222
6	0xbc7c159b	-0.0153860105
7	0x3b9092bc	0.0044120234
8	0x3dacd311	0.08438695
9	0x3cc6bd94	0.02426032
10	0x3cfc4a24	0.030797072
11	0xbcd37497	-0.02581243
12	0x3c7bea9e	0.015375761
13	0xbd6164b5	-0.055027682
14	0x3c24ca24	0.01005796
15	0x3d6db3ae	0.058032684
16	0x3dd6cb25	0.104879655
17	0x3d1a763b	0.03771041
18	0xbbe33ef4	-0.006934995
19	0x3bae6102	0.005321623
20	0xbd205ca4	-0.03915085
21	0x3d05914a	0.03260926
22	0xbda42095	-0.08014027
23	0x3d5bde98	0.05367908
24	0xbd0ce41e	-0.034397237
25	0x3e81c096	0.25342244
26	0xbcbde309	-0.023179548
27	0x3c749057	0.014926991
28	0x3d6b6c88	0.05747655
29	0x3dae745d	0.08518288
30	0x3d0718cb	0.03298263
31	0x3d64c147	0.055848386
32	0xbaad69f8	-0.0013230434
33	0x3d2d404f	0.042297658
34	0xbb105348	-0.0022022296
35	0x3c434fcd	0.011920881
36	0x3e3f0c6e	0.18657085
37	0x3d54ade3	0.051923644
38	0x3d1bc9ff	0.038034435
39	0x3cfac936	0.030613523
40	0x3e713c9a	0.23558274
41	0xbd3100ae	-0.04321354
42	0xbcd4f964	-0.025997825
43	0xbe001baa	-0.12510553
44	0x3d23fd97	0.040036764
45	0xbd916c08	-0.071006835
46	0x3d215dc8	0.039396077
47	0x3d77d7a4	0.060508385
48	0x3d59149a	0.052998163
49	0xbea47e69	-0.32127693
50	0x3da10c56	0.07863681
51	0x3dc1f6a2	0.094708696
52	0xbd58a78a	-0.052894153
53	0x3d23a54a	0.039952554
54	0x3da1486a	0.0787514
55	0xbc92b481	-0.017908337
56	0xbbf0f73f	-0.007353693
57	0x3d806d5b	0.06270858
58	0x3d0215a5	0.031758923
59	0xbd5ba190	-0.053620875
60	0x3d4684a7	0.04846635
61	0xbab079dc	-0.0013464051
62	0x3cde2607	0.027117742
63	0x3d8006c2	0.06251289
64	0x3d01be2b	0.0316755
65	0xbd549e2c	-0.051908657
66	0x3cb661b7	0.022263391
67	0xbd263003	-0.04057313
68	0xbe5bb7d8	-0.2145685
69	0xbd331b6b	-0.04372732
70	0x3dbc571e	0.09196304
71	0x3ce14789	0.027499931
72	0xbd99922d	-0.07498584
73	0xbc98e096	-0.018661778
74	0xbe8340b8	-0.25635314
75	0xbb10b9ff	-0.0022083519
76	0x3c6e6df8	0.014552586
77	0xbcf5eb69	-0.030019479
78	0xbb986a92	-0.004651376
79	0xbde3c1d8	-0.11120957
80	0x3cfeb066	0.031089973
81	0x3e427d3e	0.18993089
82	0x3bff3d76	0.007789309
83	0x3d94a532	0.07258071
84	0xba3bb072	-0.0007159776
85	0xbcc0c1ab	-0.023529848
86	0x3d986b72	0.074423686
87	0x3ce4483e	0.027866479
88	0x3ca8a4ae	0.020586338
89	0x3c8aa376	0.016923647
90	0x3ce7a33d	0.02827608
91	0xb79d3581	-1.8740773e-05
92	0x3cf45540	0.029825807
93	0x3d2fd00e	0.042923026
94	0x3d556886	0.052101634
95	0xbdedae18	-0.116054714
96	0x3daaf1ea	0.08346923
97	0x3d6d766a	0.057974257
98	0xbd3bd9b7	-0.045861926
99	0x3d09b06c	0.033615515
100	0x3d3b1d4b	0.045682233
101	0xbcffd6f3	-0.031230425
102	0xbc2d0a44	-0.01056153
103	0x3cf83b51	0.030301722
104	0xbbaff898	-0.005370211
105	0x3d9cb112	0.07650961
106	0x3da93117	0.08261316
107	0x3d33d3ca	0.04390315
108	0xbd4ce77c	-0.05002545
109	0xbc19dcdf	-0.009391039
110	0xbd12f186	-0.035874866
111	0x3c8bd268	0.017068103
112	0x3cdecbe1	0.027196826
113	0x3cefc5ca	0.029269118
114	0xbc9a30ef	-0.018822161
115	0x3addfc12	0.0016936085
116	0x3d2d7060	0.042343497
117	0x3c1e107b	0.009647484
118	0x3d708814	0.058723524
119	0x3d971259	0.073765464
120	0xb5466f7a	-7.392297e-07
121	0xbce988e0	-0.02850765
122	0xbd8eac25	-0.06966428
123	0xbc2b5c1b	-0.010458971
124	0x3cb9a30d	0.022660756
125	0x3d7dade3	0.06193341
126	0x3c086558	0.0083249435
127	0xbba096e6	-0.004900801
128	0x3d80c539	0.06287617
129	0xbca556cc	-0.02018299
130	0xbc190fa7	-0.009342111
131	0xbcd89f4b	-0.026443144
132	0xbb9de0a1	-0.0048180376
133	0xbd891c2b	-0.06694826
134	0xbd8e7124	-0.069551736
135	0x3c96b65f	0.018397508
136	0xb9ad1fee	-0.0003302092
137	0xbd3511b6	-0.044206344
138	0x3c3c04fa	0.011475796
139	0xbc59ac9b	-0.013285781
140	0x3be0228f	0.006840057
141	0x3da4e5b2	0.080516234
142	0xbbcb49be	-0.006203859
143	0x3cddd27c	0.027077906
144	0x3d54a019	0.051910494
145	0x3d8eca9f	0.06972241
146	0x3cf7d06e	0.030250754
147	0x3d6e04b3	0.05810995
148	0x3bcd5664	0.006266402
149	0x3d67e916	0.056618772
150	0x3cff5c23	0.031171864
151	0x3d2270cc	0.039658353
152	0xbbe3c201	-0.0069506173
153	0x3dcec688	0.100964606
154	0x3d4bb963	0.049737345
155	0x3d7055c8	0.058675557
156	0x3d291301	0.04127789
157	0x3a3c4d00	0.0007183105
158	0xb9c54292	-0.00037624367
159	0x3cf93bf4	0.030424096
160	0xbc15972d	-0.009130281
161	0xbb152d54	-0.0022762613
162	0xbd00399d	-0.031304944
163	0xbd5b4817	-0.053535547
164	0x3d47fc83	0.0488248
165	0x3d9ff552	0.07810463
166	0xbd9621d9	-0.07330675
167	0x3cb81413	0.02247051
168	0x3d52d817	0.05147561
169	0x3c896210	0.016770393
170	0xbca5af29	-0.020225124
171	0x3c6e158b	0.014531503
172	0x3e23232a	0.15931383
173	0x3d66e4cb	0.056370538
174	0x3d55401b	0.05206309
175	0xbc0eb363	-0.008709761
176	0x3d4ba6eb	0.049719732
177	0xbdfcb9e5	-0.12340144
178	0x3c061401	0.00818348
179	0xbcaec45d	-0.021333868
180	0xbc31f88d	-0.010862482
181	0x3d59eda5	0.05320515
182	0x3b4906cd	0.003067422
183	0xbca12027	-0.019668652
184	0x3c6b3d25	0.01435784
185	0x3d6307b0	0.055427253
186	0x3db4faca	0.08836897
187	0x3d4e46cd	0.05036049
188	0xbd4a633b	-0.04941104
189	0x3d8b36cc	0.06797561
190	0x3d24bba8	0.040218025
191	0x3d3c2a6c	0.045938894
192	0x3bd7ab4c	0.0065816995
193	0x3c115b2a	0.008871833
194	0x3d48d89c	0.0490347
195	0x3d5f18f9	0.054467175
196	0x3db326e0	0.08747649
197	0x3c2071e2	0.009792777
198	0xbc34b859	-0.01103028
199	0x3e036df8	0.12834918
200	0xbca49375	-0.020089844
201	0x3ded3d55	0.11583964
202	0x3e421e2b	0.1895682
203	0x3d8e915c	0.06961319
204	0xbd69f02b	-0.057113808
205	0x3cd67b86	0.026181947
206	0x3c414625	0.011796509
207	0x3c1042f5	0.008805026
208	0x3d2f4e22	0.042799123
209	0xbdb0d76d	-0.08634839
210	0xbd1bf753	-0.038077664
211	0xbc4d0824	-0.012514148
212	0x3dc6f7e3	0.097152494
213	0x3cd4944b	0.025949618
214	0xbc7ab9e0	-0.015303105
215	0xbd91249b	-0.0708706
216	0x3da4f8af	0.08055245
217	0xbe53e88f	-0.20694183
218	0xbbcf4ca4	-0.006326275
219	0x3bb7cf64	0.0056094397
220	0x3d950f0a	0.07278259
221	0x3dd01618	0.10160464
222	0x3db6ce6b	0.0892609
223	0xbc92bd6c	-0.017912589
224	0x3d8072a0	0.06271863
225	0xbab9e9f3	-0.0014184102
226	0x3c0100eb	0.007873754
227	0xbca3944d	-0.019968176
228	0x3c2ea05a	0.010658348
229	0xbce2ccf5	-0.027685622
230	0xbd63d77b	-0.05562542
231	0x3c2954ca	0.010335157
232	0xbb85ed7a	-0.0040871473
233	0xbd1b6660	-0.03793943
234	0x3d744f63	0.05964602
235	0xbccc9b01	-0.024976255
236	0x3d815012	0.063141
237	0x3c6e5e02	0.01454878
238	0xbc26f54e	-0.010190321
239	0x3d0e4561	0.034734134
240	0x3d0c25d6	0.03421577
241	0x3bdf4af0	0.006814353
242	0x3c31caf2	0.010851609
243	0x3c83921d	0.016060883
244	0x3c9293f7	0.01789282
245	0xbd8c2566	-0.06843071
246	0xbd5ab5b5	-0.053395946
247	0x3cff94e4	0.031198926
248	0xbb3a4755	-0.0028423865
249	0x3d79b872	0.060966916
250	0x3d72f14d	0.059312154
251	0xbcf8b484	-0.030359514
252	0xbc2c3b8c	-0.010512244
253	0x3d779b8a	0.060451068
254	0x3c9953e8	0.018716767
255	0x3d7d537a	0.061847188

linear3.bias f4 [3]
0	0x3db59be6	0.08867626
1	0xbd19fffd	-0.037597645
2	0xbd215024	-0.03938307
