version_2_points_without_rotation/DDPG_GPU_MPI/w32_m_t005/critic.pth (torch, 290647 bytes, 6 tensors)

linear1.weight f4 [256, 21]
00000000: d056 423c 9fc2 063d 2265 08bd b8b6 f7b8
00000010: 83ba e539 675c aeb9 aeb9 9abe 1271 c9bc
00000020: ce68 53be a83d a5be 7784 4f3d ad0a e23d
00000030: 6f53 8b3e 2085 79bc 00ec 463e 60bb b23e
00000040: bce9 9cbc d6c0 7dbd d11d 83ba 02b9 3a3a
00000050: 6256 65bb 04e7 69be d01f e0be 7fdd 603d
00000060: 2370 05bd eb54 82ba 4784 f53b 509d 64be
00000070: b1ae 09be b7c7 103e 5591 6c3e bff4 07be
00000080: d91e 38be 0a81 3d3e e7ec 0d3e 1de8 71bb
00000090: 68eb 18bc 5171 7f3d 9533 6f3d 3605 fc3d
000000a0: 99e6 5d3d a333 9cbb eb1f 58bc 2245 0d3e
000000b0: 042b 143e ef89 bb3b 4653 ad3c bab0 323b
000000c0: a277 c93d 2444 283d 2db1 58be a043 77be
000000d0: cd32 90be a7bc 66be 459b 5c3c 2860 e93e
000000e0: a256 ddba 8f6b 993e f0e4 d0bd fbeb f73d
000000f0: 5466 19bd 2d68 053d 26b6 9a3b a079 19be
00000100: cb56 01bf 3a76 adbc f241 15bc 2fc9 3b3b
00000110: 4d37 363c 0693 f33d df32 ebbe 9299 87bd
00000120: 688f 2e3e 6230 d1bd 099a 253e fbb6 963c
00000130: 7bcf 863c ce3b 79be c5ab f23d bbe7 103f
00000140: 5370 c93d ec4f 903d bfc8 b5bc abbb 073c
00000150: cfed b13e 3a46 6d3e 816f 13bd 8d1e b6bc
00000160: 33b4 e7bb af1b 9c38 fd14 2f3e 516f 25bd
00000170: 3430 68bd 0b14 113e df57 d53e 2924 8b3e
00000180: a48d 3ebe 0a2b cb3e d2ba e63d b050 b4be
00000190: 1e09 ccbe b4c2 f5bb e279 3fbd 0dd4 b0bd
000001a0: cbdb c23c ae44 2d3e ff3c 6dbc 86c1 e83d
000001b0: e116 76bd 3cbe 64bb 0e03 db3c 514b 523e
000001c0: 8180 53be 8342 80bd 8bf7 4b3e e68e 993c
000001d0: 5a8f 783e da37 60be 4fed 233e fb3b bebd
000001e0: b18e 39be 8ae2 d0bd 48d6 3cbe 7384 98bd
000001f0: aa94 993c 5d76 193d 331b 293d 17a2 a1be
00000200: e5fd f4bc ee97 a0bd 78b3 eabd 3f11 8d3c
00000210: 3b8e 67be b13a 943c e21f 1cbb b4fe b1be
00000220: 82af c4be ba9e 94bd 5e62 48be b278 d73e
00000230: eebf 3abd 7e8c 9cbd aeff d83d 24b6 ecbd
00000240: 3762 1fbe 93b4 5d3d 0526 743c e1ab cdbd
00000250: 3d4e 8c3d 7429 083e 0a07 d93c 0bfb 1cbd
00000260: 6bd4 41bc 25ec 2d3e e831 923e b71c 143e
00000270: 8a11 803e cfb4 ad3e 4c57 82bc a191 d03d
00000280: 593c 9dbd 99ed 07be 4ef5 96be a3f8 60be
00000290: c68c 7abd b5d8 e038 f7c1 3d3d 1347 343d
000002a0: 6000 2e3e 0e6c 42bd 8899 3e3e 8557 873b
000002b0: 7220 55bb b352 c13c 7824 d83c afe3 5c3b
000002c0: a7ec 40be 1e39 8cbe 2ec6 143e ab75 833d
000002d0: 109b 84be d8cb aa3d 8983 c43d b423 91bd
000002e0: 7ead 59bd 145e 7d3e 9eb6 b93a aa4e f43c
000002f0: 9764 1dbd 42f1 4a3e 1608 02bf 2353 d83d
00000300: f8ed 1c3a e587 d7b8 5132 36ba 844f ce3e
00000310: 1514 07bf bdba 473e bf85 9a3e 0458 a8be
00000320: 5e27 553b 706c 7bbe b06f 88be c629 66be
00000330: 8f80 19bf 60f1 39bf 3ed2 2ebe 2659 11bc
00000340: c914 e8bc 5451 803c 8703 8bbe d69e 0fbd
00000350: 2301 933e 5427 d7bc e003 01bb 65b1 5c3b
00000360: 7e8d f63b 60e5 8fbe fae6 f3bd ad9b 713e
00000370: 2f76 8cbe f59b 113e a05a 98be 5f00 403f
00000380: bd43 c33c f775 0bbd 85c1 e03e 6aa1 5fbe
00000390: 6256 d73e 7ddd 21bd 7dbd 02bd 8a3a 5e3e
000003a0: 7d5c b5be d45b d53d e5dc 81bc 4b77 013d
000003b0: ec54 13bc a840 25bd 058c b5be c0e2 d3bd
000003c0: 1f50 5cbd 6262 433e a389 88bd 274e 84bc
000003d0: c590 583e d717 eb3d db0e 91be 1da4 9e3e
000003e0: e29c b6bd 1853 10bc 5061 c63c a592 663b
000003f0: 39b8 9abd 4357 1d3d 667d 1dbe 829b a53c
0.011861518 0.03290045 -0.033299573 -0.00011811912 0.00043817246 -0.0003325671 -0.30219787 -0.024590049
-0.20645449 -0.32273602 0.050663438 0.110371925 0.27212092 -0.015229493 0.19425964 0.3490858
-0.019154422 -0.06195148 -0.0010003393 0.0007122905 -0.0034994115 -0.22842032 -0.4377427 0.054898735
-0.032577645 -0.000994352 0.0074925753 -0.22325635 -0.13445546 0.14138685 0.23102315 -0.13276957
-0.17980517 0.18506256 0.13859902 -0.0036912032 -0.009333469 0.062363926 0.0583988 0.123056814
0.054174993 -0.0047668978 -0.013191204 0.13795903 0.14469534 0.00572323 0.021157872 0.0027265982
0.09837271 0.04108061 -0.21161337 -0.2414689 -0.28163758 -0.22532903 0.0134647535 0.45581174
-0.001688678 0.29964873 -0.10199916 0.121055566 -0.037451103 0.032570053 0.004721421 -0.14987803
-0.5052306 -0.021174539 -0.009109961 0.002865385 0.011121583 0.11893277 -0.4593725 -0.06621088
0.17046893 -0.102143064 0.16172041 0.018397799 0.016456356 -0.2433922 0.11849169 0.5660359
0.09835877 0.07046494 -0.02219045 0.00828449 0.34751746 0.2317132 -0.03599501 -0.022231365
-0.007071042 7.443816e-05 0.1709785 -0.040389363 -0.056686595 0.14167802 0.41668603 0.27176026
-0.18608719 0.39681274 0.11266102 -0.3521781 -0.39850706 -0.007500017 -0.046747096 -0.086341955
0.023786446 0.1692073 -0.014479875 0.11365037 -0.060080413 -0.0034903428 0.026734855 0.20536543
-0.20654489 -0.06262686 0.19918649 0.018744897 0.24273434 -0.21896306 0.16008495 -0.09288784
-0.18120839 -0.10199459 -0.18441117 -0.07447138 0.018747646 0.037466396 0.041285705 -0.31568977
-0.029906223 -0.07841478 -0.11460012 0.017220138 -0.2261285 0.018094392 -0.0023822715 -0.34764636
-0.38415152 -0.07256837 -0.19568774 0.4208427 -0.045593195 -0.07643984 0.10595642 -0.11558178
-0.1556481 0.054127287 0.014901643 -0.10042549 0.0685086 0.13297063 0.026492614 -0.03832535
-0.01183043 0.16984613 0.285537 0.14464079 0.2501338 0.33927009 -0.015910767 0.101840265
-0.07677526 -0.1327423 -0.29484028 -0.21969847 -0.06116941 0.00010721517 0.046327557 0.044013094
0.1699233 -0.04746633 0.18613255 0.004130306 -0.003252056 0.023599004 0.026384577 0.0033705046
-0.18840276 -0.27387327 0.14528725 0.06418928 -0.25899553 0.08339661 0.09595401 -0.07086888
-0.05314397 0.24742919 0.0014168804 0.029822666 -0.038426008 0.19818595 -0.5079359 0.10562732
0.0005986388 -0.00010277311 -0.0006950247 0.4029504 -0.5276502 0.19504829 0.30180165 -0.3287965
0.0032524685 -0.24553084 -0.2664771 -0.22476873 -0.5996179 -0.72633934 -0.17072389 -0.008871352
-0.028330224 0.01566378 -0.2715113 -0.035063587 0.28711805 -0.02626387 -0.0019686148 0.0033675071
0.0075241914 -0.28104687 -0.1190929 0.23594542 -0.27433917 0.14219649 -0.2975664 0.75000566
0.023836011 -0.034048047 0.43897644 -0.21838918 0.42058092 -0.03951787 -0.03191899 0.21702018
-0.35422125 0.104179054 -0.015852401 0.031607907 -0.008992415 -0.040344864 -0.3545839 -0.103459835
-0.053787347 0.19080499 -0.06666877 -0.016150547 0.21148975 0.114791565 -0.28331646 0.30984583
-0.08916642 -0.008808874 0.024216324 0.0035182622 -0.07554669 0.038413297 -0.15379867 0.020215753

linear1.bias f4 [256]
00000000: b231 7f3c 733b 2c3d 7d08 b13d fce0 653d
00000010: f170 b8bd 960e 1a3e d869 303e d592 7e3d
00000020: ef8d 0a3e 5b2e dfbb 59b1 a4bd 2517 9a3e
00000030: cf76 82be 96c3 1f3d 61fb 70be 923c 69be
00000040: cf13 85bc 0683 5f3d 50f9 08be 1f54 8bbd
00000050: 35e0 72be 96b1 573e a6e1 d93d 8356 5c3e
00000060: 58f5 2bbd e444 70be 539e e9bd c823 4f3d
00000070: b2b9 6b3e d6d1 4dba 22e0 17be 05ef 5fbd
00000080: 9750 143d 6225 2d3d ed79 fabc 34fd 2f3d
00000090: b643 e3bb 3398 76be 498c 5a3e 94e5 0fbd
000000a0: 0e94 633e 4473 243e 9d95 84bd 7ad0 613e
000000b0: 2d26 f2bc 2189 9dbd 4309 bcbe 453c 193e
000000c0: e8eb 873d 1671 c63d 4f0f 3b3e 2223 0dbe
000000d0: 32fe cd3d 9806 e33b e1b7 54bd 6d21 d83d
000000e0: 8567 d4bd bbc9 dabd 4553 683e 4ed9 01bd
000000f0: cb3a 853e 8caf bfbd 51f8 103e 3ed5 8cbd
00000100: 7b05 693e 22b3 88be 6e1d 463e 0e24 793e
00000110: 4971 0ebe b09a 4cbd a293 6d3e bd55 bbbb
00000120: 3f5c 96be d849 e13c 7424 d83d 6205 a53d
00000130: 6c80 263e 949d 78bc fc95 41be 2cd3 2dbe
00000140: 5eca 9abe 760a 573e 5108 cd3d 8e5f 48bd
00000150: 7231 1a3e 8ada 5a3c 93cc 90be 2db0 603e
00000160: 52c8 893d 9486 183e af6e afbe 57d2 6f3d
00000170: c676 183e 708d 5abe 09cb b0bd 27d8 ffbd
00000180: 8859 8dbe 61db 153e 12f4 43be 8d82 93bd
00000190: 2af3 23be 5fc1 26be 0c49 6abe 937e 61be
000001a0: fa55 c2bd 5b9c 623e 4844 b53d bd32 a4bc
000001b0: ab7b 713e bc98 25be d643 963d 7a64 3f3d
000001c0: 938b 0d3e 66d3 023e 8efe 4c3e d772 243e
000001d0: 3376 5bbd c0d5 2d3e 2a0f bc3d a796 243d
000001e0: e849 7a3e 9b25 3dbe 2ebe ab3e 348a 7bbd
000001f0: b4b4 9d3b 1a59 bbbd b595 5cbe 35bf 49bd
00000200: 1b94 05be 14ab d9bd a889 5bbe e056 efbd
00000210: ad1e 74be 3818 d5bd cfef 7abe ee16 893d
00000220: af01 29bc 1437 a23e fc93 973d 08d0 9bbd
00000230: 48d0 573e fd79 033e 311d 6fbc 757d 623e
00000240: b240 52be 8068 583e 3455 583e 2487 6a3e
00000250: 6384 ca3d faf4 a0be 7c9f e43d f7aa ecbc
00000260: 9c9b dd3c 9180 eb3d 90da c6bd e5fe 823d
00000270: 203b 82be b86d c3b7 11f7 25bc 46f1 a53d
00000280: e875 493e a95c 05be 74b7 da3d dbfa c03d
00000290: 59a5 46bd 4ba1 d73d c8d6 923d d53c 9f3c
000002a0: ecc0 18be df22 48bb e3af 803d 3e34 a2bd
000002b0: 3306 74be 888b 2ebe aba6 22be f3f7 c93d
000002c0: 7b96 87bd 5646 693e 71ee eabd 9a10 e13c
000002d0: 738b 853e f478 1bbc 0110 9dbd 7b5d 243d
000002e0: a692 923e fb86 0d3e 54c1 5c3e 099b 3fbd
000002f0: 22d0 e2bd f6e3 353e 81fd 873e 60e2 afbd
00000300: 2f1d 29be 6a7f 85be c763 863e 59d4 e23d
00000310: 66d4 b1bc 34b4 1cbd f9c6 0dbd 11fc 03be
00000320: 6c08 293e 6b44 833e 6abc 7fbe 379e b2bd
00000330: 628b a9bd 375d c83d 4cee 6abd 78f1 7e3e
00000340: cf25 35be f7b7 503e 8feb 44bc cb1f 493e
00000350: f1a3 f3bd e4c3 35be 3704 0a3e d5cf 20be
00000360: 7b03 4cbe 644c fe3d 41a2 e13d 4550 a83c
00000370: de29 d23d 7bed 863d 6eb4 753d 5630 943e
00000380: ab30 bebd 13b1 4dbe 9659 143e a136 383d
00000390: e5dc 5dbe 469f 95bd 49b8 28bc 34a4 f83c
000003a0: 3c45 c3bd 2efb e0bd 092f 4abe 54c7 2b3e
000003b0: 1dcb 1c3e a555 b1be 2ec6 463e 965b b33d
000003c0: e383 cf3c 32dd 41be c799 25be 228b 2e3e
000003d0: 00b4 12be 5ed8 51be 67cd 25be bd78 173e
000003e0: da24 743e 6dd9 a53e 19bd 25be f988 24be
000003f0: 4e7a 4d3e 4c7b 853d 9939 10be 9257 d6bd
0.015575813 0.042048883 0.08644197 0.056122765 -0.09005917 0.15044627 0.17227876 0.06215175
0.13530706 -0.006810946 -0.08041639 0.30095783 -0.2548127 0.039004885 -0.23533393 -0.22777012
-0.016244797 0.054568313 -0.13376355 -0.06803154 -0.2371834 0.21063837 0.10638742 0.21517377
-0.041982025 -0.2346378 -0.11407151 0.050571233 0.23020056 -0.00078513974 -0.14831594 -0.054671306
0.03620967 0.04227198 -0.030575717 0.042966083 -0.006935562 -0.24081497 0.21342577 -0.035131052
0.22224447 0.16059595 -0.06473849 0.22052184 -0.02955922 -0.07692171 -0.36725816 0.14964397
0.066367924 0.09689538 0.18267559 -0.13782933 0.100582495 0.0069282763 -0.051933173 0.105532505
-0.10371307 -0.10683008 0.22688015 -0.03170138 0.26021418 -0.09359655 0.14157225 -0.0687661
0.22755997 -0.26699167 0.19347164 0.2433016 -0.13910402 -0.04995221 0.23200849 -0.005717008
-0.29367253 0.027501032 0.10553828 0.08057667 0.16259927 -0.015174288 -0.18904871 -0.16975087
-0.3023252 0.21000084 0.10011352 -0.048919253 0.15057924 0.013357768 -0.28281078 0.21942206
0.06727661 0.14895087 -0.34264132 0.058550205 0.14889058 -0.21343017 -0.08632476 -0.124924
-0.2760737 0.14634468 -0.19136074 -0.07202635 -0.16010728 -0.16284703 -0.22879428 -0.2202094
-0.09489055 0.22129957 0.08850914 -0.020043725 0.23582332 -0.16171545 0.073371574 0.04672668
0.13822775 0.12775955 0.2001898 0.16059433 -0.05357952 0.1697607 0.0918258 0.040182736
0.24442255 -0.18471377 0.33543533 -0.061411098 0.0048128013 -0.09147854 -0.21541484 -0.049254615
-0.13044779 -0.10628334 -0.2143923 -0.11686492 -0.23839827 -0.1040501 -0.24505542 0.066938266
-0.010315343 0.31682646 0.07401273 -0.07608038 0.21075547 0.12839504 -0.014594362 0.2211817
-0.20532492 0.21133614 0.21126252 0.22903115 0.09888532 -0.31436902 0.11163232 -0.028890116
0.02705174 0.114991315 -0.09709656 0.063962735 -0.25435734 -2.3296903e-05 -0.010129706 0.0810266
0.19673884 -0.13023628 0.10679522 0.09422847 -0.04849753 0.10528811 0.071698725 0.019438187
-0.14917344 -0.0030538363 0.06283548 -0.07920121 -0.2383049 -0.17045414 -0.15883891 0.09861746
-0.06620499 0.22780737 -0.1147126 0.027473737 0.26082954 -0.009489287 -0.07669068 0.040128212
0.2862751 0.13821022 0.21558124 -0.046778712 -0.110748544 0.17762741 0.26560596 -0.085880995
-0.16515039 -0.26073772 0.26248 0.11075658 -0.021707725 -0.038257793 -0.034613583 -0.12889124
0.16507119 0.25638136 -0.24974218 -0.08721583 -0.08278538 0.09783404 -0.057356164 0.248968
-0.17690204 0.20382677 -0.012019052 0.19641034 -0.11896504 -0.17750508 0.1347817 -0.15704282
-0.19923203 0.12416914 0.110172756 0.020546088 0.10261892 0.065882646 0.059986524 0.28943127
-0.092866264 -0.2008708 0.144873 0.044973973 -0.21666296 -0.073057696 -0.010297843 0.030351736
-0.0953469 -0.10985409 -0.19744505 0.16775256 0.15311857 -0.34635654 0.19411537 0.08757703
0.025331443 -0.18932036 -0.16171943 0.17045262 -0.14326477 -0.20492694 -0.16191636 0.14792152
0.23842183 0.32392445 -0.16185416 -0.16067876 0.20066187 0.06517658 -0.14084472 -0.104659215

linear2.weight f4 [256, 256]
00000000: 00dd 373a f1fc 0fbc 00f1 433d 4487 7dbd
00000010: e3ae 183d 357d e3bc f4f4 44bd 9c91 35bd
00000020: a973 6c3b 259b 023d 4f31 72ba 2345 143c
00000030: 6d78 37bd d058 70bc 8938 003c 8901 d33c
00000040: c156 3bbd ec45 4f3d a7ff 1a3d e364 fcbc
00000050: 3c89 77ba 509c 413d da51 19bd c645 2ebd
00000060: 847f a53a c25b 573d e2c1 7dbd a2a0 0fbc
00000070: 2451 123d 01c0 273d c75d 3e3d 5f01 91bb
00000080: 7679 4ebc 2586 dbbb aeb8 4dbd 69ad 10bd
00000090: 7708 32bc 8cb2 573d c4ab 40bd 3473 88bd
000000a0: a08e 8f3c b2c2 703c 2ab0 363c 5007 dd3c
000000b0: 63a6 26bd 052e ccbc 90c7 c13b f85c 82bd
000000c0: 61b0 94bb 5d6d 173d a15c 57bd 2f04 b8bc
000000d0: 4443 eebb f22f 7d3c 9de4 003d cb12 683c
000000e0: 1505 6dbd ca7a 793c f9cf f93c 6e74 41bd
000000f0: 24cb 6fbd 9662 523d 61a0 0ebb 0adb f2bc
00000100: b79d 1c3d f487 bd3c c8d0 e83c df80 bcbc
00000110: 7043 f9bb 5053 f73b c393 4cbd 092a 20bd
00000120: 8c0b ddbc d1b0 9cbb 63db 5b3c bf1f 20ba
00000130: b5fd d9bc c9a1 223d 1a27 26bd f722 29bc
00000140: ec06 07bb e6f7 be3b febe 1fbc 407d 2fbb
00000150: 9dd5 5c3d bea2 253d 5386 cebc 76cd 55bb
00000160: ac84 6d3c e2f2 5bbd 9938 093d 5402 0dbd
00000170: a4bd f5bb ebf4 40bd 6872 ebbc 6a4f 5dbd
00000180: 71db 4d3d 203b ccbb ecbb 1dbc ac77 983c
00000190: 3646 77bd 9c01 42bd fb9d 4ebb 993d 81bd
000001a0: 99f0 09bd 8051 333d 5371 4dbc 6025 12bc
000001b0: 5b73 6cbd 1890 0bbc b6aa 503c 4520 67bd
000001c0: d736 cd3c 4d90 16bd 863b 0bbd e184 31bd
000001d0: 09f9 30bd dee8 0c3d 5659 55bd 874b 023d
000001e0: 4e05 2bbd d0e7 14bc dcba 233d f0e7 253d
000001f0: bd77 fc3c b982 f53c 7073 73bd a88b 82bd
00000200: 6a0c d6bc c2a3 b33c d011 a73c 7b82 6fbc
00000210: b042 57bc f520 5f3d d640 d8bc 7511 ffbc
00000220: 24a6 17bd bc5d a63c 1741 25bd 0cc7 28bd
00000230: 751c 72bc 1c3e 2c3d 4207 8e3b 06d2 7cba
00000240: 88dc 4abd e230 e4bc fc71 c1bc 87ee b239
00000250: 375d 1ebd 1416 803c 60a7 553d 8f11 2dbd
00000260: 4e00 543d b866 26bd d468 aa3c 0e4f 163b
00000270: 6137 6cbd e70b 1c3d 04ad 15bd 47f7 de3c
00000280: ca4e abbc 67f4 22bd fb68 c2bc a1e4 fabb
00000290: d0a2 923c 5737 7cbd 13bb 45bd 41fe efbc
000002a0: 981a ff3c 32c8 02bb fdda 2d3d 361e 1dbc
000002b0: e5cf 80bd fa84 8dbd af35 283d c2e1 233d
000002c0: cbc9 36bc 3095 8dbd ca08 193d 3ed8 8cbd
000002d0: f331 0dbd 98e9 50bd 2312 2b3d 1a03 5c3c
000002e0: 3fad 06bd 317c 4dbc 752f bb3b de76 fb3c
000002f0: f3bb 06bc 1c6d bb3c 7d4e 703a 8a69 2cbd
00000300: c42f 843c e5d1 433d feeb 023d 10cc 81bb
00000310: 176a dabc 9ee5 b0bc ebec 4fbd c14e 313d
00000320: 524a 303d 71d9 9b3c 2adf 53bd bfdc 9abc
00000330: 00af 293c 6998 60bd a14b 0bbd 61a4 503d
00000340: 2412 1fbd e485 693c 42dc ba3b 2876 893c
00000350: 1af5 233d 8ea8 8ebc c52a e2ba 1fff 5ebd
00000360: 8c28 d7bb 48ec 32bc 5a09 02bd 3d55 853b
00000370: aaa0 f6bc 3a30 0c3d a9da c2bc 2428 213d
00000380: c515 94bc eb8a e6bc 957f b2bc 83f0 8cbd
00000390: 14cc 403d 2f1f 683c b4cf b7bb dc91 663d
000003a0: 8237 173d a93b 9b3c b741 053d 1c4e a1bb
000003b0: 290c 17bd a395 56bd 7698 1bbd 4168 13bd
000003c0: a40f cf3c 3ed8 5fbd 365a 313d a871 563d
000003d0: 7502 8cbd 615a 43bc 13b3 42ba 1d77 7ebd
000003e0: 981a d9bc 29a3 24bd 5464 91bb fc3a 3fbb
000003f0: 5d88 ecbc c27c e83b 08c9 333d c7d3 81bd
0.00070138276 -0.008788333 0.047837257 -0.061896577 0.03727616 -0.027769664 -0.048085168 -0.044328317
0.003607968 0.03188624 -0.0009238915 0.009049687 -0.04479258 -0.014669612 0.007825979 0.025757568
-0.04573703 0.050603792 0.037841465 -0.030809825 -0.0009442752 0.04726821 -0.037431575 -0.04254701
0.0012626504 0.05257774 -0.06195248 -0.008766325 0.035721913 0.040954594 0.04647615 -0.0044252123
-0.012602201 -0.006699341 -0.050224952 -0.035321627 -0.010866276 0.05266051 -0.04703881 -0.06662598
0.017524064 0.0146948565 0.011150399 0.026981026 -0.040686022 -0.024924288 0.0059136823 -0.06365389
-0.0045376276 0.03696953 -0.052578572 -0.022462932 -0.0072712023 0.015453326 0.031468023 0.014164637
-0.057866175 0.015227029 0.030494677 -0.047230177 -0.05854334 0.05136355 -0.0021763074 -0.029645462
0.038236346 0.023136117 0.028419867 -0.02301067 -0.007606916 0.0075477734 -0.049945604 -0.039102588
-0.026983045 -0.0047818203 0.013419005 -0.0006108246 -0.026610235 0.03970507 -0.040564634 -0.010323278
-0.002060349 0.0058278916 -0.009750126 -0.0026777536 0.053914655 0.040438406 -0.025210535 -0.0032623685
0.0144969635 -0.053698428 0.03350124 -0.03442605 -0.0074994136 -0.047108572 -0.028741077 -0.054030813
0.050258104 -0.006232634 -0.009627324 0.018611751 -0.060369693 -0.047364816 -0.003152727 -0.06310577
-0.033676717 0.043778896 -0.012539226 -0.008920044 -0.0577272 -0.008518241 0.012736013 -0.05642726
0.025050564 -0.03675871 -0.033992313 -0.043339614 -0.04320625 0.034401767 -0.05208715 0.03181031
-0.041753106 -0.0090884715 0.039973125 0.040504396 0.030818814 0.02996956 -0.05943626 -0.063742936
-0.026128966 0.021928672 0.020394236 -0.014618511 -0.013138458 0.05447479 -0.026398104 -0.031136254
-0.03702368 0.020308368 -0.040345278 -0.04120545 -0.0147772925 0.04205142 0.0043343613 -0.0009644333
-0.04952672 -0.02785534 -0.023613922 0.00034128522 -0.038663115 0.015635528 0.052161574 -0.042253073
0.051758103 -0.040625304 0.02080194 0.0022935304 -0.05767 0.03809729 -0.036541954 0.02721752
-0.020911593 -0.03978386 -0.0237317 -0.007656649 0.0178999 -0.061576214 -0.04827411 -0.029296042
0.03114061 -0.0019955751 0.04244517 -0.009589722 -0.06289653 -0.06910129 0.04106682 0.04001022
-0.01115651 -0.06913221 0.037361898 -0.068771824 -0.034471463 -0.051004022 0.041765343 0.013428474
-0.032880064 -0.012541817 0.0057124444 0.030696329 -0.0082235215 0.022879176 0.0009166969 -0.042092837
0.016136058 0.047807593 0.03196334 -0.0039610937 -0.026661916 -0.021593865 -0.050763052 0.043287996
0.043039627 0.019024583 -0.051726498 -0.018904088 0.010356665 -0.05483285 -0.034007672 0.050938014
-0.03883566 0.014253113 0.0057025263 0.016779974 0.04002867 -0.017414358 -0.0017255178 -0.05444252
-0.006566113 -0.010920592 -0.0317472 0.004068999 -0.030105907 0.03422568 -0.023785906 0.03934492
-0.018076787 -0.028142413 -0.021789351 -0.068818115 0.047069624 0.014167591 -0.005609477 0.056291446
0.03691817 0.018949347 0.032533374 -0.0049226414 -0.03687683 -0.0523888 -0.037987195 -0.035988096
0.025276013 -0.054649584 0.043298922 0.052354485 -0.06836406 -0.0119234035 -0.0007427197 -0.062125314
-0.026501939 -0.040194664 -0.004437009 -0.0029179445 -0.028873617 0.0070949504 0.04389289 -0.063392214

linear2.bias f4 [256]
00000000: 41ec 2c3c dc85 60bd 74a3 fdbd 09e4 203d
00000010: 0169 8c3d 6350 3e3d 5c74 843d bfc8 e9bb
00000020: 1dff 03bd c4fb aa3d 7c47 44bc 9b92 b4bc
00000030: b2a4 b53c d327 033d cca1 4abd f757 07bb
00000040: f6ff 913d 5dfd e7bc 6ee6 f53c 2058 343d
00000050: bd0f ddbd 6325 853c ae7e 293d 0069 853d
00000060: 8e53 21bb 6d8d 453d 0b06 5abd 6914 353d
00000070: 7e11 163d f0a8 7cbd 8fc8 fc3d b7f9 443d
00000080: 5f9b 2b3d 30e5 6cbd e6a5 ac3d 5f3e 413d
00000090: e4d0 7e3d 6a9b c63d 30a6 bebc 5c71 573b
000000a0: 2ebd cc3c 9fe7 22bd d829 f43c 37b9 983d
000000b0: bab8 d4bb 16a9 463d bd2c 5f3b 7d16 b23c
000000c0: d4b1 79bb 00c2 893b dc57 02be 4680 c6bc
000000d0: f82c 493d dbba a23d bad3 b43d 5525 a73c
000000e0: 0b9a a23d d351 94bc 7079 a03c 9dcb 4abc
000000f0: 5e95 2c3d 0d80 e8ba d938 a43d 0c34 353b
00000100: 35e0 373b e2d4 81bb 691b 01bd 76d9 95bd
00000110: dc2c 80bd 15dd 7abb 524d 88bc 22ef ac3d
00000120: a2de 85bb 757e 213d f315 933d f652 503d
00000130: f044 0b3d d643 f23d a1ba 993c 6fd6 bebc
00000140: 6b25 d23d 34e4 a53d 4a5f 503d 98be 363d
00000150: 0c90 083d 29f7 ae3a 2dd0 00bb 0bf1 ae3d
00000160: 9703 c9bc de28 ee3c 9c75 32bd 910a a2bd
00000170: 2ab5 1fbd 2117 5ebd bdae a8bd 5455 2d3c
00000180: 1b53 77bb 6322 8abd d632 bf3c 40ea 053d
00000190: 4a0e a43c 8237 313d d998 493d 683b bbbc
000001a0: f59d a9bd 3279 b23d 4f2d 6fbb 2e8b 2f3d
000001b0: 113a bb3a 0f0d 963d b94d 903d 8357 e2ba
000001c0: 52d0 c7bb cd85 073d fd1a b93c 68c9 57bd
000001d0: dacc 0dbd d8a7 be3d 3eb0 883c 0570 4c3d
000001e0: 4ea6 e73d f7ce c53d bd85 a3bc 81db 0ebc
000001f0: d857 973c a81d a5bb e15a 213c ddbc a43c
00000200: 79ce b03b eb50 c0bd d51d d53c 6a20 b93d
00000210: 118e 163d daea 6d3c 0e62 27bd d04b 31ba
00000220: cfec ae3c 3d5b ca3b 755e 0dbc c1e6 a6bc
00000230: 48df bf3c 6d8f b43b 6bdf 22bd 2c57 43bd
00000240: e251 24bd a616 453d 6e70 41bd bee2 173d
00000250: 6f10 c63c 97a5 9ebc b6a0 afbc c818 60bd
00000260: 1fad f53c dc33 943c 8958 d53c 9b6e 473a
00000270: a8aa 0f3d a2e8 303d a568 c53d 8172 da3b
00000280: f92e f5bd bf6b 98bc 24d3 a7bb e5c9 19bc
00000290: 7c4e c5bc 0414 d63c 70f2 943c 66bc 5f3d
000002a0: 7774 473d 96ff 09bd db6b 12bd 3396 933d
000002b0: e18f c13d f5ec 6cbc 4d0f 3e3d 0814 453d
000002c0: bc2b be3d 70c9 ea3a fe01 f03a 3ad1 d5bc
000002d0: 631e bf3d 02a2 b73d 3699 28bd 07c8 95bc
000002e0: 921c 2c3d cc65 d4bc dc98 9a3d d702 21bc
000002f0: c339 793c 271d 24bc 8db3 dcbd 1261 63bc
00000300: 218f c6bc 7e18 a83d e043 fa3c 2254 c53d
00000310: 4f0c 243b 2727 a43d 76c4 30bd 609d 1f3d
00000320: 44e9 18bd 3098 eabb 1ae0 e9bc 9e91 f3bd
00000330: c2df 033d 7ae4 55bd e90b 25bc 76fa 553d
00000340: c181 023d 1c04 3bbd 42ec 3f3d 905a 42bd
00000350: c1dc f73c 2332 4b3d b506 85b9 c5aa 303b
00000360: bd5b ab3d 069d 80bb 4915 27bd 85c0 5bbc
00000370: c318 af3c 6643 59bd 0afe 033d 372a 3c3c
00000380: 9df6 9fbd 6073 053d 36bf ac3c 8bca 933d
00000390: 3385 85bc 6629 393d aef1 673d 334c aebd
000003a0: 6a52 8a3d 3509 ea3c ab15 263d bdcd 21bd
000003b0: 0e6e e93c d48d 1d3b aa6e dd3c 0bfc a5bd
000003c0: ae3b 933d 1480 953d 89bd a83d 4e2b 57bb
000003d0: bb25 243c 6df3 69bc e12e a33d f7a7 71bd
000003e0: 4bb2 7b3d d76c 8fbd e3ec 21bc bc35 3b3b
000003f0: 03b0 ee3d 3492 2bbd d851 9a3d e44c 9cbd
0.010554374 -0.05481516 -0.12384692 0.03927997 0.068559654 0.04646338 0.06467506 -0.0071345265
-0.032225717 0.08348802 -0.011979934 -0.022042563 0.02217326 0.0320204 -0.049470708 -0.0020651796
0.07128899 -0.028319055 0.030017104 0.044029355 -0.107940175 0.016253179 0.041380577 0.06514168
-0.0024616453 0.048230577 -0.05322842 0.044208918 0.036637776 -0.06168455 0.12342941 0.04808971
0.04189622 -0.057835758 0.0843008 0.047178622 0.062210932 0.09697612 -0.023272604 0.0032873964
0.024992552 -0.039771672 0.029805109 0.07457202 -0.0064917477 0.048501097 0.0034053766 0.021739239
-0.0038100379 0.004204035 -0.12728828 -0.024231087 0.04911515 0.07945796 0.08829446 0.020403543
0.079395376 -0.018105423 0.019589156 -0.012377647 0.042134635 -0.0017738357 0.08018655 0.002764943
0.0028057222 -0.003962145 -0.03152028 -0.07316868 -0.06258556 -0.0038278748 -0.016638432 0.084440485
-0.004085378 0.03942724 0.07181921 0.050860368 0.03400129 0.11829345 0.01876575 -0.02329561
0.10261043 0.08100167 0.050872125 0.044615358 0.0333405 0.0013348806 -0.0019655332 0.08542069
-0.024537845 0.029072221 -0.043569192 -0.07912172 -0.03899113 -0.054221276 -0.08236454 0.010579426
-0.0037738744 -0.0674484 0.02333967 0.0326941 0.020026345 0.043265827 0.049218033 -0.022855476
-0.08282081 0.087145224 -0.0036495512 0.04285734 0.0014284273 0.073267095 0.070460744 -0.0017268512
-0.0060978318 0.033086587 0.022595877 -0.05268231 -0.03461919 0.093093574 0.016685601 0.049911518
0.11311017 0.09658616 -0.019961232 -0.008719326 0.018474504 -0.0050389357 0.009848327 0.020109588
0.005395707 -0.09390434 0.026015202 0.090393856 0.03675658 0.014521325 -0.040864997 -0.0006763311
0.021353154 0.006175427 -0.008628477 -0.020373704 0.023421898 0.0055102617 -0.03976385 -0.047690555
-0.040117152 0.048117302 -0.047226362 0.037081473 0.024177758 -0.019366069 -0.021438938 -0.054711133
0.029989777 0.018091135 0.026043193 0.0007607729 0.03507486 0.043190606 0.096391 0.006666482
-0.1197185 -0.018606065 -0.0051216055 -0.009386514 -0.024085276 0.026132591 0.01818201 0.05462303
0.048695054 -0.03369101 -0.03574739 0.072063826 0.09451271 -0.014460792 0.04640131 0.048114806
0.092856854 0.0017912816 0.0018311141 -0.026100744 0.09331968 0.089664474 -0.04116174 -0.018283857
0.042019434 -0.025927447 0.07548687 -0.009827337 0.015211525 -0.010016716 -0.10776434 -0.013878124
-0.024238171 0.082077965 0.030549943 0.09635188 0.002503175 0.0801528 -0.04315611 0.038968444
-0.037331834 -0.0071592554 -0.028549243 -0.11893009 0.032195814 -0.052219845 -0.01007364 0.05224081
0.031862024 -0.045658216 0.046856172 -0.04744965 0.03025663 0.04960836 -0.00025372734 0.0026957255
0.08367107 -0.0039249687 -0.040791783 -0.013412599 0.021374112 -0.05304279 0.032224692 0.011484674
-0.078107096 0.032580733 0.02108727 0.072163664 -0.016298866 0.045205496 0.056626968 -0.085106276
0.067540005 0.028568843 0.040548008 -0.039502848 0.028494861 0.0024040835 0.027030308 -0.08104714
0.07189117 0.072998196 0.08239276 -0.0032832208 0.010018761 -0.014279229 0.07967926 -0.058998074
0.06144933 -0.070031814 -0.009883138 0.0028565964 0.11654665 -0.041887477 0.07535142 -0.07631853

linear3.weight f4 [3, 256]
00000000: a2c9 5c3d 6b6f 553e d7ef d43f 7c15 78be
00000010: 525f 45bd fd14 20bf 7e67 d4bd dc2b 88bd
00000020: da92 713e 21a8 d6bd 4ec6 203e d0c1 14bd
00000030: a832 c63e ef8a 05bf 6dc6 70bb cb20 17bd
00000040: 58ab d83a b2fd 07bf 068f 863f debc 8ebd
00000050: 571e fdbe 4cc7 993f 0571 3a3e 8d0b cb3d
00000060: 4d5e 823f 4e54 0b3e 4a28 6e3e f8ac 8fbe
00000070: 9579 2f3f 9eb6 313f 0150 7cbf 6f63 803d
00000080: 2c7e 4bbf 67b6 e23e 9e72 b2bd b913 ca3e
00000090: b346 bfbd 361a 40bd c5e4 f43e d6f4 cfbc
000000a0: affb a0bd 6b6f c2bf 3ce9 c4bd 874a e1bc
000000b0: 5c03 c33d 9593 383e 35a1 273f 8f4a 04be
000000c0: 6bb9 b2bd 1daa 5c3e 5d11 6e3f 305e 11bf
000000d0: a833 dabd 6df0 19be f511 2cbd aca9 213f
000000e0: e257 1dbf 4752 81bd b819 4abd f88a 49bd
000000f0: 8c46 03bd b227 b2bd 3929 80bc 7e79 1dbf
00000100: c80b b83c 5fcc a43b bfff 36be c363 ce3c
00000110: 87f8 92bc fe86 dabd 151a 553e e696 e9bd
00000120: 5319 c9bd 2227 a0bd b737 2bbd 52a6 c4bd
00000130: 3a6e 933e 26ec 13be a508 bdbf abe9 57bd
00000140: 9cad 36be edbc 9abd 265f 01be 2a36 85be
00000150: 3885 4cbd 807f 523e d321 4cbf aafa cfbd
00000160: 54c5 293e f7bf c9bd 762b 9d3e d5df 92bb
00000170: 3235 b13c 9375 19bf 4367 c23b 93c3 94bc
00000180: 1dd1 4fbc eb43 d4bf 8dbb a8bd 4252 56bf
00000190: 99c9 b0bd 2adb 1d3c d6b0 d7bd 284c 6cbe
000001a0: 2c42 c0bc cfa6 b73e 74bd 0a3c 0522 cdbd
000001b0: 4926 dabd 67e7 f43f 20e3 92bd 8373 c7be
000001c0: 5881 75bf 7dc3 73be e3de e0bd 4a7b 78bc
000001d0: 06bf 2abf 4c55 06bf 822a 2c3e 69e4 62bf
000001e0: 7513 723f d56b d1bc b511 453d ed07 0fbe
000001f0: dbe7 a23f c08f 5b3d 3847 59be 7d39 433e
00000200: 7921 d4bd 9e34 59bf 7b5b b5bd c53b 5e3c
00000210: 9e60 8539 0589 c5be 4409 58bd 51a5 d93e
00000220: 2d73 a83c f0e2 22be 195f 223d 4c08 213d
00000230: 41d4 c0bc 54d9 b73e 0140 143f 6ef9 61bc
00000240: d625 bd3f 212c 79be 97a1 6bbc b8a1 a93f
00000250: 4f5e 753f 814d 03bd b317 0a3f f2a9 25bd
00000260: fd84 93be f070 21bd db80 0d40 a220 cfbd
00000270: 4b3d d3bd 3dc4 90bd bf9f babd 4f0a 723e
00000280: ac2a 433f 51f3 db3e 863a a93f 1548 a73e
00000290: bfc1 713e bbfa db3d 1b1b 923e 603c 7abe
000002a0: 0d92 96bd ad80 2f3f d96c 25bd 8b96 07bd
000002b0: a8b5 82bd dd5c d03e bae6 14be c285 873e
000002c0: 142f d0bd a646 223e 51a0 58be 00b4 553e
000002d0: ecdd b0bd 7945 8ebd c758 273e 8508 f23e
000002e0: a422 f03b a1c2 c93e 3529 b0bd 625e df3e
000002f0: d63d 41bf c290 00bf 8484 acbf e590 4c3e
00000300: fa58 6fbd fdeb bebd f8ac 9dbe 6137 c4bd
00000310: 2606 b3bb a031 d9bd 0bb3 54bf f1d3 dcbe
00000320: 80e4 bf3f 91fc 763e 3b7b 693e 1766 753f
00000330: 0afd d13e 180d 0140 dd86 a53c 206d 91be
00000340: 8896 583a 3a7f 8a3c 9893 22bd 337d 353e
00000350: 77aa ebbc a4a5 d4bd a799 2c3e 3084 593d
00000360: a1b7 453f 2c99 d23c 601b a5ba 1a5d f63d
00000370: 65b5 b9bd 9e5b 01bb d643 c4be 71a4 c3be
00000380: 041e 35bd ce73 183f 3094 9c3c 6b84 cebd
00000390: 52f6 86be bd45 9fbd 1c6c 86bd dde8 a33d
000003a0: 5522 893e 2525 0fbc 2309 f6bd 26e4 8a3c
000003b0: d5dd fa3e 7e97 03be 551b f0bd 99ad 353d
000003c0: 8f6f dbbd 7eb8 c7bd 69a0 46be 8f6c 5bbd
000003d0: 82e2 9a3c 6968 69bf 275e 7abf e9d8 203d
000003e0: 7c8b a4bd 350b 943b 86a6 1e40 14dd b13d
000003f0: bb57 883f b9b1 1dbd ec8a 72be 4e98 10bd
0.05390323 0.20843284 1.6635693 -0.24226946 -0.048186608 -0.62532026 -0.10371302 -0.066489905
0.23591176 -0.10481287 0.15700647 -0.036317647 0.38710523 -0.5216512 -0.0036739365 -0.03689651
0.0016530557 -0.53121483 1.0512397 -0.06969617 -0.4943721 1.2013946 0.18207176 0.099143125
1.0185028 0.13606378 0.23257557 -0.28061652 0.68544894 0.69419277 -0.98559576 0.062689655
-0.794894 0.44279787 -0.08713268 0.39468172 -0.09339657 -0.046899997 0.47830787 -0.025385302
-0.07860505 -1.5190252 -0.096147984 -0.027501358 0.09522125 0.18025048 0.6548036 -0.12919067
-0.08726772 0.21549268 0.92995244 -0.56784344 -0.10654384 -0.15033121 -0.042009313 0.63149524
-0.61462224 -0.06314521 -0.049340934 -0.049204797 -0.0320497 -0.086989775 -0.015644656 -0.6151351
0.022466555 0.0050292457 -0.17870997 0.025194054 -0.017940773 -0.10670279 0.20810731 -0.11405735
-0.09819283 -0.07819964 -0.04180118 -0.096020356 0.28795034 -0.14445552 -1.4768263 -0.052713078
-0.17839664 -0.07555566 -0.12633952 -0.26017886 -0.049931735 0.2055645 -0.7973911 -0.10155232
0.16579181 -0.098510675 0.3069722 -0.0044822493 0.02163181 -0.5994503 0.00593272 -0.018159663
-0.012684134 -1.6583227 -0.082388975 -0.83719265 -0.08632202 0.009634772 -0.10531776 -0.23075926
-0.023469053 0.35869452 0.008468021 -0.10016254 -0.106518336 1.9133118 -0.07172227 -0.38955316
-0.9590049 -0.23805042 -0.10980012 -0.015166113 -0.6669773 -0.524739 0.1681309 -0.88629776
0.9456094 -0.025564114 0.04811259 -0.13967867 1.2727007 0.053603888 -0.21218574 0.19064899
-0.10357947 -0.8484591 -0.08855339 0.013564055 0.00025439722 -0.385811 -0.05274321 0.4250894
0.020562733 -0.15906882 0.039641473 0.039314553 -0.02353871 0.35907996 0.5791016 -0.013792379
1.4777172 -0.2433324 -0.014381788 1.3252478 0.9584703 -0.032056335 0.5394241 -0.040445276
-0.288124 -0.039414346 2.2109897 -0.10113646 -0.10314425 -0.070686795 -0.091125004 0.23636745
0.7623699 0.42959073 1.3220985 0.32672182 0.23609065 0.107411824 0.28536305 -0.24437094
-0.07352076 0.6855572 -0.04038701 -0.033102553 -0.063823044 0.4069585 -0.1454114 0.26469237
-0.101652294 0.15847263 -0.21154906 0.20869446 -0.08636078 -0.069468446 0.1634246 0.47272125
0.0073283482 0.39406303 -0.086016096 0.43626696 -0.7548498 -0.5022088 -1.347794 0.19977148
-0.058434464 -0.09322355 -0.30796027 -0.09580875 -0.0054633794 -0.10605168 -0.830857 -0.43130448
1.4991608 0.24119784 0.22800915 0.958589 0.41013366 2.0164242 0.02020591 -0.28403568
0.0008262177 0.01690637 -0.039691538 0.17723541 -0.028767807 -0.10383156 0.16855489 0.05310458
0.7723332 0.025707804 -0.0012596659 0.120294765 -0.090678014 -0.0019738446 -0.38333005 -0.38211396
-0.04421808 0.59551704 0.01911363 -0.100838505 -0.26359802 -0.077769734 -0.06563589 0.080033995
0.26784006 -0.008736883 -0.120134614 0.016954493 0.4899737 -0.12850758 -0.11723963 0.04435501
-0.107146375 -0.09751986 -0.19397129 -0.053570326 0.018906835 -0.9117494 -0.97799915 0.03926936
-0.08034417 0.0045179375 2.4789138 0.086847454 1.0651773 -0.038499568 -0.23685807 -0.0353015

linear3.bias f4 [3]
00000000: b7f5 70bd 3828 13bc 4c9c a1bd
-0.058828082 -0.008981757 -0.078911394
