version_2_points_without_rotation/DDPG_GPU_MPI/w32_m_t005/critic.pth (torch, 290647 bytes, 6 tensors)

linear1.weight f4 [256, 21]
000000 18 2c 57 bc 03 6f be bd d0 e6 9c bb a0 9a ac 37
       -0.013133071 -0.092985176 -0.004788257 2.0576e-05
000010 b6 62 02 38 1c 37 3a 39 70 71 a2 be 69 56 29 bc
       3.1086347e-05 0.00017758872 -0.3172717 -0.010335543
000020 75 9e 37 be 42 2d 8d be be 45 48 be e0 50 2c 3e
       -0.1793154 -0.2757359 -0.19557855 0.16827726
000030 9b e2 54 3e 74 72 ae 3d 3f 28 46 3e 6c 0e 8d 3e
       0.20789568 0.08517924 0.1935129 0.27550066
000040 e2 0c 4a 3e 71 e0 82 bd f6 f4 df ba 0e 6e 08 ba
       0.19731477 -0.06390465 -0.0017086554 -0.00052043877
000050 38 09 f7 ba ba 35 49 be ee d3 99 be 3d e3 55 3d
       -0.0018847352 -0.19649401 -0.30044502 0.052218664
000060 a8 c9 01 3a 56 91 6a 3a 42 2b 20 3c 1f ae 76 be
       0.00049510086 0.00089480483 0.0097759385 -0.2408986
000070 af a1 73 3e 3d 5b fc 3d c2 98 33 3e ff 26 3b be
       0.23792146 0.1232209 0.17538741 -0.18276595
000080 45 df 40 be ee 0e 2e 3e c0 16 3d be 14 97 02 3c
       -0.1883517 0.16997883 -0.1846571 0.00797059
000090 14 4f 4b bd a0 c0 0e 3f 35 f3 84 3d e5 11 a8 3d
       -0.04963596 0.5576267 0.064917006 0.08206538
0000a0 b5 aa 88 3a f1 01 04 3d 13 55 86 bc 30 c5 5a 3e
       0.0010426851 0.032228414 -0.016397988 0.21364284
0000b0 12 35 1c 3e 87 b7 6a bb 30 88 e7 b8 f2 6f d8 3b
       0.1525462 -0.0035814957 -0.00011040305 0.006605142
0000c0 4a 34 dc 3d 2c 6d df bc 50 34 4f be 99 7c 4e be
       0.10752161 -0.027273737 -0.202348 -0.20164718
0000d0 48 36 86 be fd ae 54 be 56 dd e8 3c 9a ed 2f 3f
       -0.26213288 -0.20769878 0.028425854 0.68721926
0000e0 3d df c4 3c 2f 74 8e 3e 7b fa be be 1b 36 14 3e
       0.02403223 0.27823016 -0.37300476 0.14473765
0000f0 e8 b8 96 bd 27 90 0d 3c 2b 51 38 3d 96 a3 c6 bd
       -0.07359487 0.008640326 0.044999283 -0.0969917
000100 a8 19 55 3d 43 e6 02 bc 19 0c 9a bc a7 76 b2 3a
       0.05202642 -0.007989469 -0.018804597 0.0013615683
000110 52 b6 38 3b c2 1c 05 3e f0 69 65 bd 58 dd 88 bd
       0.0028184843 0.12999251 -0.056009233 -0.06682843
000120 3f ac 0f 3e 2f 9e a5 bd 20 1e 28 3e df ac 6c bc
       0.1403055 -0.08086812 0.16417742 -0.014445513
000130 19 15 07 3c 39 10 73 be 4e bb 90 3d b9 a5 12 3f
       0.008244776 -0.23736657 0.070669755 0.5728412
000140 f6 f5 ca 3d 32 ca 3e 3e 0f 6b fa bd ca 96 c2 bb
       0.099101946 0.18631819 -0.12227451 -0.0059383856
000150 c1 12 3a 3e fc 92 7d 3e 7f 7b 69 bd e1 06 97 bc
       0.18171217 0.24763101 -0.05700254 -0.018435897
000160 58 78 89 38 7d 60 8c bb f1 ff cf 3d 44 38 80 be
       6.555085e-05 -0.0042839632 0.10156239 -0.25042927
000170 da 99 88 bd 24 da 15 ba 70 de e3 bc 71 3d 41 3e
       -0.0666997 -0.00057164044 -0.027816027 0.18871094
000180 cb 1e 5f bd 10 96 0b 3f 83 10 d7 3d 15 a3 c1 bd
       -0.054472726 0.5452585 0.10501196 -0.094549336
000190 5a 20 d4 be 87 6d 64 3c f1 33 2d bd c6 33 47 bc
       -0.41430932 0.013942129 -0.042285863 -0.01215834
0001a0 3e 99 61 3c 29 f0 85 3e 9d 59 db bd 0a d8 9f 3e
       0.013769446 0.2615979 -0.10710452 0.31219512
0001b0 84 d4 25 3a ab 0e c3 b9 a4 ae 44 3a 59 58 d3 3e
       0.0006325918 -0.00037204227 0.000750283 0.4127834
0001c0 7c 80 09 be 17 27 1e 3e 2c a9 22 3d c8 4c 3c 3d
       -0.13427919 0.15444599 0.039712116 0.04597166
0001d0 f2 a3 b0 3e 54 aa d5 be 42 f6 af 3e c1 a3 bb be
       0.3450008 -0.41731513 0.34367567 -0.36648372
0001e0 d9 8b 81 be e5 9d 8a be d9 84 da be 26 04 86 3b
       -0.25302008 -0.2707359 -0.4267948 0.00408985
0001f0 04 06 93 bb 3c 76 86 3c 07 75 1f 3e 96 a3 8e 3e
       -0.004486801 0.0164138 0.15571986 0.2785918
000200 b7 ba a0 3c ec 70 06 3b 20 9c 85 bd f2 40 7b bb
       0.019620283 0.0020514084 -0.06523919 -0.003833827
000210 1c 80 76 bd 14 79 61 bd 16 e3 7d 3d b4 bc 8a be
       -0.06018077 -0.05504711 0.061984144 -0.27097094
000220 11 25 86 bf 56 ea 35 3c 35 e8 11 be 79 64 2e 3f
       -1.0480062 0.011103233 -0.14248736 0.6812206
000230 24 d0 06 be 10 25 6e bd 5b 8a 56 be 12 b8 5f be
       -0.13165337 -0.058140814 -0.20951216 -0.21847561
000240 91 86 59 3d f2 42 1a 3e 36 d2 68 be 04 da e5 bd
       0.05310685 0.150646 -0.22736439 -0.11223224
000250 36 aa 62 3b 04 a9 eb 3d 8a c6 c4 3c 08 56 eb bc
       0.0034586317 0.115068465 0.024020452 -0.028727546
000260 53 8b 39 bc aa 79 fc 3d a5 a4 d5 3e c4 3a f7 3d
       -0.011324721 0.12327893 0.41727176 0.120717555
000270 af 3e 30 3e f1 01 e3 3e 4d 57 2e bd ca 9c c3 3d
       0.17211412 0.4433742 -0.042563725 0.095513895
000280 8b 7c 91 be f9 d4 13 be ee 89 83 be 6a e0 41 bc
       -0.2841533 -0.14436711 -0.2569117 -0.01183329
000290 43 be 88 bd 06 d3 00 bd 1a 85 d7 3d 6e 39 d3 3d
       -0.066769145 -0.031451248 0.10523434 0.10313688
0002a0 9b 15 d6 3d 74 c0 25 be 40 26 32 3e 31 7d d4 3b
       0.1045334 -0.16186696 0.17397404 0.0064846505
0002b0 2b f5 ca bc 11 af d9 3b ba 97 5e 3c 9b 52 45 3c
       -0.024775108 0.006643184 0.013585979 0.01204362
0002c0 61 e1 43 be 11 5b 89 be 08 73 02 3e 3b 53 7d 3d
       -0.19128944 -0.2682729 0.12739193 0.061846953
0002d0 77 c4 30 be f3 a1 d8 3e fe 0b d7 3d c4 65 02 3d
       -0.17262445 0.42311057 0.10500334 0.031835333
0002e0 51 da df be cb d4 8a 3e 93 db 8c 3c 8c 0f 1b bd
       -0.4372125 0.27115473 0.017194545 -0.037856624
0002f0 22 d4 bb 3b 21 ea 00 3c d9 fd 3e bf a3 dc a2 3d
       0.0057320753 0.007868321 -0.7460609 0.07952239
000300 5c ee d8 ba 9d 40 b9 b9 14 fd 82 3b 73 41 5b 3e
       -0.0016550529 -0.0003533409 0.0039974544 0.21411686
000310 86 53 8e be d8 04 3d 3e 72 2d 01 bd 10 8a 43 be
       -0.27798098 0.18458879 -0.03153748 -0.19095635
000320 11 1c 18 3c d5 a0 c6 3d 78 8c 0b c0 e5 58 3d be
       0.009284035 0.09698645 -2.1804485 -0.18490942
000330 35 e8 4b be 5d 99 82 be d1 4a 07 be 64 0f 54 bc
       -0.19912799 -0.25507632 -0.13212134 -0.012943123
000340 66 a8 5c bd 39 37 84 3c 53 c6 c4 bd ce dc eb bd
       -0.053871535 0.016139613 -0.0960814 -0.115167245
000350 0a fe 82 3e 0e a5 90 ba e2 58 63 39 a0 e9 8e 3a
       0.2558444 -0.0011035518 0.00021681518 0.0010903366
000360 89 23 01 bc ed dd ef 3d d2 48 29 be 1b 15 b5 3d
       -0.007882007 0.11712251 -0.16531685 0.08841916
000370 ef 18 9e bf 1a 0b c9 3d f4 6e 25 be bd 6e 16 3f
       -1.2351359 0.098165706 -0.16155607 0.58762723
000380 08 96 3e 3e 5a b9 d4 3d 25 06 9d be 94 21 dc bc
       0.1861192 0.103869155 -0.3066875 -0.02687148
000390 76 b9 a7 3b d5 c5 16 3b 51 ef dd 3c 45 22 bb 3e
       0.005118544 0.00230061 0.027091654 0.36549583
0003a0 82 d4 1e 3e 7a 6c 50 3e 34 e8 5a 3a 9c eb 4b 3b
       0.15510753 0.2035388 0.0008350641 0.0031115776
0003b0 c3 f6 91 bb 58 91 97 3d c0 28 b9 bf 9f 0d e5 3c
       -0.004454465 0.07400769 -1.4465561 0.027960597
0003c0 3a a6 93 be 6c e8 2f bf ea e6 22 bc 0d 36 e0 3c
       -0.28837758 -0.6871402 -0.0099427495 0.027369523
0003d0 c8 ac 36 3f 7b a4 9c 3d fb e6 9b bd d6 c9 9f 3e
       0.71357393 0.0764856 -0.076124154 0.31208676
0003e0 6b 29 cb bd 4d 69 37 3d 92 d0 91 bd 1e 1c fd 3c
       -0.09920009 0.044778157 -0.0711986 0.030897196
0003f0 7e af 5f 3d dc f4 21 be b3 8a 26 be 34 dd c2 3c
       0.05461072 -0.15816063 -0.16263847 0.023787118

linear1.bias f4 [256]
000000 2e 09 57 3d 35 74 ed 3d b3 8c bd 3d ba f2 bd 3d
       0.05249899 0.1159443 0.09255352 0.09274812
000010 bd 54 54 be 65 4c 3f be eb 76 82 3d d4 97 6b 3d
       -0.2073545 -0.18681486 0.06370338 0.05751784
000020 6e 0b 99 3d fd 9c 8b 3c 1a 70 9f bc e3 1d 29 3e
       0.07472883 0.017042631 -0.019462634 0.16515307
000030 8d d4 54 be 05 38 56 3d d4 3b a9 be b2 b5 28 be
       -0.20784207 0.05229952 -0.33053458 -0.16475561
000040 85 6d 06 3e ef 81 b2 bd dd fa fd bd 72 62 62 bb
       0.13127716 -0.08716189 -0.12401364 -0.0034543541
000050 91 6b 74 be 81 9f 45 3d b7 2c f9 3d af d5 30 3e
       -0.23869158 0.048247818 0.12166732 0.17269014
000060 18 18 84 bc 32 e1 b5 bd 7f 9b 0e be 8f 31 55 3d
       -0.01612477 -0.08880843 -0.13926505 0.052049216
000070 c2 62 6c 3e e5 77 42 3d 93 8d 0f be 68 43 a1 3c
       0.23084548 0.04747762 -0.1401885 0.019685462
000080 6a 55 a0 bb 8b 64 04 3e 36 73 61 be ee 3f 6c 3d
       -0.0048929946 0.12928979 -0.22016606 0.057678156
000090 0e f0 bf 3d fc b2 92 bd d8 d8 3e 3e 71 b9 35 bd
       0.09371959 -0.07163045 0.18637407 -0.044366304
0000a0 c5 84 db 3d ab d2 43 3e 29 8b 93 3c 77 0b 5e 3e
       0.10718683 0.19123332 0.018010693 0.21684061
0000b0 f1 b1 de bd c1 21 01 be 7e bf 88 be ce 79 d8 3c
       -0.108737834 -0.12610532 -0.26708597 0.026425269
0000c0 34 5e c6 3d 1b 00 15 3e df f4 89 3e 6f f6 2c be
       0.096859366 0.14550821 0.26944634 -0.16890882
0000d0 bd b3 81 3e b8 37 47 3e c2 b2 00 3d c5 54 2b 3e
       0.25332442 0.19454849 0.031420477 0.16731556
0000e0 ca fc 2d bd 74 e9 d8 bd 98 f1 21 3e 7a 40 41 bd
       -0.042477407 -0.10591403 0.15814817 -0.04718063
0000f0 42 12 5c 3e 3f 16 14 be 83 91 e9 3d cf 3b b7 bd
       0.2149134 -0.14461611 0.11404707 -0.089469545
000100 cc de 70 3e 43 f7 87 bd 95 14 8d 3c 2e 9a 4c 3d
       0.2352249 -0.06638958 0.017221728 0.049951725
000110 46 4d e3 bc f4 53 79 bc 3b c7 59 3e c4 82 54 bd
       -0.027746808 -0.01521777 0.21267407 -0.05188252
000120 3a 86 22 be 0a fa b2 3d d9 03 3e bc 3b b3 16 3e
       -0.15871516 0.087390974 -0.011597597 0.14716808
000130 9e 2a 37 3e b1 ce 92 3d 84 18 54 be 45 f5 a4 bd
       0.17887351 0.071683295 -0.20712477 -0.08054594
000140 ac 7a 7b be 26 41 65 3e a2 1f fe 3d bb 97 00 3d
       -0.24558514 0.22388133 0.12408377 0.0313947
000150 1a c5 70 3d 15 c6 21 3e 78 2c 8c be 72 7b 6b 3e
       0.05878172 0.15798219 -0.27377677 0.2299631
000160 ab 7b 60 3d fd 0f 95 3d b1 68 57 be 59 30 0c bb
       0.05480544 0.0727844 -0.2103603 -0.0021391122
000170 fa 6b 30 3e 4c 29 58 be bc ef 55 bd c1 f3 51 be
       0.1722869 -0.21109504 -0.05223058 -0.20503141
000180 dc cb 97 be a9 92 24 3e bc ac ec bd 14 51 ab bd
       -0.2964772 0.16071571 -0.11556384 -0.08365074
000190 00 de ac bd c1 b8 84 be c6 05 40 be c8 e8 23 be
       -0.08440781 -0.25922206 -0.18752202 -0.16006768
0001a0 fa 77 a9 bd 3c ba 0f 3e ec 58 b1 3d a7 b6 6e bd
       -0.08274837 0.14035887 0.086595386 -0.05827966
0001b0 f6 bb 27 3e ee 0d 6e 3d 98 92 9c 3d ad 3f 19 be
       0.16380295 0.058118753 0.07645148 -0.14965697
0001c0 a1 81 2b 3e 10 cd 1d 3e 02 7d 3d 3e 0d 96 0c 3e
       0.16748668 0.15410256 0.18504718 0.13729115
0001d0 77 00 14 bd bb 71 37 3e da 24 c4 3d 72 84 7b bc
       -0.036133256 0.17914478 0.095773414 -0.015351402
0001e0 6e 54 18 3e ec 2a 55 bd d5 b9 d3 3e 9b 81 a4 bc
       0.14875957 -0.052042887 0.41352716 -0.020081332
0001f0 7e c9 d6 3d 91 6e 20 be 4e 79 be bd e8 f9 ee bd
       0.1048765 -0.15667178 -0.09300481 -0.116687596
000200 7a f5 9f be d3 ab a3 bd 98 12 a1 bd e9 3f e2 bd
       -0.3124197 -0.07991757 -0.078648746 -0.11047346
000210 96 c4 7b be d5 5b c7 3c 47 63 54 be 22 5d c7 3d
       -0.2458671 0.024335781 -0.20740996 0.097345605
000220 64 10 6c 3b cd f2 47 3e c8 1b f1 bb 70 b8 3b be
       0.0036020512 0.19526215 -0.007358048 -0.18332076
000230 35 f2 23 3e b7 f3 b0 3d 37 83 c2 3b 00 b6 81 3e
       0.16010363 0.08640235 0.005936052 0.25334167
000240 f6 af 2d be f3 64 27 bd 5b 1c 5c 3e 38 61 58 3e
       -0.16961655 -0.040867757 0.21495192 0.21130836
000250 45 71 9e bc 51 73 7e be f0 1b a1 3d 1f 21 56 3c
       -0.01934112 -0.24848677 0.07866657 0.01306942
000260 ff b2 0b 3d 36 5b 28 3e 6c 82 16 be 0e 96 c6 3d
       0.03410625 0.16441044 -0.1469819 0.096965894
000270 f8 23 58 be eb c2 af bc 8a bc e6 3c 98 87 bb 3d
       -0.21107471 -0.021455249 0.028166074 0.09156722
000280 be 01 21 3e 50 b5 1b bd af f5 07 3e 83 1e 2f bd
       0.15723321 -0.03801471 0.13277315 -0.042753708
000290 6c 33 14 3d b0 cd 20 be 23 69 10 3d 4e 1b 9b bc
       0.036181852 -0.15703464 0.035256516 -0.018933918
0002a0 27 41 4a be e4 0f 0d 3d 23 8f 88 3d 34 5b 8f bd
       -0.19751416 0.034438983 0.06667926 -0.069998175
0002b0 52 ca 38 be fd a3 52 be 0d 8b e8 bd ca 80 c1 3d
       -0.18045929 -0.20570369 -0.11354647 0.09448393
0002c0 38 26 4b bc e8 fb 55 3e 23 05 ae bd 32 8d 59 bd
       -0.012399249 0.20896876 -0.084970735 -0.05311317
0002d0 0b cc 70 3e e1 c8 a4 3d 01 62 99 bd e9 d4 6d 3c
       0.23515336 0.08046127 -0.07489396 0.014516094
0002e0 5c 34 6a 3e a7 11 be 3d e7 00 82 3e 58 a2 94 bd
       0.22871536 0.09280711 0.25391313 -0.07257527
0002f0 51 87 71 bd a3 5e 0a 3e b6 04 5d 3e 74 aa 96 bd
       -0.05896694 0.13512664 0.21583828 -0.0735673
000300 55 6a df bd 81 e1 13 be bd 64 78 3e 2c 6a b0 3d
       -0.10908953 -0.14441492 0.24257179 0.08614001
000310 00 a3 28 bd cb e5 01 be 17 80 19 bd f4 cd e4 bd
       -0.041171074 -0.12685315 -0.03747567 -0.11172095
000320 8d 2b 26 3e f7 6f 56 3e 61 d3 3d be b5 fc 79 bd
       0.16227551 0.20941149 -0.18537666 -0.061032016
000330 ee cc ec 3b e2 66 2d bb c9 de bd 3c cf 92 0e 3e
       0.007226578 -0.0026459028 0.023177521 0.1392319
000340 0f 6b 7d be 80 b9 51 3e a0 49 38 3d f4 5d 36 3e
       -0.24747871 0.20480919 0.04499209 0.17809278
000350 7d 4e 3c be e5 e8 e4 bd 7c 15 0c 3e 1b 76 fd bd
       -0.18389316 -0.111772336 0.1368007 -0.123760425
000360 d9 97 89 bd 43 17 2f bd a6 8e c5 3c 9e 06 6d b9
       -0.06718416 -0.042746793 0.024115872 -0.00022604546
000370 09 3b c5 3d e7 6a 45 3d 1c 8a 8e 3d 3e 07 c5 3e
       0.09630401 0.048197653 0.06959936 0.38482088
000380 a2 09 08 be 2c ef 1c be 10 f5 f9 3d 4f 73 e5 bd
       -0.13284925 -0.15325612 0.12204945 -0.11203634
000390 cd d5 b2 be fd ac 83 bd 8d d9 b1 3c 8d 74 18 bd
       -0.34928742 -0.06429479 0.021710182 -0.037220526
0003a0 e5 57 db bd d1 21 c8 bd 90 9e 21 be d9 4b 39 3e
       -0.10710124 -0.09772075 -0.15783143 0.1809534
0003b0 7c e0 a2 3e ac 49 81 be 0f 23 04 3e 5d df 24 3d
       0.31811893 -0.2525152 0.12903999 0.04025208
0003c0 c1 dd 14 3d 37 1e d9 bd d9 82 6e be ca e2 df 3b
       0.036344294 -0.10601466 -0.23292102 0.0068324553
0003d0 5d 03 4e bd 4f e2 48 be e8 ad 49 be 0f 6c 66 3e
       -0.050296176 -0.1961758 -0.19695246 0.22502159
0003e0 36 7e 4e 3e ce c9 92 3e db d7 fe bd 7a a6 97 bd
       0.20165333 0.2866959 -0.12443515 -0.074048
0003f0 56 43 00 3e 64 0b 73 3d 07 9f de bd 4d ae c6 bd
       0.12525687 0.059337035 -0.10870176 -0.09701214

linear2.weight f4 [256, 256]
000000 00 dd 37 3a 24 53 e5 bb 78 7a 45 3d 8d f2 7a bd
       0.00070138276 -0.0069984365 0.0482125 -0.06126647
000010 bf 94 1b 3d 44 f0 d6 bc f4 f4 44 bd 94 fa 36 bd
       0.037983652 -0.026237614 -0.048085168 -0.044672564
000020 a8 85 79 3b de 0a 03 3d 32 b1 a9 ba bd bd 21 3c
       0.003807405 0.031992786 -0.0012946485 0.009871897
000030 28 1c 36 bd d0 58 70 bc 04 93 f5 3b 66 cf d5 3c
       -0.044460446 -0.014669612 0.0074943323 0.026099872
000040 22 e2 3b bd 5e b7 50 3d be fd 1b 3d 19 ea f9 bc
       -0.045869954 0.050956123 0.038083784 -0.030507134
000050 95 fc 28 ba 5e c4 27 3d 86 d3 18 bd 12 eb 2f bd
       -0.0006446329 0.040958755 -0.0373111 -0.04294879
000060 60 01 92 3a f2 50 58 3d e2 c1 7d bd a7 a1 0b bc
       0.0011139326 0.05281157 -0.06195248 -0.008522428
000070 dc 6a 13 3d 3a 94 2a 3d 91 76 42 3d 8b 6c 92 bb
       0.03599058 0.041645266 0.047476355 -0.0044685057
000080 71 5d 5b bc d0 02 d5 bb ee f0 49 bd a7 cf 0e bd
       -0.013388977 -0.0065005794 -0.049302034 -0.034866
000090 35 28 29 bc 2c f2 58 3d 8b e2 3f bd 40 05 88 bd
       -0.0103245275 0.052965328 -0.046846908 -0.06641626
0000a0 47 74 92 3c 91 20 75 3c f0 ac 2b 3c 50 07 dd 3c
       0.017877711 0.014961378 0.010478243 0.026981026
0000b0 4b 84 25 bd 15 25 c6 bc 6f 33 c9 3b 12 8c 82 bd
       -0.040409368 -0.024187604 0.0061401646 -0.063743725
0000c0 be 3d 7b bb fe 9a 17 3d 6b e4 58 bd cf ab bb bc
       -0.0038336362 0.037013046 -0.05295221 -0.022909073
0000d0 e1 66 db bb 86 dd 80 3c fc 59 02 3d 21 0f 76 3c
       -0.0066956137 0.01573063 0.031824097 0.015018255
0000e0 8f 46 6b bd 5a 08 8c 3c 1b 63 00 3d 8a 2f 57 bd
       -0.057440337 0.017093826 0.031344514 -0.05253557
0000f0 0f 69 6d bd 54 10 54 3d dc eb 88 ba 77 d5 f0 bc
       -0.05796152 0.051773384 -0.0010446268 -0.029398663
000100 66 96 1d 3d 21 dd be 3c 26 fa e6 3c 51 9b ba bc
       0.03847351 0.023298802 0.028195452 -0.022779139
000110 86 2e 54 bc 50 53 f7 3b b4 73 49 bd 5d 42 23 bd
       -0.012950545 0.0075477734 -0.04918261 -0.03985821
000120 b5 b5 dd bc 1f 66 9f bb 1f 93 6c 3c 18 4e 3d 3a
       -0.027064184 -0.0048644687 0.014439373 0.00072214147
000130 f4 6b d8 bc 10 5e 24 3d ec a9 28 bd 7f b0 35 bc
       -0.026418664 0.040128767 -0.041177675 -0.011089443
000140 87 08 c3 ba 47 60 c6 3b 61 90 45 bc 31 1a fd ba
       -0.0014879861 0.0060539576 -0.012058348 -0.0019310174
000150 c5 9d 5e 3d c3 26 26 3d 68 af cb bc 9e d9 20 bb
       0.05434968 0.04056431 -0.024863914 -0.0024543772
000160 38 b7 52 3c 10 da 5a bd c6 85 0a 3d 0d 17 0a bd
       0.012861066 -0.053430617 0.033818983 -0.03371339
000170 34 af ea bb 5f c2 3f bd ea ad ea bc 69 4e 5b bd
       -0.007161999 -0.046816226 -0.028647382 -0.053541575
000180 c4 88 50 3d 3f 0b be bb 51 fc 14 bc ac 77 98 3c
       0.05091168 -0.0057996805 -0.00909336 0.018611751
000190 fa 7c 73 bd c4 18 3f bd b6 81 2c bb fd 46 81 bd
       -0.05944536 -0.046654478 -0.002632243 -0.06312368
0001a0 2c 3c 07 bd 85 6f 1d 3d 4d 1e 48 bc 0f 0e 16 bc
       -0.03301637 0.03843643 -0.0122142555 -0.009158625
0001b0 4c 35 6f bd 10 45 03 bc ed e8 58 3c 7a 39 6a bd
       -0.058400437 -0.008012071 0.013239128 -0.05718372
0001c0 1d 87 d9 3c fd 92 15 bd 5c 41 0c bd da 23 32 bd
       0.026553685 -0.036517132 -0.03424202 -0.043491222
0001d0 03 da 30 bd 23 bf 0e 3d b4 10 54 bd d4 c8 03 3d
       -0.043176662 0.03485025 -0.05177374 0.032173946
0001e0 4c 0a 2a bd 74 7e 11 bc 34 89 24 3d 77 11 23 3d
       -0.041513726 -0.008880246 0.04016991 0.039811578
0001f0 8d 81 fd 3c a4 f4 fb 3c 24 b4 71 bd 5b 89 81 bd
       0.030945564 0.030756302 -0.059009686 -0.063250266
000200 59 45 d8 bc 03 8f b6 3c b3 69 ac 3c f1 0f 69 bc
       -0.026400255 0.02228499 0.021046495 -0.014224992
000210 b0 42 57 bc 0d 70 5f 3d ff 86 ce bc 07 0c fc bc
       -0.013138458 0.05455022 -0.025210856 -0.030767454
000220 52 17 17 bd 57 70 aa 3c 17 c9 21 bd 87 4b 26 bd
       -0.036887474 0.020805521 -0.039498415 -0.040599372
000230 86 28 65 bc 2c 50 2e 3d b5 66 98 3b 7c 59 ac ba
       -0.013986712 0.042556927 0.0046509155 -0.0013149227
000240 fb 0c 4c bd 5c 4f e2 bc cd f1 bc bc 34 38 ad 3a
       -0.049817067 -0.027625732 -0.023064518 0.0013215602
000250 1e 0e 20 bd 0f 24 80 3c 60 a7 55 3d 7d bb 29 bd
       -0.039075963 0.015642194 0.052161574 -0.04143857
000260 67 9c 54 3d de c4 25 bd 67 ca b3 3c 3b 49 24 3b
       0.05190697 -0.04047095 0.021947099 0.0025068063
000270 87 a2 6c bd f4 c6 1d 3d 1c a9 14 bd 6a 9a d9 3c
       -0.057772186 0.038519815 -0.036294088 0.026562888
000280 66 e8 a8 bc b7 21 22 bd 00 82 c0 bc 07 07 f5 bb
       -0.020618629 -0.039582934 -0.023499489 -0.0074776444
000290 5c 10 97 3c bb fe 7a bd 90 d9 43 bd 50 c3 ec bc
       0.018440418 -0.061278086 -0.047814906 -0.028901726
0002a0 ac 42 04 3d b0 ba 27 ba d1 99 2b 3d 8f 95 21 bc
       0.032290146 -0.0006398363 0.041894738 -0.009862318
0002b0 1c 69 80 bd d8 ef 89 bd 0a ca 26 3d 9d cc 24 3d
       -0.06270048 -0.067352 0.040720023 0.040234197
0002c0 ca 3d 32 bc 91 05 8d bd 1c e4 1a 3d e8 af 8b bd
       -0.0108789895 -0.06885827 0.0378152 -0.06820661
0002d0 f9 67 0a bd f2 6f 4f bd bc 35 2c 3d 08 03 5d 3c
       -0.033790562 -0.05064387 0.042043433 0.013489492
0002e0 e7 c5 04 bd 3f bb 4a bc 15 45 c8 3b f2 d4 fc 3c
       -0.032415297 -0.0123737445 0.006111751 0.030863259
0002f0 3d ed 01 bc 88 07 bd 3c 70 ef b8 3a be 0c 2b bd
       -0.007930097 0.02307488 0.0014109444 -0.0417602
000300 63 f1 84 3c 6a f4 44 3d 6d 2f 00 3d 10 cc 81 bb
       0.016228383 0.048084654 0.03129523 -0.0039610937
000310 0a 60 d5 bc 22 f7 a8 bc ab ef 4e bd fd e9 31 3d
       -0.026046772 -0.020625655 -0.050521534 0.04343604
000320 ec af 30 3d 80 c3 9e 3c cd 3a 53 bd fd a2 9f bc
       0.043136522 0.019380331 -0.05156975 -0.019486899
000330 00 af 29 3c 13 b0 61 bd d5 bd 0b bd 7e 96 51 3d
       0.010356665 -0.055099558 -0.034116585 0.05116891
000340 40 90 21 bd 72 6d 71 3c 83 63 c1 3b 2b ed 8a 3c
       -0.03944421 0.014735566 0.0059017553 0.016958794
000350 fa 54 22 3d af 1c 8c bc 64 aa fb ba 8e b2 5e bd
       0.03963182 -0.017103521 -0.0019200561 -0.0543695
000360 27 33 e0 bb a4 fa 30 bc ee d6 fe bc 59 41 8e 3b
       -0.0068420353 -0.010801945 -0.031108346 0.004341286
000370 dc 81 eb bc 5b 0f 0d 3d ac 6d c3 bc bd 18 23 3d
       -0.028748445 0.034438472 -0.023856007 0.039818514
000380 c5 65 90 bc b0 f5 ea bc 6c db ac bc ce 77 8c bd
       -0.017626652 -0.028681606 -0.021100722 -0.068587884
000390 71 c0 43 3d 94 4a 6e 3c c7 a0 ac bb dc 91 66 3d
       0.04779095 0.014544148 -0.0052681896 0.056291446
0003a0 c7 d6 16 3d 74 db 9e 3c 17 9e 06 3d 94 e2 9c bb
       0.03682592 0.019391753 0.03286561 -0.0047877524
0003b0 5c 90 18 bd 32 86 53 bd ce ea 18 bd ed 4f 14 bd
       -0.037247047 -0.05164165 -0.037333302 -0.036209036
0003c0 f5 dd ca 3c 28 d6 5d bd f7 92 33 3d 67 33 57 3d
       0.02476404 -0.054159313 0.04384133 0.052539255
0003d0 c6 a8 8b bd 4a 5c 39 bc 11 36 28 ba 8f 83 79 bd
       -0.068193 -0.011313507 -0.0006416748 -0.06091648
0003e0 98 1a d9 bc 36 1c 23 bd bb 23 aa bb e3 58 20 bb
       -0.026501939 -0.039821826 -0.0051922477 -0.0024467043
0003f0 86 3f ea bc 70 dc fd 3b 30 ee 34 3d 76 35 81 bd
       -0.028594743 0.0077472255 0.044172466 -0.06309025

linear2.bias f4 [256]
000000 8a ce 30 3c d0 b0 93 bd a2 b9 0f bc 52 e6 9e bd
       0.01079143 -0.07211459 -0.008772286 -0.07758774
000010 03 68 6b 3d c0 23 92 3d 5f e0 87 3d 5f 4e 12 bc
       0.05747224 0.07135725 0.06634592 -0.008929818
000020 85 2a 01 bd 27 0c ab 3d 6e be bf bc 0d 7d e8 bc
       -0.03153469 0.08351927 -0.023406234 -0.028379941
000030 df 8b 67 3d 2f be db 3c 5b ca 4a bd 17 88 12 bb
       0.056529876 0.026824085 -0.049509387 -0.0022358948
000040 a0 87 8d 3d 93 41 9a bd 64 c1 d1 bc cc b4 25 3d
       0.06910634 -0.075320385 -0.025604911 0.040455624
000050 4d b8 f8 bc c7 28 9a 3c 7d 2c b9 3c af e5 bd 3c
       -0.030361319 0.018818272 0.022604221 0.02318081
000060 c1 3a 19 bd a8 d0 0f 3d 41 6b 8e bd c4 6f 01 3b
       -0.037409548 0.0351111 -0.06954051 0.0019750455
000070 2e ed 66 3d 5c 93 f1 bd 1b 3f 97 3d a6 32 55 3d
       0.056378536 -0.11795685 0.07385083 0.052050255
000080 07 40 d1 3d ed 36 2a bd aa 24 ab 3d 8b 36 20 3d
       0.1021729 -0.041556288 0.083566025 0.039114516
000090 f3 4b 74 3d ed f6 ba 3d 9d cb df bc 4e 96 99 ba
       0.059642743 0.091291286 -0.02731877 -0.0011717768
0000a0 75 e3 9c 3d 0b f0 ea 3d 62 97 d5 3c 13 fd 95 3d
       0.076605715 0.11471566 0.026073162 0.07323661
0000b0 90 df 83 bc 5f c7 2a 3d c9 56 8e 3c 2c 1e 9e 3c
       -0.016097814 0.04169404 0.017375367 0.019301496
0000c0 a9 01 a6 bb 34 4e 23 bd d8 0d 87 bc 7c f9 a0 bc
       -0.005066116 -0.039869502 -0.016486093 -0.019650213
0000d0 d7 e4 49 3d 44 2f d4 3d 7d 83 ae 3d 5b 18 70 3b
       0.049290504 0.10360578 0.08521173 0.003663561
0000e0 af 09 d2 3c 9d f2 a7 bc 4b 4e ad 3c db 08 94 bc
       0.025639383 -0.02050143 0.021155497 -0.018070629
0000f0 c9 46 34 3d a4 30 49 bb b4 76 9e 3d 0f f1 03 bd
       0.04401282 -0.0030699158 0.077374846 -0.032212313
000100 ed 32 62 3b ac 3e e1 3a 60 9e 37 bd f7 31 c0 bd
       0.0034515217 0.0017184815 -0.044828773 -0.0938453
000110 66 d7 52 bd 00 f1 be bb 6e 1b 45 3b 5f 11 a5 3d
       -0.05147495 -0.0058270693 0.0030076164 0.08059954
000120 e6 e5 65 bc c4 26 16 3d 39 69 99 3d a4 cf 4e 3d
       -0.014031863 0.036658064 0.07490773 0.05049099
000130 f8 bd 8e bc 84 44 e2 3d 3d 50 a7 bc e4 fc 13 3c
       -0.017424569 0.110482246 -0.020424003 0.009032462
000140 27 25 3c bb 4a 53 a1 3d dd c5 57 3d 64 36 73 3d
       -0.0028708668 0.07877214 0.05267893 0.059378043
000150 50 6d 0e 3d dc bb 09 bc ab 76 21 bd 4b ae a9 3d
       0.034772217 -0.008406606 -0.03941981 0.08285197
000160 70 07 33 bd 38 4f e4 3c c9 80 ae bd cc 82 7e bd
       -0.043708265 0.027869806 -0.085206576 -0.062136456
000170 19 e0 ae 3b 4d d2 a6 bc 8f d2 5d bd 91 5b da 3b
       0.005336773 -0.020363951 -0.054155882 0.0066637476
000180 b6 60 b1 bc 57 a9 22 bd 42 2f 0d 3b 29 39 82 3d
       -0.02165256 -0.039712276 0.002154306 0.06358559
000190 7c 0e a3 3c 00 a3 12 3d 69 da 4b 3d 9c 2f 67 ba
       0.019904368 0.03579998 0.04976884 -0.0008819045
0001a0 ff 08 51 bd e3 f5 91 bb 95 81 89 3c 35 ca 45 3d
       -0.05103397 -0.004454361 0.016785422 0.048288543
0001b0 96 fa 8b 3a ef 15 6e 3d e3 fd 8f 3d c1 6a 81 bc
       0.0010679539 0.058126386 0.07030847 -0.015797975
0001c0 a9 b7 29 bb a3 1d 35 3d e5 6b a6 3c e0 58 a6 bd
       -0.0025896823 0.044217717 0.02031512 -0.0812242
0001d0 f3 4e d5 bd 68 1d b2 3d a0 0d f6 3b d1 85 aa 3c
       -0.10415449 0.08697015 0.0075089484 0.020815762
0001e0 8c 68 d3 3c 70 84 bf 3d d1 81 06 3d bd a2 38 bc
       0.025806688 0.09351432 0.032838646 -0.011269269
0001f0 28 06 1e 3d a9 cc a8 bb bb 9f 10 bc 0c db a0 3c
       0.03858009 -0.0051513505 -0.008827145 0.0196357
000200 a4 80 27 3b e5 fc 96 3a 83 84 cf 3c af 37 b1 3d
       0.0025558854 0.001151946 0.025331741 0.08653199
000210 68 4b 1b 3d 87 a5 b3 3c 85 1e 83 bd 2a d7 27 bd
       0.03791371 0.021929516 -0.064023055 -0.04097668
000220 7c a2 c3 bb 2c 6f 33 3c 91 4b 0f bc ce 7e b1 3c
       -0.0059702974 0.010951798 -0.008746044 0.02166691
000230 d0 6d af 3b 95 4e 49 bd 9b 2c 6a bd a9 59 55 bd
       0.005353667 -0.049147207 -0.057171445 -0.05208746
000240 30 60 a1 bd 6a 09 cf 3c 22 7b e7 bc 23 c1 05 3d
       -0.078796744 0.025273044 -0.028256956 0.032654893
000250 b8 2d 37 bd a7 27 b7 bc 55 0b ea ba 93 35 5f bd
       -0.044721335 -0.022357775 -0.001785616 -0.05449445
000260 a7 40 7d 3d 60 04 7f 3c 75 60 94 3c cf f1 9f bb
       0.061829235 0.015565008 0.0181124 -0.0048811208
000270 90 84 02 3d 7c c0 29 3d 60 f7 c4 3d 09 79 25 3c
       0.031864703 0.041443333 0.096174955 0.010099658
000280 36 29 8e bd 9b 83 83 3c 66 e3 91 bc 63 bf 32 bc
       -0.06941454 0.016053965 -0.017808627 -0.010909888
000290 20 81 ae bc f8 54 b0 3c c8 67 cb 3c c9 57 0d 3c
       -0.021301806 0.021524891 0.02482976 0.008626887
0002a0 22 38 33 3d 87 51 c9 bd 3a 92 2d bd bd 1b 8e 3d
       0.043754704 -0.09830003 -0.04237578 0.069388844
0002b0 83 b6 b6 3d b9 ea 8c bc a5 dd 0c 3b bf e8 6b 3d
       0.0892153 -0.017201768 0.0021494415 0.05759501
0002c0 66 24 b9 3d 7e 52 60 3d 34 15 99 bc eb cd 6d bd
       0.090401456 0.05476617 -0.018686868 -0.058057707
0002d0 2f 9d c2 3d d7 aa ba 3d f2 97 f3 bd 61 f1 9f bc
       0.09502637 0.09114616 -0.11894216 -0.019524278
0002e0 02 86 41 3d e1 44 94 bd 04 1d 95 3d fd 2f 84 3c
       0.04724694 -0.072397 0.07280925 0.016136164
0002f0 ab 57 07 3d f1 1e 05 bd b0 d2 f4 3c ff 8a 0a bc
       0.03304259 -0.03250021 0.02988562 -0.008455991
000300 07 2e 1f bd 52 a4 80 3d e9 54 c7 3c d4 43 c1 3d
       -0.038862254 0.062813416 0.02433248 0.09436765
000310 df 0c 55 3a 41 00 a0 3d 42 98 e2 bc 2a eb 81 3d
       0.0008127223 0.078125484 -0.027660493 0.06343682
000320 af d5 82 bd 58 4e 8f bd e1 a1 45 bd e7 5e b3 bd
       -0.06388413 -0.06997365 -0.048250083 -0.087583356
000330 c0 c0 1a 3d 6a 09 c1 bd 57 e0 ae 3c 89 62 4f 3d
       0.037781477 -0.09425624 0.021347208 0.05063108
000340 d8 b7 e2 3c 1a 23 c3 bc 9c 35 27 3d 1a d7 7f bd
       0.027675554 -0.023820449 0.04082261 -0.062460996
000350 01 19 dd 3b 45 7c 4e 3d 71 b5 b1 bc 81 c4 d3 bc
       0.0067473655 0.05041148 -0.021692963 -0.025850536
000360 88 22 17 3d 5e 5c 62 3c ef 9e 66 bc 49 39 ef bc
       0.036898166 0.013815967 -0.014075979 -0.02920212
000370 cd 15 c6 bb 7c dc 98 bd 6a 73 05 3d ac ab 8b bc
       -0.0060450793 -0.07463929 0.03258077 -0.017049633
000380 ff ce 4d bd 14 02 3d bb 27 61 99 3c 58 17 90 3d
       -0.050246235 -0.002884035 0.018723084 0.070357025
000390 eb 28 b6 bc 6a 3a 11 bd 98 f2 5e 3d 6a 38 5b bd
       -0.022236308 -0.0354561 0.054430574 -0.053520598
0003a0 d9 e6 f7 3c 60 9a 3f 3d 0a 2d 16 3d ba cf 0c bd
       0.030261444 0.046778083 0.036664046 -0.03437779
0003b0 00 37 36 3d 55 94 d7 3a 7a c4 de 3c c0 37 a0 bd
       0.044486046 0.0016447405 0.027193297 -0.078231335
0003c0 ce fc 90 3d 61 9c a6 3d 2a 5b 6e 3d b8 e4 fc bb
       0.07079469 0.08135296 0.05819241 -0.007717695
0003d0 fc bc d5 3c 42 ec 6a bd 1d ae 90 3d be fe 9f bd
       0.026091091 -0.05735422 0.070644595 -0.0781226
0003e0 a1 3d 35 3d 39 9a 4b bd 0e d5 56 bd a1 7f 8c bc
       0.044248227 -0.049707625 -0.05244928 -0.017150702
0003f0 62 1d 15 3d b5 66 2e bd 8c ff 41 3d 01 60 ed bd
       0.036404975 -0.042578418 0.04736285 -0.11590577

linear3.weight f4 [3, 256]
000000 97 8a 5d 3d 87 44 47 3e 69 2e a5 3e 20 86 63 bf
       0.054087248 0.19459735 0.3226197 -0.88876534
000010 b2 31 2d be d1 49 06 c0 71 9d c4 bd d6 1e 30 bd
       -0.16913489 -2.0982554 -0.09600342 -0.042998157
000020 13 f4 b4 3e 58 17 ad bd 2d 06 ed bc fd a4 4c bc
       0.35342464 -0.08451718 -0.028933609 -0.012490508
000030 5e e3 ee 3e 09 5f b1 bf 2b 84 aa bb 87 09 b2 bb
       0.46657842 -1.3857127 -0.005203744 -0.0054332647
000040 06 25 b0 3c 97 66 7e bf be 3a 0c 3f 56 1a 49 bd
       0.02150203 -0.9937529 0.54777133 -0.04909738
000050 53 09 94 be 3e da 6f 3e 0d 3d 5b 3e 06 3c 3f 3e
       -0.28913364 0.23423097 0.21410008 0.18675241
000060 fc 09 9a 3c cb ba 73 3e 7a 48 ca 3d 8c 07 89 3e
       0.018803589 0.23801725 0.09877105 0.2676357
000070 19 eb 16 3f 35 0e 5d 3e 0e b0 06 bf bb 60 57 3d
       0.5895248 0.21587451 -0.5261239 0.052582484
000080 e6 b4 b4 bf b6 ae 39 3e 75 46 89 bd d4 c3 aa 3e
       -1.4117706 0.18133053 -0.06702892 0.3335253
000090 75 20 4f bd 09 b0 52 bc 30 00 70 3d f9 91 e1 bc
       -0.050568063 -0.012859353 0.05859393 -0.027535425
0000a0 42 ef 5d bd ab 0f 49 be 1a 4b 8f bd 6d 95 20 bc
       -0.054183252 -0.19634883 -0.06996746 -0.009801251
0000b0 8f c9 3a 3e 65 10 63 3e 72 b4 de 3e db 56 8f be
       0.18240951 0.22174223 0.43497044 -0.27995953
0000c0 dc f7 8d bd 05 19 3c 3d 36 2f 6f bf 4a 90 c1 3d
       -0.06932041 0.045922298 -0.93431413 0.09451349
0000d0 69 71 b1 bd 14 19 d3 bd e0 b5 98 bc 56 8e 02 3f
       -0.086642094 -0.10307518 -0.018641412 0.5099844
0000e0 46 2c ea be 48 02 27 bd 0d 2e 9a bc 20 69 09 bd
       -0.45736903 -0.04077366 -0.018820787 -0.03354752
0000f0 22 80 fe bc 6f 61 8d bd 10 62 35 b9 b0 a3 9d bf
       -0.031066958 -0.069033496 -0.00017298036 -1.2315578
000100 5e 8f 28 3d 01 fb 91 3b fb ee 80 be 28 5f fc bb
       0.04115235 0.004454971 -0.25182328 -0.007701773
000110 54 ee 99 bc 19 73 b7 bd e5 4e 94 3e de f6 c6 bd
       -0.018790402 -0.089575 0.28966442 -0.09715055
000120 b6 a7 70 be 0e 6b 5a bd 8f 70 b3 bc 04 95 a5 bd
       -0.23501477 -0.05332475 -0.021904258 -0.08085063
000130 df ba 56 bd f5 17 7b be cb df c4 3c 14 6d 98 bc
       -0.052424308 -0.24520858 0.024032494 -0.0186067
000140 7e 4f 99 3f ce 9f 7e bd 3a 87 d2 bd e0 48 ed bd
       1.1977384 -0.06216412 -0.10279699 -0.115861654
000150 26 79 d9 bc dd d4 b5 3d af ce 22 bd 88 98 9f bd
       -0.026547026 0.08878491 -0.03974789 -0.07792765
000160 7d 20 a0 3d 4f 4e a6 bd 40 eb a9 3e 23 96 bb bc
       0.07818697 -0.08120405 0.33187294 -0.02289874
000170 9a 73 c7 b9 3b 85 a2 bc 73 11 84 3b 0d ce fd b9
       -0.00038042368 -0.01983892 0.0040304004 -0.0004840944
000180 94 9e 41 3c e8 03 b1 bc f7 ed be bd 7b 9c a3 be
       0.011817593 -0.021608308 -0.09322732 -0.31955323
000190 88 fb 85 bd c0 70 39 3b c0 7c b9 bd d6 78 02 be
       -0.065421164 0.0028295964 -0.09056997 -0.12741408
0001a0 50 55 ec 3b b9 11 a4 3f 37 5c 1e 3d e8 bf 9d bd
       0.0072123185 1.2817909 0.03866216 -0.07702619
0001b0 91 c5 a1 bd c7 3c 02 3e 02 e2 37 bd 55 56 af be
       -0.07899011 0.12718497 -0.044893272 -0.34245554
0001c0 91 c2 2c 3d 3f 72 ba be 52 79 b4 bd c4 39 3c bc
       0.04217774 -0.36415288 -0.088122025 -0.011488382
0001d0 92 32 07 3f d9 61 40 bd 3c 21 13 3e 9a 57 64 bb
       0.5281154 -0.046968315 0.14368147 -0.0034842254
0001e0 18 57 3f 3f 92 93 fe bb 03 aa 11 3f da b1 e8 bd
       0.7474227 -0.0077690566 0.5690004 -0.113620475
0001f0 2d 4f 0d 3e 5c 2e 5b 3d 2e 8d b6 be 5a 88 de 3e
       0.13799734 0.05351101 -0.35654587 0.43463403
000200 3b f0 af bd a8 93 57 3e 3f db 8d bd 5b 65 08 3d
       -0.08590742 0.2105242 -0.069265835 0.033299785
000210 d0 19 c0 39 1b b2 90 be 43 27 a3 bd 98 b3 36 3f
       0.00036640326 -0.28260884 -0.07966473 0.7136779
000220 5f cd 25 bc af 1c 91 bd d3 3d 23 3d 0c 7c 49 bf
       -0.010119765 -0.07085549 0.039853882 -0.78704906
000230 c0 f9 b2 bc 84 62 24 3e 05 ba a9 3e b4 38 0b bd
       -0.021847606 0.16053206 0.33149734 -0.033989623
000240 20 20 84 3e a4 8b 9e be f6 78 f3 bc 8c a9 92 3e
       0.2580576 -0.30965912 -0.029720765 0.2864498
000250 1f 89 05 bd c7 e1 11 bc f3 9a 11 3f eb 09 27 bd
       -0.032601472 -0.008903927 0.5687706 -0.040780943
000260 73 43 6a bf 90 57 ca bc ad 15 fa 3d a9 d1 9a bd
       -0.9150917 -0.024699956 0.122111656 -0.07559521
000270 ff 01 93 bd 5a c6 46 bd dc 0c 8e bd a7 66 27 3e
       -0.07178115 -0.048529007 -0.069360465 0.16347753
000280 36 f3 94 3e ea 64 51 3f 59 09 1e 3e a8 7e cc 3e
       0.29091805 0.8179461 0.15433253 0.3994038
000290 d0 f1 14 3f 12 ff 89 3d 5b 3a 29 3e 3a e6 20 3e
       0.58181477 0.06738104 0.16526167 0.15712824
0002a0 5e db 56 bd f8 51 cf 3d 5a 0e 25 bd 27 3b 43 bc
       -0.0524553 0.10123056 -0.04029689 -0.0119159585
0002b0 59 53 3d bd 65 b5 95 3d eb c1 db be 19 99 56 3f
       -0.046222065 0.07309989 -0.42921385 0.8382736
0002c0 f7 f2 8f bd 40 f4 9d 3f 18 72 c8 be cb 3e 30 3e
       -0.07028764 1.2340164 -0.39149547 0.17211454
0002d0 57 4f 80 bd 55 d8 b0 bd d3 c7 e5 3e cb e7 1f 3e
       -0.06265133 -0.08635012 0.44879016 0.15615766
0002e0 6e 00 e1 3b e3 f9 60 3e 14 63 7b bd 67 a3 af 3e
       0.0068665063 0.21970324 -0.061373785 0.34304354
0002f0 40 b7 f8 be 5f d5 a3 3c f2 04 a6 bf 35 69 9f 3e
       -0.4857731 0.019999204 -1.2970259 0.31134954
000300 52 3c 63 bf 8d 47 a8 be 16 2f b0 be 3f 9d 87 bd
       -0.88763916 -0.3286709 -0.34410924 -0.06621789
000310 5a 37 a7 bb 2e 3a a5 bd 61 0c 0e bf ce 1c 41 be
       -0.005103034 -0.080677375 -0.5548764 -0.18858644
000320 a0 65 3e 3f 0b bd 73 3e 61 ee 93 3e 4c cc 02 bd
       0.7437382 0.23802583 0.28892806 -0.031933114
000330 65 27 1d 3e 90 a9 60 3e d6 2d aa 3c 6e db 9d be
       0.15347059 0.21939683 0.02077381 -0.30831474
000340 63 aa a9 3c 02 92 04 bc f0 33 a1 bb 88 0a 24 3e
       0.02071113 -0.008091452 -0.0049195215 0.16019642
000350 3e 76 09 bd 88 6d ab bd 83 0b fc 3d dc 61 a0 3b
       -0.03356003 -0.08370501 0.12306883 0.0048944782
000360 7f 3a 0c 3e 0f a3 2c 3d e1 52 f6 3c e5 be f2 3d
       0.1369419 0.042147692 0.030068817 0.118528165
000370 5b 4b a2 be 5b 81 88 bf 32 da c4 be 9e cd 6a be
       -0.31698117 -1.0664476 -0.3844772 -0.22929999
000380 83 5f 3a bd 87 ec f8 3e d3 ba 99 3c a2 9b ac bd
       -0.045501243 0.48617956 0.018765843 -0.08428122
000390 4c 09 03 bf 10 88 22 3d d1 9e 45 bd 2c b0 42 3d
       -0.5118606 0.03968054 -0.048247162 0.04753129
0003a0 a9 44 a7 3d f7 ba cf 3c ce 77 c2 bd 8a f6 a5 ba
       0.08167393 0.025357706 -0.09495507 -0.0012661975
0003b0 c3 5b 90 be 66 36 b6 bd a6 a0 d2 bd 17 1f 79 3d
       -0.2819501 -0.088970944 -0.102845475 0.060820665
0003c0 f1 86 c4 bd 94 8f 9e bd dc 9f bc be 37 18 bd bc
       -0.095960505 -0.07742229 -0.36840713 -0.023082836
0003d0 87 67 24 3b 02 7f b4 be 7d fd ca be 8e a3 b3 3c
       0.0025086121 -0.3525315 -0.3964652 0.021928575
0003e0 c0 e6 fb bd e7 65 d7 bc 20 d6 57 3e 1c fc 18 3e
       -0.122998714 -0.026293708 0.21077776 0.14939922
0003f0 bd e6 32 3e ca ba 1e bd 32 8e d5 be c2 fd c7 bf
       0.17470832 -0.038752355 -0.4171005 -1.5624316

linear3.bias f4 [3]
000000 c2 07 6f bd dd 16 c7 bb 8b 3a 97 bd
       -0.058357008 -0.0060757236 -0.07384213
