version_4_points_without_rotation/DDPG_GPU_MPI/w32_m_t005/actor.pth (torch, 299863 bytes, 6 tensors)

linear1.weight f4 [256, 30]
0	0x3c6775b3	0.014127183
1	0x3e69c593	0.22829275
2	0x3d8282bc	0.06372592
3	0xbcfb65ce	-0.030688193
4	0xbd4e4929	-0.05036274
5	0xbde068bb	-0.10957476
6	0x3d26b25e	0.040697448
7	0x3d87c8e4	0.06630114
8	0x3e0ee4aa	0.13954416
9	0xbd2c4e5f	-0.042066928
10	0xbe20af44	-0.15691859
11	0x3d3ae6fb	0.045630436
12	0xbe3b95fb	-0.18318932
13	0xbdbc0325	-0.09180287
14	0x3e00bbba	0.12571612
15	0xbd9e89d1	-0.0774113
16	0x3cc8c2b8	0.024506912
17	0x3e32b6da	0.17452565
18	0xbc92a2d0	-0.0178999
19	0xbda125a4	-0.078685075
20	0x3d5cf8b3	0.053948116
21	0x3d925e67	0.07146912
22	0xbeb82d33	-0.35971984
23	0x3d9a7a61	0.07542873
24	0xbd7daa6a	-0.061930098
25	0xbd5152a0	-0.051104188
26	0x3a5e02e5	0.0008469059
27	0x3dc01628	0.09379226
28	0xbe3bf25b	-0.1835417
29	0xbdd20669	-0.10255129
30	0x3c5b8813	0.013399142
31	0x3e01cd89	0.12676062
32	0x3d3b0277	0.045656648
33	0x3c4601a7	0.012085355
34	0x3b28190f	0.0025649702
35	0xbcc2ba44	-0.023770459
36	0xbdb326f5	-0.08747665
37	0x3e42428b	0.18970697
38	0xbe130c25	-0.14360102
39	0x3e211b55	0.15733083
40	0x3dd68f4d	0.10476551
41	0xbdd57c63	-0.104241155
42	0x3d5fd1b1	0.054643337
43	0x3e8cbfd0	0.2749009
44	0xbe153f2e	-0.14574882
45	0x3e56efae	0.20989868
46	0x3e3e771a	0.18600121
47	0xbce1721d	-0.027520234
48	0xbbda7f71	-0.006668024
49	0x3b8d58ae	0.00431355
50	0x3e36bff1	0.17846657
51	0xbc479d7c	-0.012183543
52	0xbdc362eb	-0.095403515
53	0x3e4896de	0.19588801
54	0xbe4bccc7	-0.19902335
55	0xbe99c31b	-0.30031666
56	0xbd063495	-0.03276499
57	0xbd0dfa0a	-0.034662284
58	0xbe953d18	-0.29148173
59	0x3e2a80a1	0.1665063
60	0x3e5f4d94	0.21806937
61	0xbc236c48	-0.009974547
62	0xbd1bdd09	-0.038052592
63	0xbe1db127	-0.1539961
64	0xbe169419	-0.14704932
65	0xbe0f2f1f	-0.13982819
66	0x3e174a23	0.14774375
67	0xbe46a14d	-0.19397469
68	0x3d6f69a2	0.05845035
69	0x3e40c39b	0.18824618
70	0xbd0067bc	-0.03134893
71	0x3da9958c	0.08280477
72	0xbe064bac	-0.13114804
73	0x3d9a24be	0.07526539
74	0x3db48c14	0.0881578
75	0xbe4367e5	-0.19082601
76	0x3dc5c21e	0.096561655
77	0xbbac6bc5	-0.0052618706
78	0xbe1b2740	-0.15151691
79	0xbe3fe205	-0.18738563
80	0x3e261fe0	0.16223097
81	0xbd6b6fad	-0.05747955
82	0xbe183f0d	-0.14867802
83	0xbd7f01f5	-0.062257726
84	0x3d317bc4	0.043330923
85	0x3ded1459	0.11576147
86	0xbdbb2229	-0.09137375
87	0xbda0821b	-0.07837316
88	0xbdcc68cc	-0.09980926
89	0x3dbf801c	0.09350607
90	0x3d88cf78	0.066801965
91	0xbe2c53f4	-0.168289
92	0x3e367ae6	0.1782032
93	0xbe4c6e48	-0.19963944
94	0xbb9eb444	-0.0048432667
95	0x3dd13117	0.10214441
96	0xbddd4b63	-0.108053945
97	0x3dcddd38	0.1005196
98	0x3e44914f	0.19196056
99	0x3e222661	0.15834953
100	0xbd81c37b	-0.06336113
101	0x3d897035	0.06710855
102	0x3de42633	0.111400984
103	0xbe896241	-0.26832774
104	0x3cc4740c	0.023981117
105	0xbe456feb	-0.19280975
106	0xbe6a05f1	-0.22853829
107	0x3e0ad6b8	0.13558471
108	0xbe270959	-0.1631216
109	0x3ce93063	0.028465455
110	0xbddf541e	-0.10904716
111	0x3d9ad57c	0.0756025
112	0xbd8496b9	-0.064740606
113	0xbd707104	-0.05870153
114	0x3e45a396	0.19300684
115	0xbe942127	-0.28931543
116	0x3d715aaa	0.058924355
117	0xbcda5b37	-0.026654823
118	0xbd531fb3	-0.051543903
119	0xbdbf3ae5	-0.09337405
120	0xbe630696	-0.22170481
121	0xbc88c16c	-0.016693793
122	0x3d934f93	0.07192912
123	0xbd53f232	-0.051744647
124	0x3d8c1d67	0.068415456
125	0x3d947ffa	0.07250972
126	0x3deb6910	0.114946485
127	0x3e2b3890	0.16720796
128	0x3da7fa45	0.08202032
129	0xbc8d471f	-0.017245827
130	0x3dabd019	0.08389301
131	0x3e248267	0.1606537
132	0xbdc409f4	-0.09572211
133	0xbe27d2d5	-0.1638902
134	0x3e2ef75d	0.17086549
135	0xbe073aa6	-0.13205966
136	0xbd0f5470	-0.034992635
137	0x3dce8c6e	0.100853786
138	0x3cd65154	0.026161827
139	0xbe875f1f	-0.2643976
140	0x3d5e793d	0.05431484
141	0x3dbb6ad8	0.09151238
142	0x3d9a562c	0.07535967
143	0x3e2581f3	0.16162853
144	0x3e4f8d02	0.20268634
145	0xbd82d1d2	-0.06387676
146	0xbc224194	-0.00990333
147	0x3e19583b	0.14975064
148	0x3d8d1d4e	0.06890355
149	0x3ccb8ee2	0.024848405
150	0x3c19c5bf	0.009385525
151	0x3e8f2fc2	0.27966124
152	0x3c803f3e	0.015655156
153	0xbd17a182	-0.03701926
154	0x3dcd34c1	0.10019828
155	0xbde921f0	-0.11383426
156	0x3e4662e6	0.19373664
157	0x3e243b69	0.16038288
158	0x3e851f22	0.26000315
159	0xbdddfd42	-0.10839321
160	0x3dac55ee	0.08414827
161	0x3de6c335	0.112677015
162	0x3dfc7a54	0.1232802
163	0x3d4556ac	0.04817836
164	0x3c2bbcb7	0.010482005
165	0xbd885278	-0.06656355
166	0x3ec5ae15	0.38609377
167	0x3d6647a3	0.05622066
168	0x3d7fdb83	0.062465202
169	0xbe63151e	-0.22176024
170	0x3e04611a	0.12927666
171	0x3d40dc64	0.04708518
172	0xbe8350da	-0.25647622
173	0xbe329a0c	-0.17441577
174	0x3d2bda65	0.041956324
175	0x3daedcc8	0.085382044
176	0xbe0911a2	-0.13385633
177	0xbca4c8f7	-0.020115359
178	0x3dfb6245	0.12274603
179	0xbd7b6ab6	-0.061381064
180	0x3d05bf20	0.032652974
181	0xbee03be5	-0.43795696
182	0xbdc182b2	-0.09448756
183	0xbcb052f6	-0.021523934
184	0xbdb73a50	-0.08946669
185	0x3dea697c	0.11445901
186	0x3e164fcb	0.14678876
187	0xbddc23d2	-0.1074902
188	0x3df180ba	0.11792131
189	0xbc6e03b7	-0.014527253
190	0xbe85fb99	-0.26168516
191	0x3e10b76e	0.14132473
192	0x3e00b7af	0.1257007
193	0xbe2a2b58	-0.16618097
194	0xbdbb2e0e	-0.091396436
195	0xbe17b857	-0.14816414
196	0xbd8d2738	-0.06892246
197	0xbc188e6f	-0.009311303
198	0x3df4fc07	0.11962133
199	0x3efb1caa	0.49045306
200	0x3e044ff9	0.12921132
201	0x3da90730	0.08253324
202	0x3ec1f2da	0.37880594
203	0xbdb63a34	-0.0889782
204	0xbc305638	-0.010762744
205	0x3d8c17c2	0.06840469
206	0x3e1fd9e4	0.15610462
207	0xbcc7c59d	-0.024386222
208	0x3d828687	0.06373315
209	0xbe09f309	-0.13471617
210	0xbe046e61	-0.12932731
211	0x3cfccf8c	0.030860685
212	0xbe19aab7	-0.15006529
213	0x3e31bb44	0.17356592
214	0xbdbe96b7	-0.0930609
215	0x3de26045	0.11053518
216	0xbe693b4c	-0.22776526
217	0x3e5bc2f6	0.2146109
218	0x3d3244a9	0.04352251
219	0xbe36bd70	-0.17845702
220	0xbc93f4d3	-0.018061077
221	0xbce8a471	-0.028398724
222	0x3dde29b5	0.10847799
223	0xbdeeb292	-0.11655153
224	0xbde6d30d	-0.112707235
225	0x3e426813	0.18985014
226	0xbd37d595	-0.044881422
227	0x3d235280	0.0398736
228	0x3d826cef	0.06368434
229	0xbd26202f	-0.040558036
230	0x3e0cf84e	0.13766596
231	0x3e735c70	0.23765731
232	0x3d6e3d79	0.058164094
233	0x3d3bc587	0.045842674
234	0x3e6ab46b	0.22920386
235	0xbdf85a73	-0.12126627
236	0x3dc1bef4	0.094602495
237	0xbd95e0e1	-0.07318283
238	0x3db12024	0.086487085
239	0x3e6ad051	0.22931029
240	0x3e563f23	0.20922522
241	0x3d6116e6	0.05495348
242	0xbe1ae60c	-0.15126818
243	0xbc6f035b	-0.014588202
244	0xbdefb298	-0.11703986
245	0xbe1d8b22	-0.15385106
246	0xbd40af3b	-0.047042113
247	0xbc8968fc	-0.016773693
248	0x3ddd2db0	0.1079973
249	0xbdfa0733	-0.122084044
250	0x3d7c2db1	0.061567012
251	0xbc130b61	-0.008974881
252	0x3b2cf404	0.0026390562
253	0x3ccd5bcb	0.025068184
254	0xbe16360d	-0.14669056
255	0x3e55621c	0.20838207

linear1.bias f4 [256]
0	0x3dad7114	0.084688336
1	0x3e8030b2	0.25037152
2	0xbe1a06a1	-0.15041591
3	0xbe468fa0	-0.19390726
4	0x3dbce558	0.09223431
5	0xbe3c7329	-0.18403305
6	0xbd97b187	-0.074069075
7	0x3c8edccc	0.017439269
8	0x3d5225b3	0.051305484
9	0x3e7d1d13	0.24718122
10	0x3e2e6962	0.17032388
11	0x3e4443ce	0.1916649
12	0xbdd3db9f	-0.10344624
13	0xbe07d40b	-0.13264482
14	0xbe28aafe	-0.16471478
15	0xbc456555	-0.012048085
16	0x3dbf2d3f	0.09334802
17	0xbd5560cc	-0.052094266
18	0x3c844874	0.01614783
19	0x3c5716c1	0.013127984
20	0x3df5c49c	0.12000391
21	0x3d99bbd3	0.07506528
22	0x3e21a7df	0.15786694
23	0x3c77a27b	0.015114422
24	0xbe1637ee	-0.14669773
25	0x3e161cb8	0.14659393
26	0xbda8431b	-0.08215924
27	0x3e14526a	0.14484563
28	0x3e50d6e9	0.20394482
29	0xbd9e5935	-0.07731859
30	0x3e1fd2ae	0.15607712
31	0x3d67d57b	0.056600075
32	0x3e00d6e7	0.12581979
33	0xbdc63068	-0.096772015
34	0xbdf31ffa	-0.118713334
35	0x3e41bc86	0.18919572
36	0x3e834ef9	0.2564619
37	0xbdbff3c8	-0.093726695
38	0xbbc21fed	-0.005924216
39	0xbe15f03a	-0.1464242
40	0xbe72c34e	-0.23707315
41	0xbd7d9908	-0.06191352
42	0xbd8e2b69	-0.069418736
43	0xbc34a29f	-0.0110251
44	0x3d1bb4d8	0.038014263
45	0x3addf570	0.0016934108
46	0xbd546f1e	-0.051863782
47	0x3cb41345	0.021981845
48	0x3e2017e8	0.1563412
49	0xbccbadda	-0.024863172
50	0xbc16f91f	-0.009214669
51	0x3e244585	0.16042145
52	0xbd223a1b	-0.039606195
53	0xbdb87930	-0.0900749
54	0x3da7ebd7	0.0819928
55	0x3dce93f2	0.10086812
56	0xbd9d367d	-0.076764084
57	0x3dcbc220	0.09949136
58	0xbe558c50	-0.20854306
59	0xb9ae37ab	-0.00033229342
60	0x3dbb72ef	0.09152781
61	0x3e160e21	0.14653827
62	0xbdf4749f	-0.11936306
63	0x3c3c8f9d	0.011508849
64	0xbb85db42	-0.0040849755
65	0xbc7c5d60	-0.015403122
66	0xbcdb4f59	-0.026771234
67	0xbdc48a90	-0.09596741
68	0x3e5c972b	0.21542041
69	0xbd477296	-0.048693262
70	0x3beb664d	0.007183826
71	0xbdec394c	-0.11534366
72	0xbe122313	-0.14271192
73	0x3e57c61e	0.2107167
74	0x3db70cbf	0.08937978
75	0x3d5c72a8	0.053820282
76	0x3e0d7dbf	0.138175
77	0xbe199d45	-0.150014
78	0x3cacb900	0.021084309
79	0x3b304c83	0.0026901073
80	0xbdbe9de0	-0.09307456
81	0x3c74248d	0.0149012925
82	0x3d9aafeb	0.07553085
83	0x3e30e57c	0.17275041
84	0x3dcf7dce	0.10131417
85	0xbd57192f	-0.05251425
86	0x3e202f27	0.15642987
87	0xbd0468b1	-0.032326404
88	0xbd72a41f	-0.05923855
89	0x3e6652ed	0.22492571
90	0x3d9bdac5	0.07610086
91	0x3c94a5ad	0.018145407
92	0xbdadbf05	-0.084837
93	0x3e43450e	0.19069311
94	0x3e4553d2	0.19270256
95	0x3df2fa78	0.118641794
96	0xbd902204	-0.07037738
97	0x3e8b8d90	0.2725644
98	0xbe201101	-0.15631486
99	0x3db0809d	0.08618281
100	0x3b3197bd	0.00270985
101	0xbd100565	-0.035161395
102	0xbd918be5	-0.07106761
103	0x3e06b201	0.1315384
104	0x3dd3c14a	0.10339601
105	0xbdefce95	-0.11709324
106	0xbbadc0ce	-0.005302525
107	0xbda641de	-0.08118032
108	0xbd738f9b	-0.059463125
109	0xbc1cef48	-0.0095785335
110	0xbd8b4df5	-0.068019785
111	0x3e0e9907	0.13925563
112	0x3dfa05fa	0.12208171
113	0xbc640d4a	-0.013919184
114	0xbdb927f4	-0.090408236
115	0xbd68de8d	-0.056852866
116	0xbc783532	-0.0151494015
117	0xbe054652	-0.13015106
118	0xbdc9ce1f	-0.098537676
119	0x3cbe5953	0.023235952
120	0xbd5d3361	-0.054004077
121	0xbcdb862a	-0.026797373
122	0x3c61a7b5	0.013772895
123	0xbb00a96b	-0.001963223
124	0x3c8feedc	0.017569952
125	0x3c837197	0.016045375
126	0x3d0300ec	0.0319833
127	0xbcf5327f	-0.029931305
128	0xbd94b456	-0.07260959
129	0xbbd26653	-0.0064208894
130	0xbe55f49f	-0.20894097
131	0x3d271cab	0.040798824
132	0xbd81bd4d	-0.063349344
133	0x3e28eee6	0.16497383
134	0xbdc62c9d	-0.09676478
135	0xbe2275f9	-0.15865315
136	0xbc799593	-0.015233415
137	0xbded40bb	-0.11584612
138	0x3e152f96	0.14568934
139	0xbdf5ae2d	-0.11996112
140	0xbdff857c	-0.12476632
141	0x3c49a836	0.012308171
142	0x3e1e18aa	0.15439096
143	0x3e270024	0.16308647
144	0x3e01d7b3	0.12679939
145	0xbb5e55e4	-0.0033925707
146	0xbdbf90cd	-0.093537904
147	0xbe388300	-0.18018723
148	0xbda0a541	-0.0784402
149	0x3dc91fd4	0.09820524
150	0xbda17944	-0.07884458
151	0xbbe75ce5	-0.0070606344
152	0xbbbb3284	-0.005712809
153	0xbdaf236b	-0.08551677
154	0xbdeaa7eb	-0.11457809
155	0xbe24e80a	-0.16104141
156	0xbd9ad6db	-0.07560512
157	0x3e4baddf	0.19890545
158	0x3e3227c1	0.17397977
159	0x3dbab963	0.09117391
160	0xbe16a6a7	-0.1471201
161	0x3d972dc6	0.073817775
162	0xbe029ca4	-0.12755066
163	0xbe4384d2	-0.19093636
164	0x3e051d42	0.12999442
165	0xbd7ec941	-0.06220365
166	0x3de7c4a8	0.11316806
167	0xbdbf3810	-0.09336865
168	0x3dbe2396	0.09284131
169	0xbd401c27	-0.04690185
170	0x3e51c064	0.20483547
171	0xbe3e8869	-0.18606724
172	0xbc9b8041	-0.018982055
173	0xbd842ead	-0.06454215
174	0xbdd5a420	-0.10431695
175	0xbcc646af	-0.024203626
176	0xbd94b6e5	-0.07261447
177	0xbce4acf7	-0.027914507
178	0xbc9fcbe6	-0.019506406
179	0x3da8cfcb	0.08242758
180	0xbe04c9f8	-0.1296767
181	0xbd1224eb	-0.03567974
182	0x3d8e4e72	0.06948556
183	0xbe1060f6	-0.14099488
184	0x3c37cc5c	0.011218157
185	0x3df2b2af	0.118504874
186	0xbd9762ff	-0.07391929
187	0xbdbd9478	-0.09256834
188	0x3cfa53dd	0.030557567
189	0x3de361aa	0.11102612
190	0xbd6cf4ef	-0.057850774
191	0xbd10d587	-0.035359886
192	0xbe19887b	-0.1499347
193	0xbe2121ab	-0.157355
194	0x3cb7f786	0.022456896
195	0x3d272570	0.040807188
196	0xbd8ffa22	-0.07030131
197	0xbe1c7c44	-0.15281779
198	0x3d2e3bf9	0.042537663
199	0xbbba2f59	-0.005681914
200	0xbdda77dc	-0.106673926
201	0x3d64891e	0.055794828
202	0xbe815dc1	-0.2526684
203	0xbdee8de9	-0.11648161
204	0x3d113c77	0.035458054
205	0x3d553618	0.05205354
206	0x3e423ea6	0.18969211
207	0x3d6db4a1	0.05803359
208	0xbe262ce2	-0.16228059
209	0xbd0c1daa	-0.034207977
210	0x3e49a3d3	0.196914
211	0xbdb482ce	-0.088140115
212	0x3e4ce17b	0.20007889
213	0x3da638fe	0.08116339
214	0x3e66930e	0.22517034
215	0xbbf89d3c	-0.007587103
216	0x3d93168e	0.07182036
217	0x3d3ded82	0.046369083
218	0xbdb8edff	-0.09029769
219	0xbe6481e5	-0.22315176
220	0xbd626493	-0.055271696
221	0xbe04e64e	-0.1297848
222	0xbd7bff08	-0.061522514
223	0xbda6f41f	-0.08152031
224	0x3e1d1599	0.1534027
225	0xbcc7cf4d	-0.02439084
226	0x3d94c00f	0.07263195
227	0xbd8b5daf	-0.06804978
228	0xbde6f6ec	-0.11277565
229	0x3db35422	0.087562814
230	0x3d502cb7	0.050823893
231	0x3cb92dd6	0.022604864
232	0x3d1fad40	0.038983583
233	0x3d7f497e	0.062325947
234	0xbdabdb0a	-0.08391388
235	0xbc6a1def	-0.014289363
236	0x3e0ab9c5	0.13547428
237	0xbe2149d8	-0.15750825
238	0xbe486b01	-0.19572069
239	0xbe299476	-0.1656054
240	0xbda3946e	-0.07987295
241	0xbcca0d76	-0.024664622
242	0x3e6c11a2	0.23053601
243	0x3e0f2a69	0.13981022
244	0x3e1fa10f	0.15588783
245	0x3d19d204	0.037553802
246	0x3d5d0f30	0.053969562
247	0xbd55690c	-0.052102134
248	0x3e015541	0.12630178
249	0x3e057560	0.13033056
250	0x3d7ea2e0	0.06216705
251	0xbd97541a	-0.07389088
252	0x3cd69bfa	0.026197422
253	0x3b79a8b1	0.0038094933
254	0x3da0e2bb	0.078557454
255	0xbdbd8d19	-0.09255428

linear2.weight f4 [256, 256]
0	0xbd3f178e	-0.046653323
1	0xbcc8060f	-0.024416951
2	0xbcaeac1f	-0.021322308
3	0xbd6860de	-0.056733005
4	0xbcfc89df	-0.03082746
5	0xbc8abad2	-0.016934786
6	0xbd8b1cbb	-0.06792589
7	0xbcc7a837	-0.024372203
8	0x3c00807c	0.007843133
9	0x3d58a598	0.052892298
10	0x3c67451e	0.0141156
11	0xbd38f483	-0.04515506
12	0xbc45f94f	-0.012083366
13	0x3d2c8ddf	0.042127486
14	0xbd7e222c	-0.062044308
15	0xbd167d33	-0.036740493
16	0xbd277aef	-0.040888723
17	0xbc570890	-0.0131246
18	0x3d491dc2	0.049100645
19	0x3c742495	0.0149013
20	0xbd769ffc	-0.060211167
21	0xbd567841	-0.052360777
22	0xbd5bef4b	-0.053695004
23	0xbc675d9c	-0.014121439
24	0xbd003313	-0.03129871
25	0xbc8aee87	-0.016959442
26	0x3c00904a	0.007846901
27	0x3d3cc076	0.046081983
28	0xbc9e3518	-0.019312426
29	0x3d2abadf	0.04168212
30	0x3cfe39bc	0.03103339
31	0x3cad5365	0.02115793
32	0xbc8a5156	-0.016884487
33	0xbccaf376	-0.024774294
34	0x3c383435	0.011242916
35	0x3cb1f0eb	0.021721324
36	0x3d1dc56d	0.038518358
37	0x3c02b163	0.007976863
38	0xbccbb606	-0.024867069
39	0xbd136bc5	-0.03599145
40	0x3d094d78	0.033521146
41	0x3c0da2bf	0.008644759
42	0xbc189a38	-0.009314112
43	0x3d45593a	0.048180796
44	0x3c35357d	0.011060116
45	0x3c773ab6	0.015089681
46	0x3d6a5f51	0.057219807
47	0x3b29dd0a	0.0025919103
48	0xbc9d433d	-0.0191971
49	0x3d2d259f	0.042272206
50	0xbd771b3c	-0.060328707
51	0xbd03a4af	-0.032139476
52	0x3b988bd6	0.0046553416
53	0xbbb5f7ea	-0.0055532353
54	0xbce493a6	-0.027902436
55	0x3d1eaadf	0.038737174
56	0xbd670800	-0.056404114
57	0xbd5a3667	-0.05327454
58	0xbbb7e845	-0.0056124055
59	0xbc057965	-0.0081466185
60	0x3d47f46d	0.048817087
61	0x3cdb2216	0.026749652
62	0x3cf15945	0.029461512
63	0x3d5aab5e	0.053386085
64	0xbb3e9106	-0.002907814
65	0xbd0b4eb4	-0.034010604
66	0x3d416ad0	0.047221005
67	0x3c36bff0	0.01115416
68	0xbd8ed64e	-0.06974469
69	0xbb187c6e	-0.0023267525
70	0xbd3bd71a	-0.045859434
71	0xbcb5fcec	-0.02221533
72	0xbd525664	-0.05135192
73	0xbd1ec7a3	-0.038764607
74	0xbc99bc4d	-0.018766547
75	0xbd6a1547	-0.057149198
76	0xbd71485b	-0.058906894
77	0xbd1875f1	-0.037221853
78	0x3d2e4345	0.042544622
79	0x3c6f942b	0.014622728
80	0xbd81f1e6	-0.063449666
81	0x3ce08cf7	0.027410967
82	0x3c27f218	0.010250591
83	0x3d0da37e	0.034579746
84	0xbd7bc74d	-0.061469365
85	0xbce6071f	-0.028079567
86	0xbd743250	-0.059618294
87	0x3c7855b9	0.015157157
88	0xbd2c36e0	-0.04204452
89	0x3d47ea68	0.04880753
90	0x3c22d799	0.009939098
91	0xbdb4d542	-0.08829738
92	0xbd7e6f11	-0.06211764
93	0x3a2b89f4	0.0006543689
94	0x3d20eb07	0.03928664
95	0xbbdc6efd	-0.006727098
96	0xb9443aa2	-0.00018713859
97	0x3d07fd98	0.03320083
98	0xbd4869b3	-0.048928928
99	0xbc139098	-0.009006642
100	0xba28674f	-0.00064240856
101	0x3ca3c91a	0.019993354
102	0xbd29ff8c	-0.041503474
103	0xbd3c8662	-0.046026595
104	0xbcc297bc	-0.023753993
105	0xbd3d0fb5	-0.046157558
106	0x3ce3e2a3	0.02781803
107	0x3d283c40	0.041073084
108	0xbd3759ec	-0.04476349
109	0x3d211583	0.039327156
110	0xbd3032ef	-0.043017324
111	0x3d0951b7	0.033525195
112	0x3d570a7a	0.052500226
113	0x3d2e3b64	0.042537108
114	0xbd34609f	-0.044037458
115	0x3d02b644	0.031912103
116	0x3c9d90bc	0.019234054
117	0x3d0de00d	0.0346375
118	0xbd1bac33	-0.03800602
119	0x3c704744	0.014665429
120	0xba42d671	-0.0007432467
121	0xbd716cc3	-0.058941614
122	0x3cdf3669	0.027247624
123	0xbcd36e58	-0.025809452
124	0xbd76a543	-0.0602162
125	0x3cd19fec	0.025588952
126	0xbd41f83e	-0.047355883
127	0x3ceeecc2	0.02916563
128	0xbdc1ec81	-0.09468938
129	0x3cc7fda2	0.024412934
130	0x3d0681e8	0.032838732
131	0xbca9160c	-0.020640396
132	0xbd2098d5	-0.039208252
133	0x3c6439bc	0.013929781
134	0xbd3a81c7	-0.04553392
135	0x3d534eb5	0.051588733
136	0xbd7f2a7a	-0.06229637
137	0xbb6965e0	-0.00356137
138	0xbd4321f6	-0.04763981
139	0xbc493068	-0.012279607
140	0x3aab76bf	0.0013081654
141	0xbc3dd2d6	-0.011585912
142	0xbca389ac	-0.019963108
143	0xbd38f9d4	-0.04516013
144	0x3d3967eb	0.04526512
145	0xbd4e3f8c	-0.05035357
146	0xbab1ca22	-0.0013564269
147	0xbc875bed	-0.016523326
148	0xbc0b846d	-0.0085154595
149	0xbba7539b	-0.005106402
150	0xbbdc2463	-0.006718205
151	0x3c9a11a5	0.018807242
152	0xbd1d80f1	-0.038453046
153	0xbd536a6d	-0.051615167
154	0x3d45e94b	0.04831819
155	0xbb91135d	-0.004427357
156	0x3c0a215f	0.008430808
157	0x3d0ba5ac	0.034093544
158	0x3d539650	0.05165702
159	0xbd6a000c	-0.05712895
160	0x3d13418a	0.035951175
161	0xbd76c0a2	-0.060242303
162	0xbd356746	-0.044287942
163	0x3cabeffb	0.020988455
164	0xbbb61ffc	-0.005558012
165	0x3d336fe6	0.043807887
166	0xbd4441ec	-0.04791443
167	0x3d112640	0.03543687
168	0xbd0d704c	-0.034530923
169	0x3c8b3abe	0.016995784
170	0x3d4018d7	0.04689869
171	0xbd6db914	-0.058037832
172	0x3c9037f5	0.017604807
173	0x3d3a667d	0.045507897
174	0xbcba948c	-0.02277591
175	0xbc27b3fe	-0.010235785
176	0xbd845857	-0.06462162
177	0x3ccd4008	0.025054947
178	0xbd5bd856	-0.05367311
179	0x3d6182f9	0.055056546
180	0xbccf5855	-0.025310675
181	0x3be4f767	0.0069875005
182	0x3d3545ea	0.04425613
183	0xbc71ad03	-0.014750722
184	0x3a273ed2	0.00063799054
185	0xbd05bf45	-0.032653112
186	0x3bbecc50	0.005822696
187	0xbc2a3209	-0.010387906
188	0xbd4a0ecf	-0.04933053
189	0xbc27223c	-0.010201033
190	0xbd7a91fd	-0.06117438
191	0x3d5f0152	0.05444462
192	0xbcb903f0	-0.022584885
193	0x3c33a3e0	0.010964364
194	0x3c14f3c9	0.009091326
195	0xbc8710c8	-0.016487494
196	0x3d178e01	0.03700066
197	0xbd23c8a8	-0.039986283
198	0x3c0c36aa	0.008557955
199	0xbd0e7110	-0.034775794
200	0xbd0b02ee	-0.03393834
201	0xbcb56dc4	-0.022147067
202	0x3b58903d	0.0033044957
203	0x3d18a799	0.03726921
204	0xbd5b52b9	-0.053545687
205	0x3d0deca4	0.034649506
206	0x3bb08800	0.005387306
207	0xbcd99c3d	-0.026563758
208	0xbd1a4c1b	-0.037670236
209	0x3ca95404	0.020669945
210	0x3d5bd5cd	0.053670693
211	0xbd15f810	-0.036613524
212	0xbd7494c8	-0.0597122
213	0x3d4ca3d0	0.04996091
214	0xbcd58b20	-0.026067317
215	0xbcd6f340	-0.026239038
216	0xbd1179f2	-0.035516687
217	0xbd54b53c	-0.05193065
218	0x3d118f56	0.035537086
219	0xbd481dde	-0.04885661
220	0xbbf2c254	-0.0074084196
221	0xbd54a7f8	-0.051918
222	0x3b3e246c	0.0029013408
223	0x3ca0a5d2	0.01961032
224	0xbd5b0788	-0.05347398
225	0x3d02eb34	0.03196259
226	0xbd310ceb	-0.04322521
227	0x3cb456b4	0.022014
228	0x3d09d545	0.033650655
229	0xbd143d6f	-0.0361914
230	0xbc491940	-0.0122740865
231	0xbc01cde4	-0.007922623
232	0xbd088a28	-0.03333488
233	0xbca35561	-0.019938173
234	0x3bf43b3c	0.0074533504
235	0x3d1721be	0.036897413
236	0x3cedba76	0.029019576
237	0xbd87b1cc	-0.06625709
238	0xbd0cb4b5	-0.034352023
239	0xbbeb5c4f	-0.007182635
240	0x3d2f0bba	0.042735793
241	0x3c8c4428	0.017122343
242	0x3c0a68b7	0.0084478175
243	0x3be85b2f	0.007090948
244	0xbd171faf	-0.03689545
245	0x3ac6c7a6	0.0015165701
246	0xbd2e9d8d	-0.04263072
247	0xbd1ede77	-0.038786378
248	0x3c7b03b9	0.015320712
249	0x3c7ae893	0.015314239
250	0x3c9e3b41	0.019315364
251	0x3d5ff9ff	0.054681774
252	0x3d1d9704	0.038474098
253	0x3cbfbf53	0.02340666
254	0xbb17eea9	-0.0023183024
255	0x3bec1a42	0.0072052786

linear2.bias f4 [256]
0	0xbd6ee605	-0.058324832
1	0x3c804cf5	0.015661696
2	0xbc099fcc	-0.008399915
3	0xbc81a0fb	-0.015823832
4	0xbd70dfc6	-0.058807157
5	0x3cd84950	0.026402146
6	0x3d210ec3	0.03932072
7	0xbc98f085	-0.018669376
8	0x3ccf8c1a	0.02533536
9	0x3d109c7c	0.035305485
10	0x3c99b44d	0.018762732
11	0xbd17d816	-0.03707131
12	0xbcf41f3d	-0.029800052
13	0x3c87cd74	0.01657746
14	0xbcbdd87f	-0.023174522
15	0xbcdd9435	-0.02704821
16	0x3dddd612	0.10831846
17	0xbda61d6b	-0.0811108
18	0x3d5792c5	0.052630205
19	0xbcdc1db0	-0.026869625
20	0xbcff95bb	-0.031199327
21	0x3d9155ea	0.07096465
22	0xbd38e400	-0.045139313
23	0xbca6925f	-0.020333467
24	0x3b507849	0.0031809977
25	0xbd97c1f0	-0.074100375
26	0x3d6fbf54	0.058532074
27	0x3c5a2411	0.013314263
28	0x3d35700c	0.04429631
29	0xbd80505b	-0.062653266
30	0x3d667c94	0.05627115
31	0xbd1a088b	-0.037605803
32	0xbd399129	-0.04530445
33	0x3d879b13	0.06621375
34	0x3dd55c5f	0.10418009
35	0x3cdd6798	0.027026936
36	0xbb69809b	-0.0035629633
37	0xbd7d7644	-0.061880365
38	0x3d9a4e04	0.075344115
39	0x3dc645eb	0.096813045
40	0x3b00f624	0.0019677961
41	0x3db6222b	0.08893236
42	0xbd73f493	-0.059559416
43	0x3c5e81d0	0.013580754
44	0x3c8a1d32	0.016859625
45	0x3d623086	0.055222057
46	0x3dfcb73d	0.123396374
47	0xbd7bf202	-0.061510094
48	0xbd593326	-0.053027295
49	0x3e000287	0.12500964
50	0x3d62b64e	0.05534964
51	0x3dd750b1	0.105134375
52	0xbd99381f	-0.074814074
53	0x3c4f2fc3	0.012645665
54	0xbbce98a4	-0.0063048173
55	0x3d5204d4	0.051274136
56	0x3d9c577a	0.07633872
57	0xbd63dd05	-0.055630703
58	0x3d58cf7e	0.052932255
59	0x3cb42dfc	0.021994583
60	0xbd8607f3	-0.06544485
61	0x3c2ec759	0.010667645
62	0x3bbf9cd8	0.0058475547
63	0xbda41138	-0.08011097
64	0x3cd0bd6e	0.025480952
65	0x3d16aa60	0.036783576
66	0x3de88f39	0.113554426
67	0xbd475eb8	-0.048674315
68	0xbcf749c2	-0.030186538
69	0x3c3dbef0	0.011581168
70	0x3d07575f	0.033042308
71	0x3de089e9	0.10963804
72	0x3dc6c944	0.09706357
73	0xbc8c4ca2	-0.017126385
74	0x3bc789ad	0.0060894103
75	0x3d16b0e1	0.03678978
76	0xbae7a7c0	-0.0017673895
77	0xbc9093ff	-0.017648695
78	0x3d06dbc4	0.03292443
79	0x3d68f6aa	0.056875862
80	0xbcc8db45	-0.024518618
81	0xbd895b90	-0.06706917
82	0x3dd91bfa	0.10601039
83	0x3a68966e	0.00088725134
84	0x3c7bda41	0.01537186
85	0xbda6441f	-0.08118462
86	0xbdb6c8b2	-0.08924998
87	0xbc1b52dc	-0.009480204
88	0x3d349a86	0.044092678
89	0xbb980484	-0.00463921
90	0xbd832d58	-0.06405133
91	0xbd0fa0f7	-0.035065617
92	0x3d8050d5	0.062654175
93	0xbdad6702	-0.08466913
94	0x3a3cf409	0.0007207995
95	0xbd72984b	-0.05922727
96	0x3bf2e7c6	0.0074128835
97	0xbdd03fd7	-0.101684265
98	0x3caae9c0	0.020863414
99	0xbcbf0e91	-0.023322375
100	0xbc8975d0	-0.01677981
101	0xbd54c9de	-0.051950328
102	0xbd847cec	-0.064691395
103	0xbcd74ed4	-0.026282705
104	0xbbe4f7f4	-0.006987566
105	0x3cc13da3	0.023588961
106	0xbd459f34	-0.04824753
107	0xbd31db32	-0.04342193
108	0xbd82df5f	-0.06390261
109	0xbd6b4f7a	-0.05744884
110	0x3d5832bf	0.05278277
111	0xbd1709ff	-0.036874767
112	0xbc04898c	-0.008089434
113	0x3c4fa56d	0.012673718
114	0x3d8102e7	0.06299382
115	0xbdb2342d	-0.08701358
116	0x3d4757d7	0.048667755
117	0x3d567c1d	0.052364457
118	0x3c01bc67	0.007918454
119	0x3b4938f6	0.0030704117
120	0x3bdc2127	0.0067178193
121	0xbc2127d5	-0.009836157
122	0xbdfcede2	-0.1235006
123	0x3c049d67	0.008094168
124	0xbdad1233	-0.08450737
125	0x3d116ea8	0.03550592
126	0x3c9c1264	0.019051738
127	0x3d4898fe	0.04897403
128	0xbd77fb07	-0.060542133
129	0xbd688f35	-0.056777198
130	0xbc1f3123	-0.009716305
131	0xbd3dd365	-0.04634418
132	0xbcec2aa1	-0.02882892
133	0xbd793e89	-0.060850654
134	0xbce1b3eb	-0.027551612
135	0x3db11262	0.08646084
136	0x39503e64	0.00019859668
137	0xbd05d419	-0.032672975
138	0x3d1e94e4	0.038716212
139	0xbc7af9e5	-0.015318369
140	0x3d88407e	0.06652926
141	0xbdab1d3c	-0.083551854
142	0xbdba8f36	-0.091093466
143	0x3df6762a	0.12034257
144	0x3d616de3	0.055036437
145	0x3d7c55f3	0.061605405
146	0xbc1c6684	-0.009545926
147	0xbc3cf7e5	-0.011533712
148	0xbd271bb9	-0.040797923
149	0xbd22a028	-0.03970352
150	0x3df27e19	0.118404575
151	0xbc56b5e8	-0.013104893
152	0x3deba811	0.115066655
153	0x3c3a4f3a	0.011371428
154	0x3d3e3c67	0.046444323
155	0xbd8c4d1f	-0.06850647
156	0xbd5aa1fa	-0.05337713
157	0x3d8db388	0.069190085
158	0x3c85d94c	0.016338967
159	0x3d947512	0.07248892
160	0xbd228ab7	-0.03968307
161	0xbd8e1be3	-0.06938913
162	0x3d34e09e	0.044159524
163	0xbbfc6e6c	-0.007703593
164	0x3d6b0f1a	0.05738745
165	0x3d52da4a	0.051477708
166	0x3cd0934e	0.025460865
167	0x3d097446	0.033558153
168	0xbd444862	-0.047920592
169	0xbdb339c4	-0.08751252
170	0x3dc54403	0.09632113
171	0x3d87590d	0.06608782
172	0x3d365afd	0.044520367
173	0x3bbb61e9	0.005718459
174	0x3d6c8c85	0.057751197
175	0xbb0c50db	-0.0021410498
176	0xbbd78b2d	-0.0065778703
177	0xbc3dfa93	-0.011595386
178	0x3c38d614	0.011281509
179	0x3ddd0ce6	0.10793476
180	0xbd9f8d72	-0.077906504
181	0x3b93bd65	0.0045086616
182	0x3d82cd04	0.0638676
183	0xbbeeb9a0	-0.007285312
184	0x3d5ff30c	0.054675147
185	0x3e016281	0.12635233
186	0x3da6507c	0.0812082
187	0xbce9d67d	-0.028544659
188	0x3d51075b	0.051032405
189	0x3d1eae61	0.03874052
190	0xbd87ca85	-0.066304244
191	0x3d1ca168	0.038239866
192	0xbd2cbae6	-0.042170428
193	0x3ba937fa	0.0051641436
194	0xbdab1a9f	-0.08354687
195	0x3e0d2b09	0.13785948
196	0xbce829dd	-0.028340274
197	0xbd681668	-0.056661993
198	0xbd48aafb	-0.048991185
199	0xbd3238b2	-0.0435111
200	0xbc94ceaa	-0.018164951
201	0xbd4a413a	-0.04937861
202	0x3cbd5668	0.02311249
203	0xbcb27497	-0.02178411
204	0x3cdf5c2b	0.027265629
205	0xbd4264dd	-0.047459472
206	0xbcdba61b	-0.026812604
207	0xbdbd3db6	-0.09240286
208	0x3b525015	0.003209119
209	0xbd280e68	-0.041029364
210	0x3d9a8eb5	0.075467505
211	0x3d8053fd	0.062660195
212	0xbd0b6da6	-0.034040116
213	0x3ca5a6c9	0.02022113
214	0x3de5ddff	0.11223983
215	0x3dd1b466	0.102394864
216	0xbd88b5f4	-0.0667533
217	0x3d66b61d	0.05632602
218	0xbd23668b	-0.039892714
219	0x3df27fb3	0.11840763
220	0x3def56ab	0.116864525
221	0x3d17226d	0.036898065
222	0x3c33e239	0.010979229
223	0xbcc2b57f	-0.023768185
224	0xbc337eb8	-0.010955505
225	0x3d86c330	0.06580198
226	0xbd395b37	-0.045253005
227	0x3d49738f	0.04918247
228	0xbd37d31d	-0.044879068
229	0x3c850bef	0.016241042
230	0x3dbe327f	0.09286975
231	0x3d2b8790	0.04187733
232	0xbd6d2a21	-0.057901505
233	0x3d9caa11	0.07649625
234	0xbd7395ec	-0.05946915
235	0x3e05204c	0.13000602
236	0x3d547af5	0.051875073
237	0x3df3dac4	0.119069606
238	0xbd91f579	-0.07126898
239	0xbd34a37b	-0.04410122
240	0x3d0f2b8e	0.034953646
241	0x3d1837ea	0.0371627
242	0x3df84ee4	0.12124422
243	0xbd222611	-0.039587084
244	0x3d8315b4	0.06400624
245	0x3cc69818	0.024242446
246	0x3d84db0b	0.06487092
247	0x3d9c9545	0.076456584
248	0x3d33b5e3	0.043874633
249	0x3d2afc92	0.041744776
250	0x3d18e851	0.03733093
251	0x3c9b5081	0.018959286
252	0xbcb75d07	-0.022383226
253	0x3c960a3d	0.018315429
254	0x3c919d4f	0.017775206
255	0x3cd4313f	0.025902389

linear3.weight f4 [3, 256]
0	0xbcaf495a	-0.021397281
1	0xbd8090a0	-0.06277585
2	0x3dfae419	0.122505374
3	0xbe0cb796	-0.13741907
4	0x3d863315	0.06552712
5	0xbd41b2b6	-0.047289573
6	0xbe874b3a	-0.2642458
7	0x3d1709e5	0.03687467
8	0xbe26140d	-0.16218586
9	0x3d5a7d8a	0.05334238
10	0xbe2b199c	-0.16708988
11	0xbd04be7d	-0.032408226
12	0xbea7d0ef	-0.3277659
13	0xbeb73fed	-0.3579096
14	0x3e6944e7	0.2278019
15	0xbe871a47	-0.26387236
16	0x3e22b3c8	0.15888894
17	0xbbc38b29	-0.005967517
18	0x3e200d65	0.1563011
19	0xbdc225ea	-0.09479888
20	0xbbdbd914	-0.0067092273
21	0xbd8b014a	-0.06787355
22	0x3cf25f02	0.029586319
23	0xbcbe7173	-0.023247456
24	0xbf058376	-0.5215372
25	0xbd32e7ef	-0.04367822
26	0xbceded4c	-0.029043816
27	0x3dcc92be	0.09988926
28	0x3e31db4c	0.17368811
29	0x3d9a493b	0.07533499
30	0x3e14f607	0.14546977
31	0xbe911a23	-0.28340253
32	0xbe8b03d8	-0.2715137
33	0xbe014a41	-0.12625982
34	0xbdfc0ea7	-0.12307482
35	0x3e0542be	0.13013741
36	0x3da5515b	0.08072158
37	0xbc7f81cb	-0.01559491
38	0x3a4d8b58	0.0007840893
39	0x3d870d71	0.065943606
40	0x3dce02aa	0.10059102
41	0xbce81bd5	-0.028333584
42	0xbeb67e9b	-0.35643467
43	0x3c71ced0	0.014758781
44	0xbd4373ad	-0.04771774
45	0x3de9f266	0.11423187
46	0x3e2f6391	0.17127825
47	0xbe099962	-0.13437417
48	0xbe70d12d	-0.23517294
49	0x3da11508	0.078653395
50	0x3dc05831	0.09391821
51	0xbd6fc0fa	-0.058533646
52	0xbddf6401	-0.10907746
53	0xbe3094ca	-0.17244259
54	0xbe7b9ab0	-0.24570727
55	0x3d9e8ee0	0.07742095
56	0x3d26172e	0.04054945
57	0xbd803b54	-0.06261316
58	0xbe3f980b	-0.18710344
59	0x3d6def9f	0.05808985
60	0xbe4ad9c6	-0.19809636
61	0xbe7792f8	-0.24177158
62	0xbdd7e3bb	-0.10541483
63	0xbc5a5a6f	-0.013327225
64	0x3dcba7a9	0.09944088
65	0x3c7ecca0	0.015551716
66	0x3e02dfff	0.1278076
67	0xbcd88e63	-0.026435083
68	0xbcb41a24	-0.021985121
69	0xbdf38a57	-0.118916206
70	0x3f0b5084	0.5441973
71	0x3de65099	0.112458415
72	0xbe8d502c	-0.2760023
73	0xbe5e67b1	-0.21719243
74	0x3d9f44f8	0.077768266
75	0x3e50da3f	0.20395754
76	0x3d5cea56	0.053934418
77	0x3d962e72	0.073330775
78	0xbd859ed7	-0.06524437
79	0x3d380677	0.04492804
80	0xbeaf2846	-0.34210414
81	0xbe2cbace	-0.16868135
82	0xbdcac809	-0.09901435
83	0x3ab65c37	0.001391298
84	0xbe8b9177	-0.27259418
85	0xbe55ef09	-0.20891966
86	0xbe83ae13	-0.25718746
87	0x3c687604	0.014188293
88	0x3ef598f7	0.47968265
89	0x3e7786cf	0.24172519
90	0xbe585a1d	-0.21128125
91	0x3ad23cbb	0.0016039828
92	0x3cb0abe6	0.021566343
93	0xbe9eb438	-0.3099687
94	0xbd6f49a2	-0.05841983
95	0xbecb7cfe	-0.397438
96	0xbcb7e74f	-0.022449164
97	0x3dfff276	0.12497418
98	0x3cec5726	0.02885015
99	0xbcfbdacf	-0.030743985
100	0x3cb6c8ad	0.022312487
101	0xbe9f5308	-0.31118035
102	0x3de3dea4	0.1112645
103	0x3c578499	0.013154172
104	0x3d992fb7	0.07479804
105	0x3e20cb4a	0.15702549
106	0x3d9ca86d	0.07649312
107	0xbbb50107	-0.005523804
108	0x3d43452a	0.047673382
109	0xbdc290bb	-0.095002614
110	0x3d3b6f34	0.04576035
111	0xbec4a739	-0.3840883
112	0xbddadd9a	-0.106867984
113	0xbc72e84e	-0.014825894
114	0x3d09b8a2	0.033623345
115	0x3d649797	0.05580863
116	0xbdf18006	-0.11791997
117	0x3eb26caf	0.34848544
118	0x3dddfa9b	0.10838815
119	0x3e1b1a04	0.15146643
120	0xbd8a8cd3	-0.06765141
121	0xbda63fb6	-0.08117621
122	0x3e6c6687	0.23085986
123	0xbdb629a8	-0.08894664
124	0xbe4435b4	-0.19161111
125	0xbe0c30bd	-0.13690467
126	0x3e185856	0.14877447
127	0xbdff74ed	-0.12473474
128	0x3caf8799	0.021426963
129	0xbe5e39e4	-0.21701771
130	0x3d8bd1c3	0.06827118
131	0xbc4c9a61	-0.012487979
132	0x3a3d3cb8	0.00072188256
133	0xbe8bbfe2	-0.27294832
134	0xbe8712e0	-0.26381588
135	0xbd9daf1d	-0.07699416
136	0x3e69a0aa	0.22815195
137	0x3e481ec5	0.19542988
138	0x3d9669f5	0.073444284
139	0x3d85ce6b	0.06533512
140	0xbe910b41	-0.283289
141	0xbd671c50	-0.056423485
142	0xbe220ebe	-0.15825936
143	0x3e079bc4	0.13243014
144	0xbe433930	-0.19064784
145	0xbdb8eb6b	-0.090292774
146	0x3d70e312	0.0588103
147	0xbea61b0a	-0.32442504
148	0xbee7c230	-0.4526534
149	0xbea183df	-0.31545922
150	0x3de234fb	0.110452615
151	0xbebc3611	-0.3676
152	0x3e345872	0.17611864
153	0x3de99091	0.11404527
154	0x3e3bc580	0.18337059
155	0xbd7568d6	-0.059914432
156	0xbc112bc1	-0.008860529
157	0xbdc2e6f0	-0.09516704
158	0x3c0794e4	0.008275244
159	0x3e80e5e9	0.25175408
160	0xbe9a0d4b	-0.30088267
161	0x3e16f065	0.1474014
162	0xbce12a6d	-0.02748605
163	0xbe9a8201	-0.3017731
164	0xbde421ec	-0.111392826
165	0xbe0dc6ee	-0.13845417
166	0x3e4b21ae	0.19837067
167	0x3ea30f75	0.3184773
168	0x3d6eab3a	0.058268763
169	0xbd1d8c5d	-0.03846394
170	0xbe63390e	-0.22189733
171	0xbdc6fe69	-0.09716494
172	0x3d60468a	0.05475477
173	0x3d4152e6	0.0471982
174	0xbeb2f8fa	-0.3495558
175	0x3c94723e	0.018120881
176	0xbe554f3f	-0.20831011
177	0xbea2cfb8	-0.31799102
178	0x3c95b535	0.018274883
179	0x3e0cafbd	0.13738914
180	0xbd1b6354	-0.037936524
181	0xbe82c7b1	-0.25542977
182	0x3e33f036	0.17572102
183	0x3defcde3	0.11709192
184	0x3dae71b6	0.085177824
185	0x3e854d78	0.26035666
186	0x3ddb0f39	0.10696263
187	0x3dca6e30	0.09884298
188	0x3e3ab309	0.18232359
189	0x3e8c381c	0.27386558
190	0x3bad4470	0.0052876994
191	0x3bf13fa7	0.0073623243
192	0x3cff3ff4	0.031158425
193	0xbde586cd	-0.11207352
194	0xbd38bc56	-0.045101486
195	0x3c9453a0	0.018106282
196	0xbee599f9	-0.44844034
197	0xbe93cb36	-0.28865975
198	0x3c0949c6	0.008379405
199	0xbdbb813a	-0.091555074
200	0x3d599715	0.0531226
201	0xbd0548a6	-0.032539986
202	0x3d5d2a1a	0.05399523
203	0xbe3c33e6	-0.18379173
204	0x3ce68438	0.028139219
205	0xbdc38b60	-0.09548068
206	0xbe810d63	-0.25205526
207	0xbe74dbf0	-0.23912024
208	0x3dcda6b3	0.10041561
209	0x3e35b0ce	0.17743227
210	0xbe98d945	-0.29853263
211	0xbc382c95	-0.011241098
212	0x3e19f2b6	0.15033993
213	0x3d4bdf20	0.049773335
214	0x3e1dd175	0.15411933
215	0x3d846929	0.0646537
216	0xbe2908b1	-0.16507222
217	0x3e1614ab	0.14656322
218	0x3e00910e	0.12555334
219	0x3ca1a226	0.019730639
220	0xbc93dd85	-0.018049965
221	0x3d14522e	0.036211185
222	0xbe363882	-0.17794994
223	0x3b5b37fc	0.0033450117
224	0x3de010dc	0.10940716
225	0x3e0eaba3	0.13932662
226	0xbeb8c69a	-0.3608902
227	0x3cc0d383	0.023538357
228	0xbe521be4	-0.20518452
229	0x3dedab6d	0.116049625
230	0x3e82a056	0.25512952
231	0x3bb19e3b	0.005420474
232	0xbda37099	-0.07980461
233	0x3dfb9d70	0.12285888
234	0xbd7bd036	-0.061477862
235	0xbda8eb40	-0.082479954
236	0x3cd851a6	0.02640612
237	0x3dbb92f3	0.09158888
238	0xbb5f2d08	-0.003405394
239	0x3e218d4e	0.1577656
240	0xbe6f9a34	-0.23398668
241	0x3df2f16c	0.11862454
242	0x3d9a38cf	0.07530367
243	0xbe515353	-0.20441942
244	0x3cb5adec	0.022177659
245	0x3d0b9aac	0.034083053
246	0x3e149e13	0.14513426
247	0xbddbec98	-0.10738486
248	0xbcf135fb	-0.029444685
249	0xbd3e40b9	-0.046448443
250	0x3e21b441	0.15791418
251	0x3a53d1e9	0.000808029
252	0x3c75762d	0.014981789
253	0x3df767cd	0.12080345
254	0xbd9c7632	-0.076397315
255	0xbe01dd82	-0.12682155

linear3.bias f4 [3]
0	0x3ca0446f	0.019563882
1	0xbd7f3215	-0.06230362
2	0x3dcfbb6d	0.101431705
