version_4_points_without_rotation/DDPG_GPU_MPI/w32_m_t005/critic.pth (torch, 302935 bytes, 6 tensors)

linear1.weight f4 [256, 33]
-0.12822637 -0.4363493 -0.03893298 0.0038280524 0.029494714 -0.014180175 -0.10269857 0.06372386
-0.05739778 0.010177756 -0.12968343 0.086200595 -0.20768212 -0.18899897 0.119777404 -0.06875574
0.09796239 0.033421554 0.14881696 0.16290204 -0.0073961616 0.058802273 0.273014 0.08506153
0.07323253 -0.21921499 0.1511887 0.025247531 -0.20179676 0.059751146 0.0065736156 0.16404493
-0.07497762 0.17441843 0.6469377 -0.11488831 0.0014928002 0.002218412 -0.0006039049 0.24936529
0.47728315 0.039449684 0.06273228 0.14241019 -0.035131782 0.22345862 0.31561187 0.10267471
0.28100067 0.5812937 0.029906977 -0.017380867 -0.377797 -0.11135604 -0.1886608 -0.43371278
-0.15861204 -0.030474262 -0.49145326 -0.25468096 0.091386445 -0.371208 -0.16952543 0.011446383
0.038453717 0.0149543425 0.14785889 0.1789945 0.082657 0.0009672779 -0.0014830118 -0.0032651736
-0.1481884 -0.28561798 0.08025279 -0.02223172 -0.2585429 0.17152564 -0.17946717 0.20965447
-0.005347762 -0.18701029 0.06279072 0.0277236 0.09589259 -0.15680614 0.057297163 -0.059643835
-0.24904867 0.08970175 -0.02132155 -0.020496469 0.0075060218 0.08481969 -0.21054018 -0.07264967
0.0011584124 0.0029079071 -0.07154479 0.22629474 0.028960973 -0.0086554075 -0.0017893277 0.0019335793
-4.5929588e-05 0.15074992 0.3660118 -0.015661908 -0.07905839 0.55529517 0.12300942 -0.2454064
0.32066435 -0.13691594 0.026734032 -0.1491595 -0.044755694 0.13480386 -2.5565484 0.13867612
-0.11280041 -1.2301326 -0.035452202 -0.018920312 -0.28628847 -0.03502051 -0.0041421135 0.121289946
-0.0027562382 -0.0035055135 0.021437041 -0.0014382653 0.053872142 -0.0075505776 0.27190933 -0.0026375812
-0.001941342 0.00031578954 0.14685692 -0.06813307 0.13256712 0.008895924 0.113220304 0.070136964
0.16561922 0.11795695 0.005176668 -0.07945598 0.078411095 0.19686161 -0.12032718 0.08702435
-0.09744838 -0.18104444 0.0172439 -0.01204701 -0.030059312 -0.25093156 -0.20802768 -0.22626665
-0.28770685 -0.1750088 -0.013632102 -0.016965697 -0.00950414 0.23241293 0.18349156 0.02231418
0.010367922 -0.019954858 -0.0125015415 0.053778227 0.017459158 -0.13576868 -0.057216294 0.25264242
-0.016238522 0.10974054 0.10268648 0.052941695 0.14448424 0.010548219 0.16673985 0.09866714
-0.11401745 -0.1332982 0.13714448 -0.04649253 -0.110773325 0.0186261 -0.063311 0.0415128
-0.2556574 0.06726528 -0.13110547 -0.011968068 0.09258686 0.057283998 0.113532305 0.6212372
0.16881903 -0.0035795758 -0.0014501894 0.00068906776 0.091473386 0.060030255 -0.06765921 0.01319856
0.028619021 0.15439616 -0.08752925 -0.24765544 0.1537721 -0.062346153 -0.0901313 0.21537551
-0.19497584 -0.3048396 -0.077216856 0.0066918004 -0.039167248 0.11984405 -0.18507594 -0.15929624
-0.052778013 -0.2573827 -0.25283796 -0.14950325 -0.007679867 -0.040391047 0.009006035 -0.33129895
-0.0974256 0.024470823 -0.0059752255 -0.0064092474 0.0005774722 -0.17967947 -0.28983247 0.14340542
-0.006546296 -0.17014897 -0.02932658 0.19880451 0.29067197 -0.055400502 -0.11106579 0.4670522
0.01008757 -0.09603169 -0.25658885 0.18030803 -0.18069088 -0.1510473 0.20462714 0.15128715
00000000: c64d 03be 2d69 dfbe 3078 1fbd 10e0 7a3b
00000010: e69e f13c f753 68bc a153 d2bd a881 823d
00000020: ef19 6bbd 9ac0 263c bccb 04be f089 b03d
00000030: 9faa 54be f288 41be db4d f53d cfcf 8cbd
00000040: 81a0 c83d 0ae5 083d 7963 183e cbcf 263e
00000050: 805b f2bb a7da 703d 7ec8 8b3e bd34 ae3d
00000060: f0fa 953d e579 60be 36d1 1a3e e9d3 ce3c
00000070: cfa3 4ebe 9ebd 743d 7c67 d73b 65fb 273e
00000080: de8d 99bd bf9a 323e b69d 253f 904a ebbd
00000090: 10aa c33a c762 113b 5f4f 1eba 9d59 7f3e
000000a0: 755e f43e fe95 213d c879 803d fad3 113e
000000b0: 58e6 0fbd 56d2 643e e197 a13e 1e47 d23d
000000c0: 52df 8f3e aacf 143f 7aff f43c 5262 8ebc
000000d0: 9c6e c1be a30e e4bd 4c30 41be 9a0f debe
000000e0: 326b 22be 29a5 f9bc c39f fbbe 8b65 82be
000000f0: d128 bb3d fa0e bebe 1398 2dbe 9c89 3b3c
00000100: a581 1d3d 0f03 753c 5268 173e 564a 373e
00000110: 1348 a93d ec90 7d3a 9e61 c2ba 86fc 55bb
00000120: b3be 17be 853c 92be 935b a43d 4c1f b6bc
00000130: bc5f 84be 6ba4 2f3e 3ec6 37be a9af 563e
00000140: 473c afbb a07f 3fbe 6c98 803d 9a1c e33c
00000150: 5663 c43d ca91 20be 6eb0 6a3d 184d 74bd
00000160: 9d06 7fbe 8db5 b73d 88aa aebc 36e8 a7bc
00000170: 13f5 f53b f2b5 ad3d d897 57be 5ac9 94bd
00000180: dfd5 973a 9692 3e3b 1386 92bd cfb9 673e
00000190: 903f ed3c 69cf 0dbc e087 eaba 2870 fd3a
000001a0: 85a4 40b8 305e 1a3e e665 bb3e 674d 80bc
000001b0: 5de9 a1bd d327 0e3f 5dec fb3d d14b 7bbe
000001c0: 1e2e a43e b133 0cbe 5401 db3c 45bd 18be
000001d0: bf51 37bd 060a 0a3e 7d9e 23c0 1d01 0e3e
000001e0: e703 e7bd fc74 9dbf 5436 11bd c5fe 9abc
000001f0: 6794 92be ab71 0fbd 91ba 87bb dd66 f83d
00000200: 01a2 34bb c2bc 65bb bc9c af3c 2d84 bcba
00000210: 09a9 5c3d d66a f7bb b337 8b3e 45db 2cbb
00000220: a174 feba 8e90 a539 a961 163e 5a89 8bbd
00000230: adbf 073e 36c0 113c 0ce0 e73d f8a3 8f3d
00000240: 1698 293e 6a93 f13d 0aa1 a93b d1b9 a2bd
00000250: ff95 a03d 1796 493e 196e f6bd d339 b23d
00000260: 0493 c7bd b763 39be 1443 8d3c d260 45bc
00000270: f23e f6bc 1a7a 80be 3505 55be 72b2 67be
00000280: 504e 93be 8235 33be 2e59 5fbc a5fb 8abc
00000290: 41b7 1bbc a8fd 6d3e 36e5 3b3e 3acc b63c
000002a0: 37de 293c 5f78 a3bc 44d3 4cbc 8f46 5c3d
000002b0: 8206 8f3c f206 0bbe a25b 6abd 595a 813e
000002c0: a606 85bc a6bf e03d 4a4d d23d 64d9 583d
000002d0: adf3 133e 70d2 2c3c dabd 2a3e ff11 ca3d
000002e0: fb81 e9bd 537f 08be 9a6f 0c3e f36e 3ebd
000002f0: 20dd e2bd c395 983c 33a9 81bd 5309 2a3d
00000300: 87e5 82be 61c2 893d 8340 06be b715 44bc
00000310: 2e9e bd3d a0a2 6a3d a083 e83d 6709 1f3f
00000320: e5de 2c3e 5197 6abb 4814 beba 8ea2 343a
00000330: 6656 bb3d 49e2 753d e990 8abd c63e 583c
00000340: 7072 ea3c 071a 1e3e 8942 b3bd 6399 7dbe
00000350: 6f76 1d3e ae5e 7fbd c296 b8bd 668b 5c3e
00000360: bfa7 47be f013 9cbe df23 9ebd e446 db3b
00000370: d66d 20bd cc70 f53d 8c84 3dbe 8e1e 23be
00000380: c22d 58bd aac7 83be fa73 81be 6117 19be
00000390: 65a7 fbbb 1571 25bd 0c8e 133c 04a0 a9be
000003a0: 1387 c7bd 0977 c83c d3cb c3bb aa04 d2bb
000003b0: 8161 173a e5fd 37be ec64 94be dfd8 123e
000003c0: 5082 d6bb 883b 2ebe 4c3e f0bc 6993 4b3e
000003d0: f5d2 943e a3eb 62bd 7676 e3bd 7721 ef3e
000003e0: 5646 253c 43ac c4bd 9d5f 83be aba2 383e
000003f0: 0807 39be 25ac 1abe c789 513e 05eb 1a3e

linear1.bias f4 [256]
-0.06901833 -0.2706523 -0.038180172 0.2540637 -0.07945103 -0.08373622 0.14899133 0.17428784
0.066908635 0.1517573 -0.09428085 -0.16151674 0.27666554 0.039863184 -0.18552811 0.3566845
0.058246434 -0.20716701 -0.07085989 -0.046787437 0.0923245 -0.22590265 -0.24126709 0.19256568
-0.033010043 -0.07718796 -0.089786254 0.05850888 -0.16031186 -0.11379273 0.047883075 -0.28290957
0.17934449 0.002921051 0.32440415 -0.2222958 -0.015757432 -0.32324147 0.13686918 -0.0103898095
0.2353367 -0.00677714 -0.18678968 -0.17735283 -0.11203505 0.12145736 0.16217162 0.14097238
0.17014661 -0.03869988 0.24929173 0.023777982 0.12127423 0.2319624 0.20057979 -0.048009735
-0.14937897 -0.048618224 0.015151025 -0.27483046 0.08349925 -0.14739394 -0.15262339 0.18230152
-0.1643918 0.014559627 0.14064446 -0.11436519 -0.008082687 -0.22081716 -0.077007376 0.23570357
0.1216586 0.08620374 -0.19666974 -0.20958892 0.006507288 0.1253914 -0.16449499 -0.18819362
0.20631427 0.27708548 -0.097035065 0.0074432204 0.19122422 -0.09172339 -0.081284076 -0.3039921
0.29792026 -0.015150884 -0.09965348 -0.1503648 -0.03626217 0.0960282 -0.056035284 -0.23659557
0.19232218 0.11203913 -0.0034957177 0.010205916 -0.20941074 0.02846946 0.043146197 0.05010725
0.10784469 0.00042753704 -0.23806311 -0.022215795 0.12878038 0.25402623 0.07395089 0.12705697
0.013327624 -0.108794376 0.18749006 0.016761687 -0.19329612 0.09278719 -0.14114435 0.0014480216
0.09212417 -0.28772804 -0.06558317 -0.017396195 -0.098806396 -0.22823434 -0.14732094 -0.046016168
-0.02344235 0.15790549 -0.06598367 0.06887547 -0.045943677 0.011530125 0.24792783 -0.011343493
0.11108306 -0.17841348 -0.12836993 -0.13761416 -0.33189374 0.023642814 0.20824698 -0.04395436
0.04096074 -0.03082892 -0.013821889 -0.0011003735 -0.30619827 -0.059801284 -0.07975197 -0.0033803298
-0.12787935 0.036901936 0.205808 0.083414145 -0.16664727 0.018913899 0.020977823 -0.029939143
0.30764952 -0.15020105 0.09817633 -0.1405634 0.18047757 0.066621795 -0.08133371 -0.0023639598
0.16076484 0.19828482 -0.22826882 0.107544735 0.031217014 0.10328543 0.14090411 -0.17046197
-0.1143697 0.10741904 0.005053617 -0.15046167 -0.27202347 -0.018370464 0.30492276 0.3168358
-0.2963915 0.03301435 0.20698336 0.031034857 -0.059957065 0.13655932 0.31006134 0.17708094
-0.24200478 0.18387853 -0.13827603 0.05942199 -0.020073934 -0.087581456 0.16085522 -0.23056556
-0.058216233 -0.15436947 -0.26594707 0.10100529 -0.48326087 0.26058617 0.15597832 0.20368679
0.23437062 -0.11461602 0.42009678 0.10427506 0.11625886 0.09505614 0.04616142 0.042905368
-0.34495458 -0.27237418 -0.068206415 -0.19171657 0.11880484 -0.16864398 -0.13981661 0.09363166
0.22538106 0.27730206 -0.3644586 0.020157214 0.03462697 0.099744424 -0.010241756 -0.12831827
-0.20082855 0.07839598 -0.07452148 0.07816498 0.3474224 -0.005772347 -0.036158126 -0.22807442
-0.06636464 -0.015658863 0.1834505 -0.05449105 0.057129342 0.07476867 0.06720404 -0.16945668
-0.038579427 0.028962031 0.25362852 -0.24867521 0.103055604 0.20811556 -0.07143063 0.12813629
00000000: 7b59 8dbd f092 8abe d062 1cbd a314 823e
00000010: 39b7 a2bd e57d abbd 2f91 183e 8378 323e
00000020: 6507 893d 4466 1b3e 5116 c1bd a564 25be
00000030: 1ba7 8d3e 9447 233d 15fb 3dbe 5a9f b63e
00000040: d093 6e3d 9723 54be fd1e 91bd 2fa4 3fbd
00000050: a114 bd3d 0653 67be b80e 77be f02f 453e
00000060: 8a35 07bd b914 9ebd dbe1 b7bd 02a7 6f3d
00000070: cb28 24be 2a0c e9bd 0b21 443d 86d9 90be
00000080: 15a6 373e 1b6f 3f3b 4d18 a63e 83a1 63be
00000090: bb15 81bc e87f a5be 6f27 0c3e 053a 2abc
000000a0: 1bfc 703e c512 debb cb45 3fbe fb9b 35be
000000b0: a272 e5bd a3be f83d 5110 263e 105b 103e
000000c0: ea3a 2e3e c483 1ebd 5546 7f3e 0bca c23c
000000d0: a05e f83d 8d87 6d3e ca64 4d3e dba5 44bd
000000e0: cdf6 18be e723 47bd 013c 783c 94b6 8cbe
000000f0: a801 ab3d 70ee 16be 4e49 1cbe 40ad 3a3e
00000100: 5356 28be 808b 6e3c 1a05 103e 4c38 eabd
00000110: 3f6d 04bc e51d 62be 0bb6 9dbd 475c 713e
00000120: 2528 f93d 968b b03d cb63 49be 7a9e 56be
00000130: 173b d53b 9a66 003e 6071 28be d4b5 40be
00000140: 0c44 533e 26de 8d3e 52ba c6bd 42e6 f33b
00000150: 48d0 433e 79d9 bbbd 4478 a6bd daa4 9bbe
00000160: 0189 983e 6a3b 78bc 2017 ccbd 3bf9 19be
00000170: a487 14bd 6faa c43d 4185 65bd 1c46 72be
00000180: 1bf0 443e c574 e53d 6918 65bb b736 273c
00000190: c56f 56be c938 e93c 11ba 303d 433d 4d3d
000001a0: addd dc3d 0d27 e039 d1c6 73be e6fd b5bc
000001b0: 01df 033e ba0f 823e 9073 973d 391b 023e
000001c0: 1b5c 5a3c 96cf debd 65fd 3f3e ce4f 893c
000001d0: 6bef 45be 3607 be3d 2588 10be 8bcb bd3a
000001e0: 99ab bc3d 1751 93be 7850 86bd 7782 8ebc
000001f0: 025b cabd 43b6 69be 4ddb 16be 737b 3cbd
00000200: 2c0a c0bc fab1 213e 7222 87bd 950e 8d3d
00000210: 702f 3cbd d9e8 3c3c cbe0 7d3e 0fda 39bc
00000220: 847f e33d 06b2 36be 6873 03be baea 0cbe
00000230: faed a9be 93ae c13c b23e 553e 7d09 34bd
00000240: 73c6 273d ee8c fcbc 3475 62bc 683a 90ba
00000250: 05c6 9cbe 31f2 74bd 0055 a3bd 8688 5dbb
00000260: cef2 02be 7c26 173d 55bf 523e 09d5 aa3d
00000270: 95a5 2abe 52f1 9a3c afd9 ab3c ef42 f5bc
00000280: 3d84 9d3e 4ece 19be ac10 c93d daef 0fbe
00000290: 1dcf 383e 0271 883d 4a92 a6bd aaec 1abb
000002a0: 8a9f 243e 2d0b 4b3e 4dbf 69be 6a40 dc3d
000002b0: d3ba ff3c 5087 d33d 2b49 103e 958d 2ebe
000002c0: a93a eabd 83fe db3d d098 a53b a012 1abe
000002d0: a946 8bbe a87d 96bc d61e 9c3e 4d38 a23e
000002e0: a0c0 97be 0e3a 073d 72f3 533e d03c fe3c
000002f0: 8a95 75bd 35d6 0b3e 5cc0 9e3e b554 353e
00000300: 1ad0 77be a74a 3c3e 3b98 0dbe 7964 733d
00000310: 1772 a4bc e85d b3bd 3bb7 243e 6119 6cbe
00000320: 2574 6ebd 0813 1ebe 372a 88be dddb ce3d
00000330: f86d f7be 8d6b 853e c8b8 1f3e 4593 503e
00000340: dafe 6f3e cebb eabd ed16 d73e 2a8e d53d
00000350: 2019 ee3d cbac c23d c213 3d3d 8abd 2f3d
00000360: e39d b0be a174 8bbe ceaf 8bbd 5951 44be
00000370: f44f f33d 02b1 2cbe 162c 0fbe f5c1 bf3d
00000380: 4bca 663e 89fa 8d3e 519a babe be20 a53c
00000390: 02d5 0d3d ce46 cc3d 0acd 27bc dd65 03be
000003a0: 00a6 4dbe 128e a03d b89e 98bd f614 a03d
000003b0: 59e1 b13e f525 bdbb 8b1a 14bd 578c 69be
000003c0: 2fea 87bd 0447 80bc 73da 3b3e 0232 5fbd
000003d0: 7500 6a3d 5120 993d 46a2 893d 0d86 2dbe
000003e0: 7605 1ebd c841 ed3c 99db 813e b7a4 7ebe
000003f0: d10e d33d 3f1c 553e 394a 92bd 2936 033e

linear2.weight f4 [256, 256]
0.02215807 -0.0027395862 0.0017541316 0.016612476 0.040711343 0.07294219 0.01322602 0.01246655
0.05361939 0.03136145 0.04004349 0.034427878 0.063061446 -4.0898383e-05 -0.0068641463 0.027778745
-0.017216356 0.011528921 0.04438718 0.052509036 0.019199768 -0.067610316 0.017909436 0.07421296
-0.018911783 0.017950032 0.080879815 0.042165782 0.009077388 -0.01083665 -0.07614061 -0.020448506
0.04382878 0.050681185 -0.004465729 -0.08833558 -0.06838704 -0.018292394 0.040713064 0.010835588
-0.011537223 0.025416989 0.059224814 -0.017247533 -0.04452034 0.014643739 -0.044164494 0.014340865
-0.04327608 -0.025396574 0.026664736 -0.04171036 0.05234331 -0.043393906 -0.02037946 -0.022019003
0.05126816 0.034005392 -0.021742215 -0.055547982 0.049856927 -0.05182916 0.0404303 0.1407349
0.066929094 -0.004207012 -0.0038835343 -0.028123675 0.013584649 -0.051966816 0.00036014715 0.121595725
0.07759013 0.026989596 0.06721097 0.01539116 -0.027698534 0.08448068 -0.021857858 0.03541666
-0.01528206 0.0009991238 0.017846806 0.08545804 0.06120381 0.08735057 -0.016116137 -0.057059586
0.08438573 -0.0249498 0.017904377 -0.022147985 0.01721941 0.08241375 0.00079605606 -0.08877453
0.08196789 -0.03903343 -0.030023338 0.06599232 -0.06510357 0.14184886 -0.012204036 0.15656434
0.03845424 0.010148667 0.05100508 0.05637065 -0.03071426 0.11489349 0.023283252 -0.018035788
0.068936765 0.0032038111 0.09301932 0.0045198323 0.0222123 -0.06555143 0.083783194 -0.0067602573
0.014848473 -0.07453232 -0.0015141199 0.0403744 -0.009436439 -0.002890998 -0.031045971 0.07658826
0.08133754 0.04137666 0.46483967 0.055421434 0.018865187 0.031622656 0.044055086 -0.030624557
-0.048344266 0.026250975 -0.058517657 0.007167371 -0.027266286 -0.036273614 0.059154455 0.015736006
-0.0127827125 -0.023312239 -0.039899923 -0.045214564 -0.064756334 -0.022946464 -0.051101103 0.008124316
0.025356542 -0.009430557 0.017605286 0.04031999 0.015850585 0.063961804 0.013939181 0.0425464
-0.0138472095 0.043780394 -0.008908751 0.03366515 -0.0042700293 0.0016212044 -0.0051222392 0.002896009
0.021828126 0.08510226 0.08055646 0.009701845 0.014236331 0.048175797 0.054002397 -0.07508008
0.30361813 -0.01281538 0.1080877 0.078735106 -0.05425749 -0.03873574 0.0844882 0.056171183
0.011078958 -0.019337647 0.0778457 0.04531564 0.02860273 0.056225136 0.04291647 0.034669816
0.01926575 0.07557127 0.02783407 0.04775641 0.002882567 0.055763 0.06070788 0.008493463
0.0008500734 0.050018527 0.02613223 0.05821375 0.024903325 -0.028261399 0.049228925 0.0675159
-0.015622032 -0.012478741 -0.0050921263 0.06467805 -0.008918605 0.025331022 0.023559932 0.03095491
0.030411461 0.016614992 0.041242704 -0.055961307 0.04028452 0.04344644 0.00785307 -0.00072776753
0.049322184 0.010850446 -0.081260465 -0.049096666 0.07648798 0.0025894153 0.05817673 -0.02202801
-0.022883324 -0.02165707 0.033222992 0.064440176 0.023521148 0.015162627 -0.02970125 0.08654709
-0.056506533 -0.0033238519 -0.06352553 0.032466218 -0.008235231 -0.023307338 0.093232796 0.038764782
0.027539345 0.09794646 0.0651893 0.058283962 0.004992681 0.14519687 -0.016126743 0.015303026
00000000: d784 b53c a18a 33bb e4ea e53a e316 883c
00000010: f0c0 263d b762 953d f3b1 583c 8040 4c3c
00000020: 01a0 5b3d dd74 003d a404 243d 3f04 0d3d
00000030: 5c26 813d 4e8a 2bb8 a2ec e0bb 4090 e33c
00000040: 5109 8dbc cde3 3c3c 55cf 353d b713 573d
00000050: d548 9d3c 4777 8abd cfb6 923c f7fc 973d
00000060: e2ec 9abc f20b 933c 51a4 a53d 07b6 2c3d
00000070: 53b9 143c 348c 31bc 9cef 9bbd a083 a7bc
00000080: cf85 333d 1397 4f3d 4055 92bb 49e9 b4bd
00000090: 810e 8cbd eed9 95bc bec2 263d c087 313c
000000a0: 9f06 3dbc 4a37 d03c b895 723d b34a 8dbc
000000b0: f65a 36bd 4bec 6f3c d4e5 34bd f3f5 6a3c
000000c0: 4242 31bd 7a0c d0bc 0170 da3c 7cd8 2abd
000000d0: f065 563d cfbd 31bd d3f2 a6bc 3261 b4bc
000000e0: 90fe 513d 3d49 0b3d bb1c b2bc 4886 63bd
000000f0: c736 4c3d d04a 54bd 3e9a 253d cf1c 103e
00000100: 1f12 893d f9da 89bb e582 7ebb 9f63 e6bc
00000110: 2692 5e3c 28db 54bd 22d2 bc39 2e07 f93d
00000120: 93e7 9e3d 4919 dd3c e8a5 893d 342b 7c3c
00000130: 09e8 e2bc 3504 ad3d 400f b3bc 0f11 113d
00000140: 9b61 7abc 08f5 823a 7733 923c a004 af3d
00000150: d9b0 7a3d dbe4 b23d fd05 84bc 50b7 69bd
00000160: 6dd2 ac3d 8663 ccbc 33ac 923c b16f b5bc
00000170: b80f 8d3c 8ac8 a83d 6bae 503a 6ccf b5bd
00000180: c8de a73d 85e1 1fbd 81f3 f5bc fb26 873d
00000190: 0555 85bd d440 113e 70f3 47bc 6752 203e
000001a0: 3182 1d3d 9846 263c b4ea 503d e9e4 663d
000001b0: 799c fbbc 474d eb3d 85bc be3c cabf 93bc
000001c0: b82e 8d3d 08f7 513b ea80 be3d 1a1b 943b
000001d0: 92f6 b53c d43f 86bd 8696 ab3d 2685 ddbb
000001e0: 0247 733c 67a4 98bd 6f75 c6ba a05f 253d
000001f0: 4b9b 1abc e676 3dbb 1f54 febc 4eda 9c3d
00000200: 4c94 a63d 937a 293d 77ff ed3e 9601 633d
00000210: 2a8b 9a3c c286 013d 1b73 343d 5ae0 fabc
00000220: a304 46bd 490c d73c 36b0 6fbd 44dc ea3b
00000230: 8c5d dfbc a493 14bd f14b 723d cce8 803c
00000240: 956e 51bc 4ff9 bebc 1a6e 23bd e832 39bd
00000250: f89e 84bd 39fa bbbc 644f 51bd da1b 053c
00000260: 86b8 cf3c 9f82 1abc f638 903c 9326 253d
00000270: 16d9 813c 68fe 823d 2a61 643c 2245 2e3d
00000280: 68df 62bc 1253 333d 03f6 11bc 78e4 093d
00000290: 9aeb 8bbb 987e d43a 75d8 a7bb f8ca 3d3b
000002a0: e6d0 b23c 184a ae3d c9fa a43d 7df4 1e3c
000002b0: 803f 693c fc53 453d 9e31 5d3d 96c3 99bd
000002c0: d673 9b3e 99f7 51bc 165d dd3d df3f a13d
000002d0: 1a3d 5ebd 5ea9 1ebd 2608 ad3d c113 663d
000002e0: 8584 353c fc69 9ebc 916d 9f3d e49c 393d
000002f0: 4650 ea3c 544c 663d 2ec9 2f3d f001 0e3d
00000300: 35d3 9d3c 1cc5 9a3d 4704 e43c 3a9c 433d
00000310: 73e9 3c3b be67 643d d3a8 783d 2a28 0b3c
00000320: 76d7 5e3a 3ae0 4c3d 4213 d63c 8b71 6e3d
00000330: 0f02 cc3c 7384 e7bc 45a4 493d c745 8a3d
00000340: 8df3 7fbc a273 4cbc dadb a6bb ed75 843d
00000350: 571f 12bc 0183 cf3c c200 c13c 2795 fd3c
00000360: 7521 f93c 2a1c 883c 1cee 283d af37 65bd
00000370: 6101 253d e5f4 313d 2aaa 003c a7c7 3eba
00000380: 0f06 4a3d 12c6 313c e36b a6bd 9619 49bd
00000390: bba5 9c3d 2eb3 293b b94a 6e3d 1674 b4bc
000003a0: cf75 bbbc 2b6a b1bc d514 083d 36f9 833d
000003b0: 6caf c03c ab6c 783c 0950 f3bc 9a3f b13d
000003c0: 6573 67bd fbd4 59bb ac19 82bd 4cfb 043d
000003d0: 10ed 06bc 08ef bebc d6f0 be3d d2c7 1e3d
000003e0: 319a e13c 2798 c83d f881 853d 2abb 6e3d
000003f0: a599 a33b 7dae 143e 3b1c 84bc 8bb9 7a3c

linear2.bias f4 [256]
0.03077309 0.085230105 -0.0009453941 0.038734816 -0.15787207 -0.06738928 0.028172994 0.017061815
0.021231093 -0.0788409 -0.06577305 0.06509691 -0.0295557 0.005808591 -0.02193369 -0.0072242445
0.0823573 -0.03836325 0.026486926 0.071044214 0.07353429 0.025741827 0.08855223 -0.039100125
-0.0746788 0.07792699 -0.086773105 0.10082395 -0.053990394 0.079121456 0.091657385 0.0048194947
0.005377916 -0.006240213 0.036373436 -0.053551115 0.0850904 -0.05716991 0.044256236 0.023678707
0.016453652 -0.019262873 -0.004269764 0.0018912134 0.099390015 0.03251536 -0.119069315 -0.04467143
0.05138582 0.029696152 0.08744791 0.066729926 -0.010748211 0.071541555 0.0051038717 0.054380648
0.0052152053 -0.027942099 0.021947023 0.10372829 0.0628034 -0.08821364 -0.010171033 -0.05565111
0.02816893 0.03928074 0.0017260978 0.026990535 -0.004461692 0.0313095 0.07801073 0.052881256
0.0138204815 0.08032861 0.019518167 -0.0717449 -0.055143107 0.004062905 -0.030928016 -0.02536361
0.0012704275 0.0050170925 0.061322305 -0.009928363 0.00507548 0.076279424 -0.05025342 -0.008747938
-0.032262705 0.015206995 -0.03965808 0.048624855 0.015955888 0.0041067516 0.00023312432 -0.0067684413
0.015101659 0.03806644 -0.079365194 0.048985094 0.033525202 0.08421846 0.038167536 0.10538514
0.035179734 -0.023442045 0.010087478 -0.05790332 -0.039280966 0.08590167 0.0020845598 0.10202654
-0.06945603 0.05096346 -0.07864543 0.02352074 -0.095515676 -0.023782609 -0.05409465 0.027541855
0.101352245 -0.1449036 0.054957706 -0.0066532707 -0.061704278 -0.031937942 -0.0073942766 0.094012484
-0.0735075 -0.09713859 -0.07588338 -0.015120362 -0.034810867 0.0044542747 -0.040356558 -0.0021534201
-0.020524096 0.04403581 0.048893325 0.08792858 -0.03394624 -0.011471377 0.10080823 -0.044038348
-0.07203596 -0.030876359 -0.06312193 0.024117693 -0.03380197 0.03578037 0.007034167 0.031912055
-0.20939498 0.08073211 -0.050617527 -0.007241909 0.119688846 -0.02628826 -0.051245052 -0.044530783
-0.026390191 0.03389327 0.021360679 -0.044177372 0.019141987 0.008689297 0.014331889 -0.044189353
-0.008340394 0.092189 -0.07322298 0.076697156 0.10974171 -0.012077501 -0.040119257 0.010527363
-0.069855474 0.020881897 0.055833705 0.07722065 -0.1304233 -0.03146634 -0.04194081 0.0061154687
-0.021474496 -0.04536447 0.024318019 0.092535324 0.07750465 0.023525422 -0.03088492 0.10409779
-0.036546145 0.007503907 0.114822745 -0.045000814 0.0077161277 -0.008354726 0.097468935 -0.014697514
0.03183671 0.07006549 0.03506892 0.12863226 -0.008712815 -0.022566386 0.02340636 0.10195618
0.036233705 0.03178951 0.03557686 0.06956755 0.005621937 0.021418663 -0.050675876 0.07421215
0.108759865 0.023865435 0.0067645954 0.011695315 -0.031161945 0.04726947 0.023486242 0.0093140835
0.09235785 0.026859222 -0.086477846 0.040243413 0.04732138 0.14528075 0.055907078 -0.051971596
0.09069989 -0.013805486 0.09431181 -0.046401463 -0.103432916 -0.07816382 -0.04587161 -0.05385288
-0.019222662 0.038229786 -0.020926835 0.032755475 -0.032441784 0.039296355 0.08931287 0.026234336
0.09448244 0.11113283 0.030110873 0.04437927 -0.068254195 0.0810138 0.011441224 0.03139481
00000000: d917 fc3c 1f8d ae3d 53d4 77ba 66a8 1e3d
00000010: 37a9 21be 6403 8abd 0dcb e63c 38c5 8b3c
00000020: d4ec ad3c 5677 a1bd 05b4 86bd 8751 853d
00000030: cc1e f2bc fe55 be3b 48ae b3bc 5bb9 ecbb
00000040: f2aa a83d c922 1dbd 1cfb d83c a17f 913d
00000050: 2599 963d 86e0 d23c df5a b53d 7427 20bd
00000060: 33f1 98bd 3098 9f3d 19b6 b1bd c97c ce3d
00000070: 0825 5dbd 6e0a a23d deb6 bb3d daec 9d3b
00000080: 3b39 b03b b37a ccbb 50fc 143d 6a58 5bbd
00000090: e043 ae3d ff2a 6abd 0746 353d d9f9 c13c
000000a0: cfc9 863c 2ccd 9dbc 60e9 8bbb 97e2 f73a
000000b0: fe8c cb3d d32e 053d 9dda f3bd 64f9 36bd
000000c0: f079 523d 5845 f33c e417 b33d b3a9 883d
000000d0: 4419 30bc 6184 923d 613e a73b 3ebe 5e3d
000000e0: 50e4 aa3b d4e6 e4bc 3eca b33c 7f6f d43d
000000f0: 129f 803d 5aa9 b4bd 68a4 26bc 6bf2 63bd
00000100: 87c2 e63c d7e4 203d 3b3e e23a 411b dd3c
00000110: 6333 92bb 643e 003d 17c4 9f3d 049a 583d
00000120: 4d6f 623c 5483 a43d 90e4 9f3c fdee 92bd
00000130: bddd 61bd 1e22 853b c05c fdbc 58c7 cfbc
00000140: 7984 a63a 6c66 a43b 192d 7b3d 93aa 22bc
00000150: 3650 a63b 6338 9c3d 88d6 4dbd 8353 0fbc
00000160: e625 04bd c326 793c 8370 22bd db2a 473d
00000170: ecb5 823c ee91 863b d572 7439 cdc9 ddbb
00000180: f36c 773c 8eeb 1b3d 388a a2bd 98a4 483d
00000190: b951 093d ba7a ac3d 9055 1c3d 2ad4 d73d
000001a0: a018 103d 8809 c0bc f345 253c 082c 6dbd
000001b0: 14e5 20bd 37ed af3d 1c9d 083b 4af3 d03d
000001c0: f73e 8ebd 10bf 503d db10 a1bd 91ae c03c
000001d0: b99d c3bd bfd3 c2bc 5a92 5dbd 759f e13c
000001e0: c491 cf3d 9c61 14be 551b 613d ae03 dabb
000001f0: a0bd 7cbd 5cd1 02bd b04b f2bb 9e89 c03d
00000200: 1a8b 96bd 99f0 c6bd bf68 9bbd 65bb 77bc
00000210: d795 0ebd 2af5 913b eb4c 25bd 6520 0dbb
00000220: 2622 a8bc e55e 343d 5e44 483d e613 b43d
00000230: 360b 0bbd 71f2 3bbc 8c74 ce3d 8e61 34bd
00000240: 9787 93bd 6bf0 fcbc 1246 81bd 7892 c53c
00000250: ef73 0abd 708e 123d df7e e63b 37b6 023d
00000260: a36b 56be e056 a53d 5354 4fbd 894d edbb
00000270: 6d1f f53d 7a5a d7bc 55e6 51bd e965 36bd
00000280: 3e30 d8bc abd3 0a3d 97fc ae3c 55f3 34bd
00000290: a8cf 9c3c 8e5d 0e3c 4dd0 6a3c e5ff 34bd
000002a0: 26a6 08bc 96cd bc3d eef5 95bd 6613 9d3d
000002b0: 43c0 e03d b6e0 45bc 1754 24bd f67a 2c3c
000002c0: 6310 8fbd 8310 ab3c e2b1 643d dc25 9e3d
000002d0: b08d 05be d9e2 00bd 20ca 2bbd 4564 c83b
000002e0: 48eb afbc 18d0 39bd 9536 c73c 2983 bd3d
000002f0: c2ba 9e3d 63b8 c03c 5f02 fdbc 3931 d53d
00000300: 69b1 15bd 56e3 f53b 3028 eb3d c652 38bd
00000310: 92d7 fc3b 43e2 08bc cb9d c73d d7cd 70bc
00000320: 3667 023d 7f7e 8f3d 6ea4 0f3d 2db8 033e
00000330: 32c0 0ebc 24dd b8bc b2be bf3c 67ce d03d
00000340: cb69 143d b835 023d 0bb9 113d 6f79 8e3d
00000350: 3a38 b83b 3176 af3c 8291 4fbd 8afc 973d
00000360: 7ebd de3d 7281 c33c 8aa9 dd3b b59d 3f3c
00000370: 5647 ffbc a29d 413d 3866 c03c 199a 183c
00000380: 1d26 bd3d df07 dc3c 4c1b b1bd 47d6 243d
00000390: 10d4 413d 7ac4 143e d2fe 643d 2be0 54bd
000003a0: ddc0 b93d 6830 62bc 8d26 c13d 760f 3ebd
000003b0: a3d4 d3bd 5a14 a0bd dfe3 3bbd d694 5cbd
000003c0: d878 9dbc d696 1c3d c16e abbc 9b2a 063d
000003d0: ade1 04bd 37f5 203d aae9 b63d 64e9 d63c
000003e0: 0280 c13d 9c99 e33d 14ab f63c 0ac7 353d
000003f0: dbc8 8bbd 90ea a53d f973 3b3c d897 003d

linear3.weight f4 [3, 256]
-0.059710372 0.47661215 0.22292836 -0.17650017 0.66698873 0.0047933953 -0.06759345 -0.0034999955
0.25103027 -0.002883675 0.52326715 -0.047095373 0.04713677 0.045405366 0.85471326 -0.038611017
-0.061880942 -0.014895661 -0.06968214 0.015128402 -0.01657822 -0.1401344 -0.9270222 -0.3542898
-0.039222315 -0.058937635 -1.6317412 -0.05772603 -0.02722868 0.004909397 -0.037459567 -0.04472199
0.0207338 -0.98851407 0.47708082 -0.013660861 -0.03287491 -0.010201135 -0.07336113 -0.9871051
0.030464396 0.026834084 -0.0074906987 0.014190008 -0.048604142 -0.021096077 1.0134665 0.44342828
0.050391823 -0.34024048 -0.24498037 -0.89217037 -0.2618444 -0.8259415 0.6568011 -0.35014194
-0.5186758 0.14655015 -0.07121391 -0.25165054 -0.021896206 -0.87624073 -0.98177093 -0.01432087
-0.009567195 -0.06452066 -0.06354453 0.03887015 0.16096817 -0.3850613 -1.219923 0.021039592
0.2556992 -0.6680635 0.30411816 -0.0049961293 -0.049733583 0.34108615 0.21159944 -0.04198894
0.006792672 -0.037558883 -0.18286769 0.047423434 0.014813791 -0.015084511 -0.014096501 0.6771433
-0.9680457 -0.07888683 0.05370917 -0.07251916 0.34768882 -0.0112032145 0.19171198 -0.04053452
1.0330297 0.039607506 0.84832984 -0.57267493 0.019980859 1.0066302 -0.052259583 -0.039570283
0.46488374 -0.045216087 -0.0049252473 0.041324727 1.1975604 -0.014099793 0.038078338 -0.03987634
0.022509454 0.013223346 -1.0748984 -0.051701814 0.049537886 0.34694257 0.042060204 -0.093462706
0.017557561 0.99345404 -0.48159367 0.33996394 -0.05135979 0.034006525 -0.1587856 -0.004856039
-0.024373747 -0.849174 -0.016284786 0.03952952 0.0603543 -0.6352759 -0.013472049 0.47248247
0.039695222 -0.3313012 -0.03234954 -0.01698395 0.25652716 -0.008891947 -0.04246867 0.03690427
-0.8465342 0.27522832 -0.020586839 -1.104571 -1.0256088 -0.049259353 -0.0140261855 -0.035022456
-1.0965089 0.5772604 0.018589588 0.59774566 -0.09074935 0.1714185 0.03205532 0.18112877
-0.0014694438 0.023415528 0.022390883 0.0077337744 -0.8404313 0.003310167 0.19192503 0.8816676
0.088019855 -0.052579522 -0.430336 -0.23880306 0.015957821 -0.05474663 0.052064784 -0.02117636
-0.07875441 0.033029616 -0.15855427 -0.33716604 1.2806053 0.026196312 0.02280033 0.28909585
0.692212 -0.020161767 -0.08154185 -0.087322414 -0.2936567 0.025421187 -0.0246494 0.0017359518
-0.010059322 -0.40666166 -0.061086573 0.005987499 -0.7584327 0.034103587 -0.07208942 0.08051278
0.0043366635 -0.45857573 -0.03407457 -0.80542314 -0.033405416 0.015269597 0.017596543 0.0272718
-0.050427135 -0.18955629 -0.27106515 -0.09219783 0.04780333 -0.03755306 -1.2437295 -0.010774153
-0.002952006 -0.024356486 0.049061093 -0.17614052 0.3949084 1.1249143 -0.060714547 -0.02196079
-0.020588262 0.3666968 0.00036320268 0.006157318 -0.041648906 -1.3378347 -0.7133265 0.029535472
-0.053374983 0.0042256867 -0.06979414 0.40697807 -0.59829193 0.035527065 0.1820148 0.03513496
0.04972916 -0.4369373 -0.23246908 -0.04617584 0.12156651 0.034624286 0.4922233 -0.05373046
-0.6467611 0.46094298 0.06433941 0.018519145 -0.012736852 -0.058785383 0.027863145 -0.006565134
00000000: dd92 74bd 8206 f43e 5547 643e 76bc 34be
00000010: c6bf 2a3f ea11 9d3b 6f6e 8abd 2e60 65bb
00000020: 0a87 803e 0afc 3cbb d6f4 053f 14e7 40bd
00000030: 7c12 413d fafa 393d 7dce 5a3f 9626 1ebd
00000040: df76 7dbd ee0c 74bc 83b5 8ebd 1edd 773c
00000050: 0ccf 87bc 647f 0fbe 5451 6dbf 7965 b5be
00000060: 94a7 20bd 9768 71bd e5dc d0bf 2172 6cbd
00000070: ae0e dfbc 02df a03b 346f 19bd 682e 37bd
00000080: eed9 a93c 420f 7dbf f043 f43e ced1 5fbc
00000090: d7a7 06bd a922 27bc 5c3e 96bd ebb2 7cbf
000000a0: 7890 f93c 27d3 db3c 8974 f5bb 357d 683c
000000b0: 2315 47bd aed1 acbc 45b9 813f 0809 e33e
000000c0: a867 4e3d 0034 aebe 22dc 7abe 4765 64bf
000000d0: 7810 86be e770 53bf 1e24 283f ce45 b3be
000000e0: f0c7 04bf 3e11 163e 99d8 91bd 57d8 80be
000000f0: ac5f b3bc 5051 60bf 5755 7bbf 15a2 6abc
00000100: b9bf 1cbc 6823 84bd a223 82bd 4e36 1f3d
00000110: d7d4 243e c126 c5be 7026 9cbf 395b ac3c
00000120: 01eb 823e 3606 2bbf 60b5 9b3e 92b6 a3bb
00000130: 71b5 4bbd d8a2 ae3e 86ad 583e 98fc 2bbd
00000140: 1095 de3b 58d7 19bd ab41 3bbe 133f 423d
00000150: 8bb5 723c 0625 77bc 03f5 66bc 4359 2d3f
00000160: d8d1 77bf 6b8f a1bd 26fe 5b3d ed84 94bd
00000170: 4504 b23e b08d 37bc 2550 443e 8607 26bd
00000180: 513a 843f 7b3b 223d 252c 593f d39a 12bf
00000190: e6ae a33c 42d9 803f 250e 56bd 7314 22bd
000001a0: 3e05 ee3e 8134 39bd f863 a1bb 1e44 293d
000001b0: a949 993f d102 67bc 08f8 1b3d 6055 23bd
000001c0: bf65 b83c bca6 583c 4596 89bf 48c5 53bd
000001d0: 3de8 4a3d 75a2 b13e 5247 2c3d 6069 bfbd
000001e0: e0d4 8f3c 0153 7e3f 7293 f6be c10f ae3e
000001f0: a55e 52bd 6d4a 0b3d b198 22be 681f 9fbb
00000200: 74ab c7bc 7863 59bf ac67 85bc b5e9 213d
00000210: 1236 773d 71a1 22bf deb9 5cbc 39e9 f13e
00000220: 7597 223d 50a0 a9be f480 04bd ed21 8bbc
00000230: 8757 833e 87af 11bc a1f3 2dbd ef28 173d
00000240: 77b6 58bf baea 8c3e bba5 a8bc 9562 8dbf
00000250: 2647 83bf 2dc4 49bd 16ce 65bc b573 0fbd
00000260: 675a 8cbf 56c7 133f 3149 983c dc05 193f
00000270: ccda b9bd 5588 2f3e 704c 033d d279 393e
00000280: 5a9a c0ba ecd1 bf3c 166d b73c 9a6b fd3b
00000290: 8126 57bf 63ef 583b ff87 443e f8b4 613f
000002a0: c143 b43d a05d 57bd 0055 dcbe ca88 74be
000002b0: fab9 823c 013e 60bd e241 553d 0c7a adbc
000002c0: fe49 a1bd 104a 073d 0d5c 22be 07a1 acbe
000002d0: e0ea a33f a699 d63c c2c7 ba3c 5f04 943e
000002e0: ce34 313f 4a2a a5bc 6aff a6bd 18d6 b2bd
000002f0: 2c5a 96be 1840 d03c 8aed c9bc e088 e33a
00000300: dbcf 24bc f535 d0be ea35 7abd c832 c43b
00000310: a528 42bf 34b0 0b3d 9ea3 93bd e2e3 a43d
00000320: 921a 8e3b 70ca eabe c791 0bbd 3630 4ebf
00000330: 1ed4 08bd 552d 7a3c a026 903c 1c69 df3c
00000340: af8c 4ebd 0b1b 42be 0dc9 8abe 37d2 bcbd
00000350: 6dcd 433d 3dd1 19bd 8732 9fbf 1386 30bc
00000360: 7176 41bb 4187 c7bc 49f4 483d 2e5e 34be
00000370: 6f31 ca3e 31fd 8f3f d1af 78bd 1de7 b3bc
00000380: b7a8 a8bc afbf bb3e 3d6c be39 54c3 c93b
00000390: 0b98 2abd 2b3e abbf 919c 36bf 60f4 f13c
000003a0: ba9f 5abd a177 8a3b 3bf0 8ebd 6e5f d03e
000003b0: a929 19bf d484 113d 1662 3a3e ade9 0f3d
000003c0: ceb0 4b3d 3fb6 dfbe 600c 6ebe e122 3dbd
000003d0: ddf7 f83d 32d2 0d3d b104 fc3e 7914 5cbd
000003e0: 2392 25bf b800 ec3e 61c4 833d 76b5 973c
000003f0: 3bae 50bc f1c8 70bd 4041 e43c 5620 d7bb

linear3.bias f4 [3]
-0.020276818 -0.0059788977 -0.001312775
00000000: 921b a6bc a1ea c3bb 6b11 acba
