version_2_points_without_rotation/DDPG_GPU_MPI/w32_s_t005/actor.pth (torch, 287575 bytes, 6 tensors)

linear1.weight f4 [256, 18]
0	0x3de2589a	0.11052056
1	0xbd8af59e	-0.06785129
2	0x3dfd015e	0.123537764
3	0xbd389b6d	-0.0450701
4	0xbe1a1e16	-0.1505054
5	0xbe1f99c7	-0.15586005
6	0x3dfe6f50	0.12423575
7	0x3dc3b831	0.09556616
8	0x3e5e0362	0.21680978
9	0xbdb9494d	-0.09047184
10	0xbd587aa4	-0.052851334
11	0x3db8d28b	0.09024533
12	0xbe4d5a85	-0.20054062
13	0xbd9d38f7	-0.07676881
14	0x3dbfe703	0.09370234
15	0xbd8de518	-0.06928462
16	0x3e4981ed	0.19678469
17	0x3e1c2e3f	0.15252016
18	0xbe4052d8	-0.18781602
19	0x3ed07ad0	0.40718699
20	0x3e0d5a78	0.13804042
21	0x3c1c8fb6	0.009555748
22	0xbe79aae1	-0.24381591
23	0x3dbc51cd	0.0919529
24	0xbe72bd75	-0.23705085
25	0x3e3d6cd5	0.18498547
26	0x3d8c4844	0.06849721
27	0x3d0f81b8	0.03503582
28	0xbe2e7be9	-0.17039455
29	0xbd846341	-0.06464244
30	0xbb6811b1	-0.0035410936
31	0xbdc3f8f3	-0.09568968
32	0x3da5c5a6	0.08094339
33	0x3d0b8efa	0.0340719
34	0x3da47578	0.08030218
35	0xbdac44db	-0.08411571
36	0xbe0a96ff	-0.13534163
37	0x3e02fc9a	0.12791672
38	0xbe4a5778	-0.19759929
39	0x3e48ebc0	0.19621181
40	0x3d6c4efe	0.05769252
41	0xbe1b6291	-0.15174319
42	0x3d821d35	0.06353227
43	0x3e8480dd	0.25879565
44	0xbe5012df	-0.20319699
45	0x3e9eeb57	0.31038925
46	0x3e8da8a6	0.2766773
47	0xbd465dd2	-0.048429318
48	0x3cb6c79a	0.022311974
49	0x3d7557a5	0.059898037
50	0x3e5b2b2c	0.21403188
51	0x3d4df3f8	0.050281495
52	0xbd8ecb62	-0.06972386
53	0x3e80fab2	0.25191265
54	0xbe303d13	-0.17210798
55	0xbe99f3bb	-0.30068764
56	0xbe0e4939	-0.1389512
57	0xbcb32214	-0.021866836
58	0xbe33815e	-0.17529818
59	0x3d687f34	0.056761935
60	0x3e6ff210	0.23432183
61	0xbe57e40e	-0.2108309
62	0xbdebbecd	-0.11511002
63	0xbc747e7c	-0.014922734
64	0xbe920d21	-0.28525642
65	0xbe857068	-0.26062322
66	0x3e7bd6a6	0.245936
67	0x3dde1c85	0.108452834
68	0x3e186e15	0.14885743
69	0x3ea93aa9	0.33052567
70	0xb8bc6b6a	-8.984546e-05
71	0x3e3ef4f5	0.18648131
72	0xbe0f3323	-0.13984351
73	0x3da6af00	0.08138847
74	0x3e240b8f	0.16020034
75	0xbe72e4c8	-0.23720086
76	0x3e1446f4	0.14480191
77	0xbd9e15f8	-0.07719034
78	0xbe14ea4c	-0.14542502
79	0x3d5f9af0	0.05459112
80	0x3e9b713d	0.3035983
81	0xbdaa7377	-0.083228044
82	0x3ebc754c	0.3680824
83	0xbbb3453a	-0.005470899
84	0x3e152afc	0.14567178
85	0x3cf858d9	0.030315803
86	0xbdb27d6a	-0.08715327
87	0xbc0045b5	-0.007829119
88	0xbe40793c	-0.18796247
89	0x3e1b4da4	0.15166336
90	0x3d699e97	0.05703601
91	0xbd8781a4	-0.06616524
92	0x3e7161f3	0.23572521
93	0xbd81c727	-0.063368134
94	0x3abc9386	0.0014387227
95	0x3e83b478	0.25723624
96	0xbe4ad684	-0.19808394
97	0x3eb7d12e	0.3590178
98	0x3e7480ed	0.23877306
99	0x3dee0c2b	0.116234146
100	0xbdcb81d2	-0.09936871
101	0x3d84e5e9	0.064891644
102	0x3e201651	0.15633513
103	0xbf2d8499	-0.6778045
104	0xbb624a0a	-0.0034528994
105	0xbe2f72a7	-0.1713358
106	0xbf037d2e	-0.51362884
107	0x3e1a6940	0.15079212
108	0xbd74fe23	-0.059812676
109	0x3cca7fb4	0.024719097
110	0xbcadd70f	-0.021220712
111	0x3deb6894	0.11494556
112	0xbd9c54b4	-0.07633343
113	0x3c136d0f	0.00899817
114	0x3eacb67e	0.3373298
115	0x3c76cc15	0.015063305
116	0x3e40f780	0.18844414
117	0x3d2ecf43	0.04267813
118	0x3e8aceca	0.27110893
119	0xbcc007bb	-0.023441186
120	0xbe273319	-0.16328086
121	0xbeb1d1e2	-0.3473044
122	0x3e131e7d	0.14367099
123	0xbc92378e	-0.017848756
124	0x3c322117	0.010872147
125	0x3e32f335	0.17475589
126	0x3e3b0e8f	0.18267272
127	0x3e046440	0.12928867
128	0x3dd32716	0.103101894
129	0x3cf4d44c	0.029886387
130	0x3db224d5	0.086984314
131	0x3e5e0ac7	0.21683799
132	0xbe0ce2e0	-0.13758421
133	0xbd08ade7	-0.03336897
134	0x3e5d4179	0.21607007
135	0xbe62e787	-0.22158633
136	0x3e33650d	0.17519017
137	0x3ddc9ea0	0.10772443
138	0xbb4353be	-0.0029804553
139	0xbef1955b	-0.47184262
140	0x3dc00802	0.09376527
141	0x3da6b51d	0.08140013
142	0xbe2e2bfb	-0.17008965
143	0x3e7be0c4	0.2459746
144	0x3da9789a	0.08274956
145	0xbe453482	-0.19258311
146	0xbcea9a5b	-0.028638056
147	0x3da1b787	0.07896333
148	0xbb6701f3	-0.0035248965
149	0xbc9a8267	-0.018861009
150	0xbe20ebf7	-0.15715013
151	0x3e853043	0.26013383
152	0xbdf4a17b	-0.119448625
153	0xbda555e8	-0.08073026
154	0x3ed97594	0.42472517
155	0xbe652f68	-0.22381365
156	0x3e7a20c8	0.24426568
157	0xbdce95c9	-0.10087163
158	0x3e9453fc	0.28970325
159	0xbe020063	-0.1269546
160	0xbe1d8d47	-0.15385924
161	0x3df33d6e	0.11876951
162	0x3e2461f4	0.16052991
163	0x3e8594c7	0.2609007
164	0xbcbbecb7	-0.022940023
165	0xbe044e12	-0.12920406
166	0x3e2d5488	0.16926777
167	0xbcdeedd5	-0.027213017
168	0x3d93a593	0.07209315
169	0xbe6142f9	-0.21998204
170	0x3e82f77d	0.25579444
171	0x3cd7bbaa	0.026334602
172	0xbf3d74fa	-0.7400662
173	0xbdf5f13c	-0.120089024
174	0x3d20c244	0.039247766
175	0x3eb95968	0.36201024
176	0xbe10154a	-0.14070621
177	0xbd488417	-0.048954096
178	0x3f1b78f1	0.60731417
179	0xbd889da2	-0.06670691
180	0x3e3adbe7	0.18247949
181	0xbeaabdf0	-0.33348036
182	0xbd3b1825	-0.045677323
183	0xbc9fec69	-0.019521909
184	0xbdf5931c	-0.119909495
185	0x3db3789e	0.0876324
186	0x3e943358	0.28945422
187	0xbe022ffe	-0.1271362
188	0x3e668221	0.22510578
189	0x3bea2ebf	0.007146686
190	0xbe86c77d	-0.26324072
191	0x3e83de71	0.25755647
192	0x3e04d409	0.1297151
193	0x3e6328cf	0.22183536
194	0xbdef7ab6	-0.11693327
195	0xbe4fcaa4	-0.20292145
196	0x3e91bed0	0.2846589
197	0xbccc61e2	-0.024949018
198	0x3e1a17d5	0.15048154
199	0x3d6e5378	0.05818507
200	0x3e36d104	0.1785317
201	0x3d908021	0.07055689
202	0x3e3b2a95	0.18277963
203	0xbe2a8e44	-0.16655833
204	0xbdbb9871	-0.09159935
205	0x3da3163d	0.07963226
206	0x3e557e05	0.20848854
207	0xbe07e677	-0.13271509
208	0x3e93a355	0.2883555
209	0xbe43c5cd	-0.19118424
210	0xbcbd7247	-0.02312578
211	0xbe4c263b	-0.19936459
212	0xbdb504f9	-0.08838839
213	0x3e9a8d07	0.3018572
214	0xbef23f6d	-0.47314015
215	0x3e87ff56	0.26561993
216	0xbe246fa4	-0.16058213
217	0x3d98bd06	0.07457928
218	0x3dd35d44	0.103205234
219	0xbe1c838d	-0.15284558
220	0xbe07e68b	-0.13271539
221	0x3d38d515	0.045125086
222	0x3e6ead80	0.23308372
223	0xbd6c41d6	-0.057679974
224	0xbdcf906b	-0.101349674
225	0x3e99bade	0.3002538
226	0x3e5f5f54	0.21813709
227	0x3dbc75b3	0.09202137
228	0xbdaf3d35	-0.08556596
229	0xbe483ff4	-0.19555646
230	0x3d857033	0.06515541
231	0x3e11422d	0.141854
232	0x3e097bcb	0.1342613
233	0xbd5d4f46	-0.05403068
234	0x3eb006e8	0.3438027
235	0xbe4737c6	-0.1945487
236	0x3da84b90	0.082175374
237	0xbe02396d	-0.12717219
238	0x3c466907	0.012110001
239	0x3e07730b	0.13227479
240	0x3ea0cdca	0.31407005
241	0x3d68f269	0.056871805
242	0xbdfe4aa9	-0.12416584
243	0x3d351248	0.044206887
244	0xbeb24325	-0.34816852
245	0xbe119da2	-0.14220288
246	0xbda9fa87	-0.082997374
247	0x3ebd3136	0.36951607
248	0x3e5d2a8d	0.21598263
249	0xbe33a94d	-0.17545052
250	0x3e14f8bf	0.14548014
251	0x3d65608f	0.05600029
252	0x3d24ceed	0.040236402
253	0xbe1b75ed	-0.15181704
254	0xbe399ccb	-0.18126218
255	0x3e190670	0.14943862

linear1.bias f4 [256]
0	0x3d84d32b	0.064855896
1	0x3e0aa4c8	0.13539422
2	0x3e55329a	0.20820084
3	0x3d9ac75e	0.075575575
4	0xbe38337f	-0.17988394
5	0xbb46836f	-0.0030290743
6	0xbdacb7d8	-0.08433503
7	0xbdccf6d7	-0.100080185
8	0x3e814c91	0.25253728
9	0x3c2a87de	0.01040837
10	0x398340c5	0.00025034524
11	0x3d5ffa14	0.054681852
12	0xbde7391a	-0.11290188
13	0x3d9338d3	0.07188573
14	0x3dc3bb35	0.09557191
15	0x3dafbb53	0.08580651
16	0x3c2ddb1f	0.010611325
17	0x3e04ca38	0.12967765
18	0x3d418f33	0.047255706
19	0x3e4f292d	0.20230551
20	0x3cb35f41	0.021896007
21	0x3debeced	0.115197994
22	0xbdb6ceea	-0.089261845
23	0x3e453bea	0.19261137
24	0xbbe4ef3e	-0.0069865277
25	0x3e61f3c2	0.22065642
26	0xbd7f4c28	-0.062328488
27	0x3df310f7	0.1186847
28	0x3d5df658	0.05419001
29	0x3e4f6790	0.2025435
30	0xbda1f40e	-0.07907878
31	0x3c5c6056	0.013450703
32	0xbcd89ed7	-0.026442928
33	0x3cdd520d	0.027016664
34	0xbe247668	-0.16060793
35	0x3de214d9	0.110391326
36	0x3ea058e0	0.31317806
37	0x3e30d3e3	0.17268328
38	0xbd23e22d	-0.04001062
39	0xbde5c689	-0.11219508
40	0x3e31d36f	0.17365812
41	0xbdb0453a	-0.08606954
42	0x3e22f91f	0.15915345
43	0xbe07f184	-0.13275725
44	0x3e4d9339	0.20075692
45	0xbdf9b8fa	-0.121934846
46	0xbdec5c1b	-0.11541005
47	0xbd4a87b3	-0.04944582
48	0x3e85566e	0.26042503
49	0xbb46c0d4	-0.0030327337
50	0x3e8a2ac9	0.26985767
51	0xbde32c62	-0.1109245
52	0x3e36a1b8	0.17835128
53	0xbdfdc098	-0.1239025
54	0x3e5fb0e4	0.21844822
55	0x3db60de4	0.08889368
56	0xbe288740	-0.16457844
57	0xbe53bc00	-0.20677185
58	0xbd117e74	-0.035520986
59	0x3e263ab8	0.16233337
60	0x3ea22815	0.31671205
61	0xbdd42b19	-0.10359783
62	0xbdf0effe	-0.11764525
63	0x3e1558d2	0.14584664
64	0xbce0f0c1	-0.02745855
65	0xbe27e109	-0.16394438
66	0xbe3ce2da	-0.18445912
67	0xbd172e27	-0.03690925
68	0x3e8dfa21	0.27729896
69	0x3d3db739	0.046317313
70	0xbdd54c0c	-0.104148954
71	0xbd271a47	-0.040796544
72	0x3e3f7c15	0.18699677
73	0xbe29e639	-0.16591729
74	0xbe276807	-0.16348277
75	0xbe167b12	-0.14695385
76	0xbe3ce5b4	-0.18447
77	0xbe043004	-0.12908942
78	0x3c91ad02	0.017782692
79	0xbd4429c6	-0.0478914
80	0x3e582ca1	0.21110775
81	0xbdc1915a	-0.09451552
82	0x3e4ac732	0.1980255
83	0x3e4e6879	0.2015704
84	0xbdae364e	-0.085064515
85	0x3e316616	0.17324099
86	0x3d824719	0.06361217
87	0x3d7f4b0c	0.06232743
88	0xbdcdf756	-0.10056941
89	0xbc29712a	-0.010341922
90	0xbe0a218d	-0.13489361
91	0x3e43ca66	0.19120178
92	0x3e1601f9	0.1464919
93	0x3dcb5d7f	0.09929942
94	0x3b886a6f	0.0041630785
95	0xbe0c6e5c	-0.13713974
96	0x3e593614	0.21212035
97	0xbd1ad63d	-0.03780197
98	0x3e120d59	0.14262904
99	0xbdc9cd28	-0.098535836
100	0xbdd8ee3f	-0.10592317
101	0xbd05a24d	-0.032625485
102	0xbd8246a8	-0.06361133
103	0xbd6e3acd	-0.058161546
104	0x3e13cf09	0.14434446
105	0x3dde0e00	0.10842514
106	0x3e531f57	0.20617424
107	0xbe1e89a1	-0.15482189
108	0x3d6592bb	0.056048136
109	0xbdc6eb4e	-0.097128496
110	0xbc143522	-0.009045871
111	0x3e35d5a5	0.1775728
112	0x3e55d200	0.2088089
113	0x3c3e85cd	0.01162858
114	0x3dfb6dcc	0.122768015
115	0x3d697eb9	0.057005618
116	0x3dc7454a	0.09730013
117	0x3a14e8c7	0.00056804385
118	0xbda01d87	-0.07818132
119	0xbd8d6540	-0.069040775
120	0xbdaaba95	-0.08336369
121	0xbe1ac392	-0.15113667
122	0xbcb1e088	-0.02171351
123	0xbc4e2b76	-0.012583604
124	0x3e99e551	0.30057767
125	0x3dc65753	0.096846245
126	0xbd2a977e	-0.04164838
127	0xbe0883ca	-0.13331524
128	0xbd7c079f	-0.061530706
129	0xbe6eccf1	-0.23320366
130	0xbdcbe3fc	-0.09955594
131	0x3e512959	0.20425929
132	0xbe403ce2	-0.18773225
133	0x3d1fb689	0.03899244
134	0xbdee288c	-0.116288275
135	0x3e29ff2e	0.1660125
136	0x3dcefed0	0.101071954
137	0x3e6655dd	0.22493692
138	0x3dba656b	0.09101375
139	0x3e6a5582	0.22884181
140	0xbda27f6b	-0.07934459
141	0xbd85fc9b	-0.06542321
142	0x3e719115	0.235905
143	0x3e009e96	0.12560496
144	0x3e84e07e	0.25952524
145	0xbd17fb54	-0.03710492
146	0x3dca30f1	0.09872616
147	0x3bd5767a	0.0065143676
148	0xbe50b980	-0.20383263
149	0x3e0400d9	0.12890948
150	0x3e081801	0.13290407
151	0x3e7418dc	0.23837608
152	0x3d8d4bf8	0.068992555
153	0xbe181f58	-0.14855707
154	0xbe342df7	-0.17595659
155	0x3d1ee810	0.03879553
156	0xbd9226e0	-0.07136321
157	0x3e5f261d	0.21791883
158	0x3b4b4370	0.0031015538
159	0xbe382248	-0.17981827
160	0x3e72b794	0.23702842
161	0x3e55318a	0.20819679
162	0x3e9099aa	0.28242236
163	0xbe27bbc0	-0.16380215
164	0x3d47d0a0	0.048782945
165	0xbc44eac3	-0.012018862
166	0xbd7b9da1	-0.061429624
167	0x3e1ccbc8	0.15312111
168	0x3defe4d2	0.11713566
169	0xbe293057	-0.16522346
170	0x3c2ed7be	0.010671554
171	0x3dc8bf5e	0.098021254
172	0x3e975522	0.2955714
173	0xbe0fa045	-0.14025982
174	0x3dc3699e	0.09541629
175	0xbdb48b78	-0.08815664
176	0xbdeaf498	-0.11472434
177	0x3e5c7d07	0.21532069
178	0x3e7f7147	0.24945556
179	0xbdcf2e82	-0.101162925
180	0xbc8f390d	-0.017483259
181	0x3e8e8098	0.27832484
182	0x3e542507	0.2071725
183	0x3e5a161b	0.21297495
184	0x3e1075b7	0.14107405
185	0x3de24419	0.11048145
186	0xbe809333	-0.25112304
187	0xbdffe419	-0.12494678
188	0x3dd6b1f9	0.10483164
189	0x3cdbd3fe	0.026834484
190	0x3e0f6929	0.14004959
191	0x3e4dc759	0.20095576
192	0x3e16b2ed	0.14716692
193	0x3d6b851b	0.057499986
194	0x3e4e142a	0.2012488
195	0x3e0067ec	0.12539643
196	0x3d8873d9	0.06662721
197	0x3db6d2a0	0.08926892
198	0xbddf1ec6	-0.108945414
199	0x3e6a1114	0.22858077
200	0x3d54484c	0.05182676
201	0xbdce06b3	-0.100598715
202	0x3e2d7903	0.16940694
203	0x3d7d7f2a	0.06188885
204	0xbd3f3c1d	-0.046688188
205	0x3d045c29	0.032314453
206	0xbe3e3191	-0.18573596
207	0xbe357014	-0.17718536
208	0xbdb4b087	-0.088227324
209	0x3d569625	0.052389283
210	0x3dafd5db	0.085857116
211	0x3deb2233	0.11481132
212	0xbdf09a22	-0.117481485
213	0x3dfb9264	0.12283781
214	0x3e43df91	0.19128253
215	0xbe10ba34	-0.14133531
216	0x3e175c72	0.14781359
217	0xbe41c38f	-0.18922256
218	0xbc3a4469	-0.011368849
219	0x3e55345e	0.20820758
220	0x3e70befe	0.23510358
221	0xbd35c7cf	-0.044380005
222	0x3cf5313d	0.029930705
223	0x3ddba42f	0.10724675
224	0x3e4d805b	0.20068495
225	0x3e5ccec8	0.21563256
226	0x3d8527b5	0.06501714
227	0x3ddbc94b	0.10731753
228	0xbdbfade9	-0.093593426
229	0x3dc522b4	0.0962576
230	0x3e0ba8cd	0.13638611
231	0x3d1d963b	0.03847335
232	0x3e6b9d10	0.23009133
233	0xbc635558	-0.013875328
234	0xbda059c8	-0.078296244
235	0xbe3bbebd	-0.1833448
236	0x3e21d15e	0.15802523
237	0xbe57d1c3	-0.21076111
238	0xbddb53c2	-0.10709335
239	0xbde5cebf	-0.11221074
240	0x3e3294fc	0.17439646
241	0x3d83ff83	0.06445219
242	0x3d094dd2	0.03352148
243	0x3e619feb	0.2203366
244	0x3d4fe1b8	0.05075237
245	0x3e26cb5c	0.16288513
246	0x3da1b9ca	0.078967646
247	0xbe1b4027	-0.15161191
248	0xbc5751f0	-0.013142094
249	0xbe01c564	-0.12672955
250	0xbe3f42c5	-0.18677814
251	0x3d64e0e2	0.055878527
252	0xbbbfa3b8	-0.005848374
253	0xbdd4f44a	-0.10398157
254	0x3c9b8f53	0.01898924
255	0x3d913259	0.07089681

linear2.weight f4 [256, 256]
0	0xbc7b0ca8	-0.015322842
1	0xbc2692a9	-0.010166802
2	0xbd66c21d	-0.056337465
3	0x3d62fd8f	0.055417594
4	0xbd0f5fe5	-0.03500356
5	0xbcb6ef54	-0.022330917
6	0xbbdd3638	-0.006750848
7	0xbd315cc6	-0.043301366
8	0xbd82445b	-0.06360694
9	0x3a5fc378	0.0008535902
10	0x3d565254	0.052324608
11	0xbd1ade87	-0.037809875
12	0xbc86d630	-0.016459554
13	0xbd2be550	-0.041966736
14	0x3c99eb37	0.018788917
15	0xbb952de4	-0.0045525897
16	0x3b98dc7a	0.0046649547
17	0x3d176a1f	0.03696644
18	0x3d3fa3cd	0.046787072
19	0x3c259620	0.010106593
20	0xbd0125e6	-0.031530283
21	0xbaa6c50d	-0.0012723521
22	0x3d05df7f	0.032683846
23	0xbd3bfa90	-0.045893252
24	0xbbacc2a7	-0.005272228
25	0x3cd6cb45	0.026219973
26	0xbd35479c	-0.044257745
27	0x3d242fa3	0.040084492
28	0xbbf2df06	-0.0074118404
29	0xbd66eca0	-0.056378007
30	0xbd647b89	-0.055781875
31	0xbd3ea008	-0.046539336
32	0xbb301a6f	-0.0026871224
33	0xbb08cea9	-0.0020875132
34	0xbd39ecfb	-0.045392018
35	0x3bb36886	0.0054751066
36	0xbbcb32fc	-0.006201146
37	0x3d42fd62	0.047604926
38	0x3d17334e	0.036914162
39	0xbcc73ce3	-0.024321025
40	0xbae5ad1f	-0.0017522908
41	0xbd0ede66	-0.034880064
42	0x3d1cfc20	0.038326383
43	0xbc793b36	-0.015211871
44	0x3d27a173	0.040925454
45	0x3c36b44a	0.011151383
46	0xbc8402d1	-0.016114624
47	0xbc062686	-0.008187896
48	0x3c81d8ea	0.015850503
49	0xbd40fbb4	-0.047115043
50	0x3d174736	0.036933146
51	0xbbb3cacb	-0.0054868213
52	0xbd5ab8e1	-0.05339897
53	0xbd1bc360	-0.03802812
54	0x3b29c4d5	0.0025904675
55	0xbcf252e0	-0.029580534
56	0xbd72fa14	-0.059320524
57	0xbd3bcc6f	-0.04584926
58	0xbc05ebe9	-0.008173921
59	0xbd846bdd	-0.06465886
60	0x3d117825	0.03551497
61	0xbd1303ae	-0.03589218
62	0xbd3afb70	-0.045649946
63	0x3d5d85bc	0.054082617
64	0x3d35d47a	0.044392087
65	0xbd6b34c9	-0.057423387
66	0xbcc82362	-0.024430934
67	0xbca426b3	-0.020037984
68	0xbc240664	-0.010011289
69	0x3cdaadc4	0.026694186
70	0x3d05a649	0.032629285
71	0xbd57f267	-0.052721407
72	0xbd8388db	-0.064225875
73	0xbbc1e8ba	-0.0059176357
74	0xbd767538	-0.060170382
75	0xbd3ad506	-0.04561331
76	0x3d37f5a9	0.044912014
77	0xbc98a3dd	-0.018632824
78	0x3cb2130e	0.021737602
79	0xbd0e1e33	-0.03469677
80	0x3c9c006b	0.019043168
81	0x3d0facd2	0.035076924
82	0xbd129084	-0.035782352
83	0x3d3d303e	0.046188585
84	0xbd799418	-0.06093225
85	0x3d42ecf0	0.047589242
86	0x3ce4003d	0.027832145
87	0x3ce67804	0.0281334
88	0x3cfb5fc7	0.030685319
89	0x3c53b2c9	0.012921044
90	0x3cad5cff	0.021162508
91	0xbd672f73	-0.056441735
92	0x3d6b10c5	0.05738904
93	0xba0ee669	-0.0005451204
94	0xbc440bfd	-0.011965749
95	0x3d1078f4	0.0352716
96	0xbd661098	-0.05616817
97	0x3d6226f0	0.055212915
98	0x3c380868	0.011232473
99	0xbbef0f53	-0.007295528
100	0xbd096aa7	-0.033548977
101	0x3d42c27f	0.047548767
102	0xbd5cc0a6	-0.05389466
103	0x3c5e0fc1	0.013553561
104	0xbd0875ca	-0.033315457
105	0xbd7f616a	-0.06234876
106	0xbd356d0f	-0.04429346
107	0xbd18f883	-0.037346374
108	0x3d52323a	0.05131743
109	0xbd3546b7	-0.044256892
110	0xbd40d4e0	-0.047078013
111	0xbc1fa322	-0.009743484
112	0x3d4898f3	0.04897399
113	0xbd6a4a83	-0.057199966
114	0xbc4e3c85	-0.012587671
115	0x3cec8830	0.028873533
116	0x3cf656fe	0.030070778
117	0xbd34fb51	-0.044184987
118	0x3d566070	0.052338064
119	0x3d254924	0.040352955
120	0xbd5ac216	-0.05340775
121	0x3cb65b53	0.022260344
122	0xbd40fbd6	-0.04711517
123	0xbc6d4920	-0.014482766
124	0x3c2af76d	0.0104349675
125	0xbd7f0b51	-0.06226665
126	0x3c20a384	0.00980461
127	0x3d511a5f	0.05105054
128	0xbcd030ae	-0.025413837
129	0x3d649af2	0.05581183
130	0xbcf7c59d	-0.030245597
131	0xbc0f2390	-0.008736506
132	0xbd78dd1a	-0.060757734
133	0xbc0b7832	-0.0085125435
134	0x3d248705	0.040167827
135	0xbcd4ca0b	-0.025975248
136	0xbc23d8c6	-0.010000413
137	0xbaa014f8	-0.001221328
138	0x3c93fbeb	0.01806446
139	0x3d49f8dd	0.0493096
140	0x3b85342c	0.0040650573
141	0xbd7740df	-0.0603646
142	0xbc8f2c3d	-0.01747715
143	0x3d3720be	0.04470896
144	0x3c0fe611	0.008782879
145	0x3d39b862	0.045341857
146	0xbd41f378	-0.04735133
147	0x3d0ad697	0.033896055
148	0xbbb561de	-0.0055353483
149	0x3d436d8c	0.047711894
150	0xbd1c7e76	-0.03820654
151	0xbd0d7c0b	-0.034542125
152	0x3d2ea69b	0.042639356
153	0xbbdff31a	-0.0068344
154	0x3c04c302	0.008103134
155	0xbcc1485e	-0.023594078
156	0xbcc3455d	-0.023836786
157	0xbd23e539	-0.040013526
158	0xbbce9e5a	-0.006305498
159	0x3c86b198	0.016442105
160	0xbd036b51	-0.032084767
161	0xbd33cc3c	-0.043895945
162	0x3b6273ca	0.003455388
163	0xbc997540	-0.018732667
164	0xbd4c2ac0	-0.049845457
165	0x3d2909c2	0.04126907
166	0x3d78fa89	0.060785804
167	0x3d16f900	0.03685856
168	0x3b412525	0.0029471603
169	0xbc90c6d1	-0.017672928
170	0x3d488e7d	0.048964012
171	0xbcec1a7f	-0.028821228
172	0xbd1addc6	-0.037809156
173	0x3d34424b	0.044008534
174	0x3d6a3de5	0.057187933
175	0x3d174357	0.036929455
176	0xbd1e9760	-0.03871858
177	0xbcea73d2	-0.02861968
178	0xbc58d219	-0.013233685
179	0x3c29e1fa	0.010368818
180	0xbd3c8759	-0.046027515
181	0x3b1d21d0	0.0023976453
182	0x3d4b38ff	0.049614903
183	0xbce8d96d	-0.02842399
184	0x3b2ee9c8	0.0026689637
185	0x3d5c79ca	0.053827085
186	0x3ccc0d88	0.024908796
187	0x3c8ae127	0.016953064
188	0xbd1ea2f4	-0.038729623
189	0x3c04720c	0.0080838315
190	0x3d04ae11	0.032392565
191	0xbbd644b2	-0.006538951
192	0xb9cad20f	-0.00038684948
193	0xbd27c936	-0.040963374
194	0x3ccd65fe	0.025073048
195	0x3b649103	0.0034876473
196	0x3a8d3808	0.0010774145
197	0x3c9fcb2c	0.01950606
198	0xbc5a78da	-0.013334477
199	0xbd884452	-0.06653656
200	0x3d281de5	0.041044135
201	0x3bda982f	0.0066709737
202	0xbcfb857f	-0.030703304
203	0xbd76c745	-0.060248632
204	0xbd0d5715	-0.034506876
205	0xbc10b071	-0.008831129
206	0xbc6238cc	-0.013807487
207	0xbcf1951e	-0.02949005
208	0x3ca7bf05	0.020476827
209	0x3a6f4b89	0.0009128382
210	0xbd6e6de0	-0.058210254
211	0x3ce0f1a0	0.027458966
212	0x3d0dd7d1	0.034629647
213	0x3a4b3bf5	0.000775277
214	0x3d093e3f	0.033506628
215	0x3d0a15a9	0.033712063
216	0x3d3892e6	0.04506197
217	0xbd669433	-0.056293678
218	0xbd324d57	-0.04353079
219	0xbd56c9ea	-0.052438654
220	0x3d1547e0	0.0364455
221	0xbbba273c	-0.0056809466
222	0xbd63bdba	-0.05560086
223	0x3d4822be	0.048861258
224	0x3cfcf05d	0.030876333
225	0xbc99737f	-0.01873183
226	0xbc727be4	-0.014800046
227	0x3cfe908d	0.031074787
228	0xbd84dea3	-0.06487777
229	0xbc77599f	-0.015097051
230	0xbd6e898a	-0.058236636
231	0x3c7a2f5e	0.015270082
232	0x3ce1de67	0.02757187
233	0xbd8751da	-0.06607409
234	0xbc9b64a7	-0.018968893
235	0x3c4497ed	0.011999113
236	0xbd537b02	-0.05163098
237	0xbd51a5eb	-0.051183622
238	0x3d42e260	0.04757917
239	0xbcb754cd	-0.022379303
240	0x3d605c63	0.054775607
241	0xbc5af74c	-0.013364624
242	0xbcc81cfc	-0.024427883
243	0x3b42f328	0.0029746983
244	0xbd7032e2	-0.058642276
245	0xbca10fb9	-0.019660817
246	0xbd607186	-0.054795764
247	0xbd81d6c5	-0.06339792
248	0x3c3ffadb	0.011717523
249	0xbd0e70e9	-0.03477565
250	0xbbfba273	-0.0076792776
251	0x3c764be4	0.015032742
252	0xbd08d43d	-0.03340553
253	0xba63a3c6	-0.0008683767
254	0xbd844338	-0.064581335
255	0xbd0377e4	-0.03209676

linear2.bias f4 [256]
0	0x3d58f9a1	0.05297244
1	0x3da5265c	0.08063957
2	0x3d581229	0.052751694
3	0xbd177bb0	-0.036983192
4	0x3d276fe6	0.0408782
5	0x3d473e12	0.04864318
6	0x3d72e4f5	0.05930038
7	0xbd5f3b1e	-0.054499738
8	0x3dc8ea31	0.098102935
9	0xbd2184e0	-0.03943336
10	0x3c13a961	0.009012551
11	0x3cec8615	0.028872529
12	0x3bb8415b	0.0056230254
13	0x3d18d46f	0.037311967
14	0x3d910de6	0.07082729
15	0x3cc20eb2	0.023688648
16	0xbb48ed7b	-0.0030659128
17	0xbcf1f34c	-0.029534958
18	0x3cda068b	0.026614448
19	0x3cab1fdf	0.02088922
20	0xbd487f39	-0.048949454
21	0xbd74a487	-0.059727218
22	0xbd7c8de8	-0.06165877
23	0x3d217679	0.039419625
24	0x3ccb5565	0.024820993
25	0xbbe6c178	-0.0070421062
26	0x3aad133e	0.0013204587
27	0x3d254a6b	0.040354174
28	0x3dbf88bd	0.09352253
29	0xbd0310c4	-0.03199841
30	0x3c8f1841	0.01746762
31	0xbc99d8c2	-0.018780116
32	0xbcf7cf1f	-0.03025013
33	0x3c4a6adc	0.012354579
34	0x3c62213c	0.013801869
35	0xbd1f5c98	-0.038906664
36	0xbcbbd4bb	-0.022928586
37	0xbd6e2798	-0.05814323
38	0xbb86083b	-0.0040903366
39	0x3d5f0769	0.054450426
40	0xbcd24dc0	-0.02567184
41	0x3b94cf6e	0.004541329
42	0xbd2fa3a6	-0.042880677
43	0x3d65b03d	0.056076277
44	0xbd47c24f	-0.04876929
45	0xbc9be596	-0.019030374
46	0xbc8c6bd3	-0.017141258
47	0xbcdfc4a4	-0.027315445
48	0x3d71034d	0.05884104
49	0x3d79a4f4	0.060948327
50	0xbd0df694	-0.034658983
51	0x3c8c8787	0.017154468
52	0xbd759db4	-0.05996485
53	0x3ceb6222	0.028733317
54	0x3ce334e8	0.027735189
55	0x3d58cf0a	0.052931823
56	0xbd280ad6	-0.04102596
57	0xbcf553b9	-0.029947149
58	0x3dc41a8e	0.095753774
59	0xbd6f4469	-0.05841485
60	0x3d0a2dda	0.033735134
61	0x3d85d884	0.06535438
62	0x3d65699f	0.05600893
63	0x3c24d465	0.010060404
64	0xbd22906b	-0.03968851
65	0xbd4ea8a3	-0.050453793
66	0xbd00cbe8	-0.03144446
67	0x3c91866e	0.017764296
68	0xbd21230b	-0.03934006
69	0xbd7c237c	-0.061557278
70	0x3cfffa41	0.03124726
71	0xbd84ecf4	-0.06490508
72	0x3dabc513	0.08387198
73	0xbdab3991	-0.08360589
74	0xbd57b350	-0.05266124
75	0xbcbba466	-0.02290554
76	0xbd099052	-0.0335849
77	0xbb891436	-0.0041833175
78	0x3d7c2fbc	0.06156896
79	0x3cfeff27	0.031127525
80	0x3c57e0a4	0.013176117
81	0xbc288e8b	-0.010287891
82	0x3d0993a6	0.033588074
83	0xbbe97c58	-0.0071254186
84	0x3d86dce2	0.06585099
85	0xbd396b84	-0.04526855
86	0x3d76708c	0.060165927
87	0xba8a7788	-0.0010564188
88	0xbd408c3a	-0.04700873
89	0xbd994d13	-0.07485404
90	0x3db7aa37	0.08968013
91	0x3d134982	0.035958774
92	0xbd4efeec	-0.05053608
93	0x3b187891	0.0023265223
94	0x3c9b672d	0.018970096
95	0xbc71cd5e	-0.014758436
96	0xbd75abbd	-0.059978236
97	0x3d5aa7e6	0.053382777
98	0xbcb92364	-0.022599883
99	0x3d6871e5	0.056749243
100	0xbc6b91a4	-0.014377985
101	0xbcb0b6f5	-0.021571616
102	0x3c879cc5	0.016554246
103	0xbd7bafac	-0.06144683
104	0x3d8258b4	0.06364575
105	0xbd052d8d	-0.032514144
106	0x3dc4fabb	0.096181355
107	0x3cf2145f	0.02955073
108	0x3d206f6e	0.039168768
109	0x3d249819	0.040184114
110	0xbd769f62	-0.060210593
111	0x3d7d0e41	0.06178117
112	0x3d96e927	0.07368689
113	0x3b3b4684	0.0028575966
114	0xbd45205d	-0.048126567
115	0xbd99060c	-0.074718565
116	0xbcc1d3fe	-0.023660656
117	0xbd641582	-0.055684574
118	0xbca68ea7	-0.020331694
119	0xbd89348b	-0.06699475
120	0x3d10a3b5	0.035312373
121	0x3d395763	0.045249354
122	0x3ce6b6fa	0.028163422
123	0x3c875092	0.016517911
124	0xbc77a466	-0.015114879
125	0x3cbb52d9	0.022866653
126	0x3bf3da88	0.0074418224
127	0x3cc18f1a	0.023627806
128	0x3c7ea886	0.015543109
129	0x3d864a12	0.065570965
130	0xbc85c112	-0.016327415
131	0xbc9500b6	-0.018188816
132	0xbccd3e89	-0.025054233
133	0x3db2b592	0.08726038
134	0xbd998d17	-0.07497614
135	0x3b598850	0.003319282
136	0x3ce1d1f0	0.027565926
137	0x3d1000a3	0.035156857
138	0x3c93de4e	0.01805034
139	0x3cf1d153	0.029518759
140	0xbccc0296	-0.024903577
141	0x3cebb4a8	0.028772667
142	0x3cea8434	0.028627492
143	0xbc948e98	-0.0181344
144	0x3bfc1cec	0.0076938774
145	0x3be10a2b	0.006867667
146	0x3d847b44	0.064688236
147	0xbbd6186f	-0.0065336744
148	0x3d72daa3	0.05929054
149	0x3c812fc5	0.015769849
150	0xbcd4f941	-0.02599776
151	0x3d114689	0.03546766
152	0x3d014cee	0.031567506
153	0x3d98e78b	0.07466038
154	0x3cccb325	0.024987767
155	0x3d6755d6	0.056478344
156	0x3d36e16c	0.044648573
157	0x3c24242e	0.010018392
158	0xbd237a31	-0.039911453
159	0xbc94b496	-0.018152516
160	0xbd1abb26	-0.037776135
161	0x3cf1bd34	0.029509164
162	0xbb8b6941	-0.0042544906
163	0x3d89a67f	0.0672121
164	0xbd7b1f97	-0.061309423
165	0xbd10ef71	-0.0353846
166	0xbce02d0f	-0.027365236
167	0x3d501653	0.05080254
168	0xbca795a5	-0.020457098
169	0x3cfbcdd4	0.030737795
170	0x3d4e38f0	0.05034727
171	0x3cd64529	0.026156025
172	0x3d2b17da	0.041770793
173	0x3cf032d8	0.02932112
174	0xbd254f95	-0.0403591
175	0x3d3953e8	0.045246035
176	0x3d8f7710	0.07005131
177	0xbd1a643d	-0.03769325
178	0xbd5750f8	-0.052567452
179	0xbc091685	-0.0083671855
180	0xbc20ef83	-0.009822729
181	0x3c524286	0.012833243
182	0xbd97e093	-0.07415881
183	0xbc9e455d	-0.019320184
184	0xbc2d4cb9	-0.010577374
185	0x3d7077de	0.058708064
186	0x3d3686c1	0.044562105
187	0x3d2094d4	0.039204434
188	0xbd1407b2	-0.03614015
189	0x3d4614cb	0.048359673
190	0xbb4966e3	-0.0030731491
191	0x3c789b37	0.015173725
192	0x3cd00593	0.025393283
193	0xbc558b63	-0.013033721
194	0xbd75c38d	-0.060000945
195	0x3d9f4faf	0.0777887
196	0x3d717bb9	0.05895588
197	0x3d041442	0.03224588
198	0x3c1174d0	0.008877948
199	0xbcd6e686	-0.026232969
200	0xbd57fb16	-0.05272969
201	0x3db5ed7c	0.08883187
202	0x3d4cbbae	0.049983673
203	0x3dbdd21e	0.09268592
204	0xba8ede5f	-0.0010900012
205	0xbce687c2	-0.028140906
206	0xbd30ef52	-0.043196984
207	0x3c964114	0.018341579
208	0xbb9b1139	-0.0047322777
209	0x3c170380	0.009217143
210	0x3d79f509	0.0610247
211	0xbd9e75fd	-0.07737348
212	0x3bb7d336	0.005609895
213	0x3cd9d7a7	0.026592089
214	0x3cbdf607	0.023188604
215	0x3d8df835	0.06932107
216	0xbc006c5e	-0.007838337
217	0xb9940dbc	-0.00028238993
218	0x3d20ba13	0.039239954
219	0xbc49084f	-0.012270047
220	0x3d4743c1	0.0486486
221	0xbc61fe80	-0.013793588
222	0x3c45ea15	0.012079735
223	0x3d1be33e	0.038058512
224	0xbcde9a7f	-0.027173279
225	0xbd9a0d98	-0.07522124
226	0xbcdd0727	-0.02698095
227	0xbd0cb6ad	-0.0343539
228	0xbc12e0bd	-0.008964715
229	0xbc91e56c	-0.017809592
230	0x3d53a17b	0.05166767
231	0xbc49e2d0	-0.012322143
232	0x3c962397	0.018327517
233	0xbc355de4	-0.011069749
234	0x3cdef8b4	0.0272182
235	0xbd614422	-0.054996617
236	0x3c877ea0	0.016539872
237	0xbcf6ab94	-0.030111112
238	0xbaf12a32	-0.0018399416
239	0x3c1fb864	0.009748552
240	0xbd66c648	-0.05634144
241	0x3bbea371	0.0058178236
242	0x3d54e35c	0.05197464
243	0x3da382fa	0.07983966
244	0x3d50fe35	0.05102368
245	0x3c678e2b	0.014133017
246	0x3ca39e05	0.01997281
247	0x3d362f6c	0.04447882
248	0x3d07bf84	0.033141628
249	0xbcff5814	-0.031169929
250	0xbb1e408d	-0.0024147362
251	0xbd14133d	-0.03615116
252	0x3c81d13c	0.015846841
253	0x3d70eb1c	0.058817968
254	0x3d18f5cb	0.03734378
255	0xbd86afa1	-0.06576467

linear3.weight f4 [3, 256]
0	0x3d40bd91	0.047055785
1	0x3e4374ba	0.19087496
2	0xbe6d08b7	-0.23147856
3	0xbe63c5fd	-0.22243495
4	0xbdeb3ecb	-0.11486586
5	0x3b794c74	0.0038039954
6	0xbd49ea09	-0.04929546
7	0xbd721438	-0.059101313
8	0x3e54b94f	0.20773815
9	0xbc5caf6e	-0.01346956
10	0x3db8fbef	0.090324275
11	0xbde6e5d9	-0.11274309
12	0x3c14a1ef	0.009071811
13	0xbd615023	-0.055008065
14	0xbde6f654	-0.11277452
15	0x3e11b463	0.14228968
16	0x3da82aff	0.08211326
17	0x3d3bd144	0.045853868
18	0xbe1513d0	-0.14558339
19	0xbe027c18	-0.1274265
20	0xbd15e331	-0.03659362
21	0x3d0498c2	0.032372244
22	0xbe45b00e	-0.19305441
23	0x3d27933e	0.040911905
24	0xbe29b896	-0.1657432
25	0x3db89de9	0.09014494
26	0xbcde2232	-0.027115915
27	0x3c7617d6	0.015020331
28	0x3e6a0b16	0.22855791
29	0x3d9efe47	0.07763343
30	0x3d773de8	0.060361773
31	0x3d948edb	0.0725381
32	0xbeeaf6c1	-0.45891383
33	0x3d95a5f0	0.07307041
34	0xbe513545	-0.20430477
35	0xbd939695	-0.072064556
36	0xbe1f1e9f	-0.15539025
37	0x3d555847	0.05208614
38	0x3d19d24c	0.03755407
39	0x3e3dbdac	0.18529385
40	0x3da36559	0.07978315
41	0x3c93bf8d	0.018035674
42	0xbde3a8bc	-0.11116168
43	0x3e1bf232	0.15229109
44	0x3d299405	0.041400928
45	0xbdfeddf7	-0.1244468
46	0x3d921968	0.07133752
47	0x3dcec28c	0.100957006
48	0x3d518925	0.05115618
49	0xbe8c1954	-0.27363074
50	0x3dcfa5ac	0.10139021
51	0x3e28d02d	0.16485663
52	0xbe610f5c	-0.21978515
53	0x3d96c8ff	0.07362556
54	0x3dfe2462	0.12409283
55	0xbe17fca6	-0.14842471
56	0xbe12dff3	-0.14343242
57	0x3d363abf	0.04448962
58	0x3d40e796	0.047095858
59	0xbd5b5268	-0.053545386
60	0x3dd95321	0.10611559
61	0xbe3f1ef4	-0.18664151
62	0x3e0d1125	0.13776071
63	0x3d18b811	0.037284914
64	0x3db5af13	0.088712834
65	0xbe453189	-0.19257177
66	0x3d448506	0.047978424
67	0xbed319de	-0.41230673
68	0xbd769cb4	-0.060208037
69	0xbe86ffda	-0.26367074
70	0x3de52056	0.11187808
71	0xbd12cca4	-0.03583969
72	0xbdc87f63	-0.09789922
73	0xbe26e40c	-0.1629793
74	0x3dc7cde3	0.09756067
75	0xbe27476a	-0.16335836
76	0xbcada0cb	-0.021194836
77	0xbe460a8f	-0.19339965
78	0xbdc9f44a	-0.098610476
79	0xbe4adaa9	-0.19809975
80	0x3de6df6e	0.112730846
81	0x3d232d83	0.039838325
82	0xbe17c4c9	-0.14821161
83	0x3e17aa6a	0.14811102
84	0x3b9e9f85	0.0048407936
85	0xbdec2b46	-0.11531691
86	0x3e30626f	0.1722505
87	0x3d4220bd	0.047394503
88	0x3d2724f9	0.040806744
89	0xbd61fa4c	-0.055170342
90	0xbc816c1e	-0.015798625
91	0xbed5491d	-0.41657344
92	0x3d13cede	0.036085956
93	0x3e2e4ca3	0.17021422
94	0x3e043331	0.12910153
95	0xbdf6e4ab	-0.12055334
96	0x3d9dfb02	0.077138916
97	0x3cca67e3	0.02470774
98	0xbdf74484	-0.12073615
99	0x3d1ac98b	0.037789863
100	0x3e2581cc	0.16162795
101	0xbcba429c	-0.02273684
102	0xbe803594	-0.25040877
103	0x3bcf8577	0.006333049
104	0xbc99b7ca	-0.018764395
105	0x3dc03420	0.09384942
106	0x3e02a7ae	0.12759277
107	0x3e84ff4f	0.25976035
108	0xbee2197b	-0.44160065
109	0xbf172d40	-0.5905342
110	0xbd13133c	-0.035907015
111	0x3c94be5b	0.018157175
112	0xbcd6c335	-0.026216129
113	0xbad0454a	-0.001588979
114	0xbea4b4af	-0.321691
115	0xbe3ebd90	-0.18627
116	0x3d199215	0.03749283
117	0x3c64e756	0.01397117
118	0x3dd96f0b	0.10616883
119	0xbdd75dc4	-0.10515931
120	0xbe414f42	-0.1887789
121	0xbcedaf5f	-0.029014288
122	0xbe33920a	-0.17536178
123	0xbda9c443	-0.08289387
124	0xbd99ed4c	-0.07515964
125	0x3dd006ab	0.10157522
126	0x3e021a5b	0.12705366
127	0x3c34c665	0.011033629
128	0x3db2561e	0.08707832
129	0xbd42bc1d	-0.04754268
130	0xbe0493de	-0.12947032
131	0xbdc35ab7	-0.09538787
132	0xbc87b2f6	-0.016564827
133	0x3d257d03	0.040402424
134	0x3c4bf926	0.012449538
135	0xbd6a2ab1	-0.05716962
136	0xbdc08df9	-0.09402079
137	0xbe8714b9	-0.26382998
138	0x3b37a53f	0.0028022078
139	0xbe3038fe	-0.17209241
140	0x3bd6dbad	0.006556949
141	0x3dea7abd	0.11449192
142	0xbd9b7f77	-0.07592671
143	0x3d493ec2	0.049132116
144	0x3d8ed85b	0.0697486
145	0x3d466120	0.04843247
146	0xbc01d099	-0.007923269
147	0x3da29538	0.079386175
148	0xbe1cc5b2	-0.1530979
149	0x3d6adc49	0.057338987
150	0x3da1a4ff	0.07892799
151	0x39740548	0.00023271621
152	0xbd98d563	-0.07462575
153	0x3e31dff2	0.17370585
154	0x3d5e120e	0.054216437
155	0x3d8848a4	0.0665448
156	0x3e0c8dd3	0.13725977
157	0xbcbea71c	-0.023273043
158	0xbd081aba	-0.033228613
159	0x3e17a589	0.1480924
160	0xbdce2eb9	-0.100675054
161	0xbd08aba6	-0.03336682
162	0xbe6795d6	-0.22615752
163	0xbde2b16f	-0.11068999
164	0x3d44c982	0.048043735
165	0x3e804d3d	0.25058928
166	0xbdef0bc6	-0.116721675
167	0x3d1b7e3f	0.037962195
168	0x3ddea407	0.108711295
169	0xbd545c88	-0.051846057
170	0xbe1caee2	-0.15301087
171	0xbd9eb00d	-0.07748423
172	0x3c2e4d00	0.010638475
173	0x3e3489e8	0.17630732
174	0x3d91b628	0.07114822
175	0xbda78581	-0.08179761
176	0x3e0b44f8	0.13600528
177	0xbd6f39d4	-0.05840476
178	0xbdc0f00c	-0.09420785
179	0xbe425bc5	-0.1898032
180	0x3c184d70	0.009295806
181	0x3e0f79ad	0.1401126
182	0xbe6e10f2	-0.23248652
183	0xbe173091	-0.1476462
184	0xbda7f9e7	-0.08201962
185	0x3db75939	0.08952565
186	0x3df93531	0.121683486
187	0x3db1dbab	0.086844765
188	0xbd2bdc5b	-0.041958194
189	0x3dd1b208	0.10239035
190	0xbcb09f04	-0.0215602
191	0x3c126d6f	0.008937224
192	0xbe8ad71d	-0.27117243
193	0xbcf6d92b	-0.03013285
194	0x3cac5425	0.021036217
195	0x3db272bc	0.0871329
196	0x3e4e7b55	0.20164235
197	0xbba7c9ac	-0.0051204767
198	0xbda65ccd	-0.08123169
199	0x3e6667f8	0.22500598
200	0xbe99e8de	-0.30060476
201	0x3e2c9ab1	0.16855885
202	0xbb89e9cb	-0.0042087785
203	0x3e89ca5d	0.26912203
204	0xbda04bf5	-0.07826988
205	0xbcd097da	-0.025463033
206	0x3c417787	0.011808283
207	0xbd9fcc0c	-0.07802591
208	0x3d4451c3	0.047929537
209	0xbe5ef30a	-0.217724
210	0xbde29cf2	-0.11065091
211	0xbdeef07d	-0.11666963
212	0x3e340115	0.17578538
213	0x3cd5077b	0.026004544
214	0xbe1498f4	-0.14511472
215	0xbe0959d5	-0.13413174
216	0x3d32dd89	0.043668304
217	0xbe7cdbe1	-0.24693252
218	0xbe19f4e6	-0.15034828
219	0x3cb87400	0.02251625
220	0x3e3d4096	0.18481669
221	0x3e00d614	0.12581664
222	0x3e5b15a7	0.21394978
223	0xbe03faf6	-0.12888703
224	0x3e8806e9	0.26567772
225	0xbd1d94c5	-0.038471956
226	0x3e55962f	0.20858072
227	0xbca36ae3	-0.019948428
228	0xbca1af6e	-0.019736972
229	0xbda0f848	-0.07859856
230	0xbe4fa7fe	-0.20278928
231	0xbd3f519c	-0.04670869
232	0x3ce42c46	0.027853142
233	0xbe305aae	-0.17222092
234	0x3d7fe65c	0.062475547
235	0xbbecb651	-0.0072238822
236	0x3e238fb1	0.15972783
237	0xbd3c137d	-0.045917023
238	0xbc27500a	-0.010211954
239	0x3e22e647	0.15908156
240	0x3d5bf6f9	0.05370233
241	0x3d8e2650	0.06940901
242	0x3d84514f	0.06460821
243	0x3c5f6b2e	0.0136363935
244	0x3ad66cd6	0.001635934
245	0xbeb8cce6	-0.36093825
246	0xbe5f5dda	-0.21813145
247	0x3e17f807	0.14840709
248	0x3cbef992	0.023312364
249	0x3d79b872	0.060966916
250	0x3df42ec3	0.119229816
251	0xbe162d76	-0.1466578
252	0xbdee1884	-0.1162577
253	0x3e3d797a	0.18503371
254	0xbc60f4de	-0.013730256
255	0x3e8100fa	0.25196058

linear3.bias f4 [3]
0	0x3d8d5e69	0.06902773
1	0xbd03e1da	-0.03219781
2	0xbbc3acbd	-0.0059715197
