version_2_points_without_rotation/DDPG_GPU_MPI/w32_s_t005/critic.pth (torch, 290647 bytes, 6 tensors)

linear1.weight f4 [256, 21]
00000000: c77d 3dbd b9f7 34bd b2fb b9bb 5f64 36b9
00000010: f0de 0eb6 a467 25b9 653c 95be b193 b8bc
00000020: 12c8 2abe 83cb afbe 4231 f9bd c127 1e3e
00000030: 17d2 5e3e eb29 4e3d 429f 483e 8415 b63e
00000040: eba1 c53d 3884 83bd c745 01bb 3631 d1ba
00000050: 8898 00bb 34e7 d6be 1abc 8cbe 3f87 a23d
00000060: cae1 7cba 000b 9fb9 2f5d 1d3a a278 bdbe
00000070: 3bbb d6be 1210 343e cb6f 3c3e 8d58 a33e
00000080: cbbb 46be 5429 943e e35a 1abf 6c57 4d3d
00000090: 4b3b ca3d 5a65 103e 7006 013e 6c99 0abd
000000a0: 6e21 39bc 3906 49bb 9d53 0fbd f1fe 10bd
000000b0: d879 003e ac12 81b9 eed7 2b39 b962 17ba
000000c0: fa35 9c3c 6637 eebc 854b 7abe cebd b1be
000000d0: 8509 a4be 8af1 8fbe 1014 9c3d 7ef7 cf3e
000000e0: 23f4 633d 4a49 a33e 31a6 85bd 22ff 303e
000000f0: 0101 bc3a 0133 7c3a 18e9 b5bb d2e1 e4bd
00000100: 16b0 5d3d 4414 943c c566 65bc 5e6b 7c3c
00000110: eaca 183c 55fc bf3d 7dc7 3a3d 8b89 22bd
00000120: b92a 143e 168a 29bf 7cbc 4e3e aef7 193c
00000130: b4f9 483e 86c9 98be 2c61 f63d 9b34 213f
00000140: f11f ef3c 655e 7b3d 3f7a 143c 837b 9bbc
00000150: ba49 203e 79f7 ca3e 706e a33b 8c1a 99bb
00000160: 049c 833b 2799 a13a 2106 ea3d f019 c6be
00000170: c5a3 8bbc 0558 d83d 7147 9bbe e299 7d3e
00000180: 53f6 8abd 4ede 0a3f 5065 3ebd 970f 20be
00000190: d795 c13e 7834 4ebe e3ba df3c 44b9 2fbd
000001a0: 0ce9 fabc 3006 963d 2032 e8bd ab2a 223e
000001b0: c11a 00bd c018 53bc 9658 373d f347 3a3e
000001c0: c010 30be 36dd b33b 233a 1c3e c0b7 1bbe
000001d0: d893 8d3e 3bd8 0fbe 1afa 5a3e 9e93 80be
000001e0: 7072 78bd 728c 20bd cc93 afbe be15 96bc
000001f0: c554 853c 6b6a 67bd 88b6 6e3d 5aae 91be
00000200: bb0c c43b cf5f c8bc a9b2 95bd bac8 343a
00000210: 9740 51be be7a bf3d a073 9a3c 48a6 88be
00000220: 1ea1 83be c13a 17bd f65d 0cbe d975 d03e
00000230: 701e 87bd ad90 a2bd 88ce 073f 8a12 1ebe
00000240: 6890 16be 0d65 8abd 0327 ea3d a2a9 9fbd
00000250: 3357 873d dc6c d63d 46fb 5c3d 979e 9fbc
00000260: 5d74 b5bc 74c6 313e 46f8 d93e d060 e43d
00000270: 407d 743e 7511 b13e fbe1 0dbd 71a9 973d
00000280: e80f 9bbe 2d82 12be 2b7f 92be ec14 5abe
00000290: 4774 5dbd 9209 2b3c 3d49 5bbd 9f3a 143d
000002a0: 5dca de3d 4c3b 6dbe 20dc 4d3e 0275 1cbc
000002b0: 10c6 a8bc d776 a23c 80ae 813c 7408 cabd
000002c0: b190 29be 5b09 a2be a165 6d3e fb7b 4f3d
000002d0: 4aca 38be e72d b73e 90d4 f03d aafa 0f3d
000002e0: 715f 5fbe 29ad 8e3e 577a 2cbc 3255 11bd
000002f0: 115d 3b3d 9d8d 413d 91af 7c3d 2e2b 9d3d
00000300: 2151 1b3d e914 38bc 42d8 bfbc 4b82 103e
00000310: dec1 96be 2ffc 233e dd62 91bd 826e d43d
00000320: 27ef 85bc 52d8 363e 0170 183b 809a 8abe
00000330: 037c aabd 283f af3e 7a66 78be 5de2 efbc
00000340: b9d2 fb3c 15c9 bd3b a9dd 0ebd dc11 5dbf
00000350: e1b6 a43e 153b a4b9 e33e 6d3a 9fdb 1739
00000360: be6d eb3b b628 20bf 255b febd 5800 373d
00000370: 9475 16bf 7b6e d73d 8c94 3bbe 94af cb3f
00000380: 7a22 ed3d 318d 973d 4cb7 47bd a0fa d6bd
00000390: 2321 de3b 533d 01bd 31a5 403c 5412 673e
000003a0: 17b7 c43d 0de4 f03d 3851 873b 84c3 413a
000003b0: da46 b2bb 815b 0ebd c3f4 75bf c568 9dbd
000003c0: aebf a4be 23a0 29bf 3d01 ddbd 7d72 083d
000003d0: fa52 013e 273c 023d 6886 cfbd 4fb5 063f
000003e0: e3a5 27be 965d 083d b5db 283d de68 813c
000003f0: 85f5 84bc 8812 3c3e d692 1dbe 1e26 863b
-0.04626253 -0.04418156 -0.0056757564 -0.00017394264 -2.1289416e-06 -0.00015774235 -0.2914764 -0.022531362
-0.16677883 -0.34334955 -0.12167598 0.15444852 0.2175983 0.050332945 0.19592002 0.3556329
0.09650024 -0.06421703 -0.0019725428 -0.00159601 -0.0019622166 -0.4197327 -0.2748726 0.079359524
-0.00096466823 -0.0003033504 0.000600296 -0.37006098 -0.4193972 0.17584255 0.1840202 0.31903496
-0.19407575 0.2893778 -0.6029493 0.0501322 0.098745905 0.14101163 0.12600112 -0.03383772
-0.011299474 -0.0030673875 -0.03499185 -0.03539938 0.1254648 -0.0002461871 0.00016388271 -0.00057749037
0.019068707 -0.02907915 -0.24442871 -0.34715122 -0.32038513 -0.28113967 0.07621014 0.4061851
0.05565275 0.31891853 -0.06525839 0.17284825 0.0014343561 0.0009620637 -0.0055514686 -0.11175884
0.054123007 0.01807607 -0.014001553 0.015406458 0.009325722 0.093743004 0.045600403 -0.039681952
0.14469422 -0.6622633 0.20189089 0.00939743 0.19626504 -0.2984125 0.12030253 0.62970895
0.029190036 0.06136932 0.009062349 -0.018979793 0.15653124 0.39641932 0.0049875304 -0.004672354
0.0040164012 0.0012328968 0.1142695 -0.38691664 -0.017045865 0.105636634 -0.30327943 0.24765733
-0.06785264 0.5424546 -0.046483338 -0.15630947 0.3780963 -0.20137203 0.027310794 -0.042901292
-0.030628704 0.07325399 -0.113376856 0.15836589 -0.031275515 -0.012884319 0.044762217 0.18191509
-0.1719389 0.005489017 0.15256552 -0.15206814 0.27651858 -0.14047329 0.21384469 -0.25112623
-0.06065601 -0.03919644 -0.34292448 -0.018320914 0.016275773 -0.056497972 0.058279544 -0.28453332
0.005982963 -0.024459748 -0.07309467 0.00068963657 -0.20434795 0.09349583 0.018853962 -0.26689363
-0.2570886 -0.036921266 -0.13707718 0.4071491 -0.06597602 -0.07937751 0.53049517 -0.1543676
-0.14703524 -0.06757555 0.11433222 -0.07796027 0.06608429 0.10469982 0.05395057 -0.019484801
-0.022150213 0.1736086 0.4257223 0.11151278 0.23875904 0.3458363 -0.03463934 0.07405365
-0.30285573 -0.1430747 -0.28612646 -0.21297044 -0.05406597 0.010439293 -0.053536642 0.036188718
0.108784415 -0.23167151 0.20103502 -0.009549381 -0.020602256 0.019832058 0.015830278 -0.098648936
-0.16559102 -0.31647763 0.231833 0.050655346 -0.18045917 0.35777208 0.11759293 0.03515116
-0.21813752 0.27866486 -0.010527215 -0.03548164 0.045743052 0.047254194 0.06169087 0.076742515
0.037919167 -0.011235454 -0.02341855 0.14112203 -0.29444784 0.16014169 -0.07098935 0.1037264
-0.016349388 0.17855957 0.002326012 -0.27071 -0.083244346 0.34227872 -0.24257842 -0.029282743
0.030740129 0.005791793 -0.03487936 -0.86355376 0.32170776 -0.00031324537 0.00090502034 0.00014482297
0.007184713 -0.6256212 -0.12419728 0.044678062 -0.5877316 0.10519119 -0.18318385 1.5912957
0.115788415 0.07399977 -0.04875879 -0.10497022 0.0067788525 -0.031552624 0.011758135 0.22565585
0.09605234 0.11762247 0.004129555 0.00073915 -0.005440575 -0.034755234 -0.960766 -0.07685999
-0.3217749 -0.66259974 -0.10791252 0.03331231 0.1262931 0.031795647 -0.10133058 0.52620405
-0.16371875 0.033292376 0.041225154 0.015797075 -0.016230354 0.18366444 -0.15388045 0.0040938994

linear1.bias f4 [256]
00000000: e735 023d 9469 df3d 9e64 343e a8ad 2e3c
00000010: e36c 81be fce1 67bd 9268 4a3e a3e3 e53c
00000020: 6ed6 fd3d 31c5 93bd b216 bdbd 6791 403e
00000030: 1af9 d9bd e503 3c3e 1c32 85be 6624 12be
00000040: eb0d 423e 40d1 a83b db64 16be f603 453c
00000050: 628c 71be 3871 953c 56e9 223e 74af 043e
00000060: 6edb a43c 441f 16be a525 89be 30f6 ad3c
00000070: 49f2 5c3e 6614 6cbd 57d4 27be 3b00 3bbc
00000080: d184 6dbd 1d98 8e3d 0a7e 26be e719 e83d
00000090: 0969 343d df40 ddbd be28 943e 8836 09be
000000a0: 82b6 593d cb4b 853e dae0 f33b 71b0 3d3e
000000b0: 6a53 91be 9175 96be 8127 41be 6771 b33d
000000c0: d414 bb3c 9e89 033d 102e 603e 42f6 7cbe
000000d0: 90e8 193d 16b6 1f3d f4d4 b33c 946e fe3d
000000e0: 9276 f7bc c517 223c 8686 683e a76f 253d
000000f0: 7afe 413e fda4 e6bd a012 413e 4b08 30bd
00000100: 804a 8d3e adef 04bd 047e 8a3d b5a7 783d
00000110: 193b b7bd e22d 4cbd 4ace 353e f07b 7e3d
00000120: 51ad 76be 67e3 933d b8a8 8d3d 07c1 d43d
00000130: c202 5c3e 8150 e53d a668 8cbe ca46 82bd
00000140: 918a 61be c045 e23d 5e19 b83d 83a9 073d
00000150: 8ab7 3c3e 5b60 82bd 67a2 36be 7f5c b53e
00000160: 74d2 71bd 06a9 b13c d166 85be 04d4 d63b
00000170: da46 313e 65e0 67be b21a bbbd 1e3e 1cbe
00000180: 1632 5fbe cfba 183e 9d93 f1bd bd48 2abe
00000190: edbe 77bd 946e 67be 0588 3abe a13c 0abe
000001a0: e81f edbc 971d 2a3e af61 153e c8db 8abd
000001b0: e7ef cf3d d610 0bbe 7b93 d33c 58e2 6cbd
000001c0: b101 543e 895d 0b3e 5e7a 1b3e f50a b03d
000001d0: 0d6e 0c3d bf53 0b3e 1aae b83d d851 84bc
000001e0: d7ff 353d 55b4 28be 324a be3e 5009 863d
000001f0: 9209 333e 53fa 67be 8bc2 82bd ed6d cebd
00000200: e77e adbe df09 90bc 47b2 9abd 814e 29bd
00000210: 3797 05be c506 093e 333b 64be b23c d1bc
00000220: 280f 623d fc86 2d3e 3433 4f3d 8b46 85bd
00000230: 3811 403e b8b4 0e3e 216e 06bd 42c3 7d3e
00000240: ce9e 16be 1aac 39bd fbcb 2e3e 344f cd3e
00000250: 44df 19be f80b 42be 751a b83c 3938 d7b9
00000260: 3ec6 273e 2e79 0a3e cccd 51be 846a c83d
00000270: 3f60 86be fd51 243d cd1a 3c3d 02d6 8d3d
00000280: e317 2e3e fa9b adbd ae56 e73c c17a 17be
00000290: bc66 bc3c eb76 e0bd a40f 57bc b11a 4abd
000002a0: 4202 82be 70e5 b93c 8c77 4c3d 2942 51bd
000002b0: c5f2 1dbe ea4c 3fbe edb1 2abe 63ca df3d
000002c0: 9521 49bc 9e78 4c3e 8de9 7b3e c5a0 c63a
000002d0: 2c69 5d3e f52b 043e 6361 7cbd f898 6ebd
000002e0: 7056 823e ec84 bd3d 9bb4 663e 6a46 a9bd
000002f0: 164e 87bd 2830 7d3d 5fbc 633e 5a64 e7bd
00000300: 13f2 22be b1c3 0fbe 8718 413e 4e49 9c3d
00000310: b8d4 533b a3e8 d4bd 5a37 a8bd d3bc aabd
00000320: 916a 0e3e 48fb 6c3e ddc2 0fbe df10 b7bd
00000330: 09eb 62bd 7847 45be e08b c4bd 6546 d03d
00000340: 2856 11be 308a 2f3e 9852 f6bc 1646 003e
00000350: 05a3 37be 26f3 32be f304 673d 6ca7 e2bd
00000360: d800 153d 538e e6bd 7e6d 603e fdbd 8dbe
00000370: 0ab9 d0bd a33f a7bc e1c9 323d 3095 b23e
00000380: f22a 26be 5c9b 13be 71e8 4dbe 429f 03be
00000390: 6d0c 93be 64de 0bbd 2d07 6c3c 2ce4 483b
000003a0: 326f 47be 9757 82bd 0345 8cbe 833c 4e3e
000003b0: 779c cd3e 3959 9cbe 1c77 9a3e 43a0 0b3d
000003c0: c28b ec3d 15d8 e3bd 4dd3 1fbe 6bcc 0abc
000003d0: 2681 dcbc 82a0 8abe 14d9 f5bd 1861 553e
000003e0: e9b2 dd3d b033 8b3e 4526 afbd 9418 b7bd
000003f0: 1e05 a33d 631a 243e 3e9d 5abe f49a aebd
0.031789687 0.10908809 0.17616507 0.01066152 -0.25278386 -0.056612 0.19766453 0.028062647
0.12394415 -0.07215346 -0.092328444 0.18805467 -0.106432155 0.1836086 -0.26014793 -0.14271697
0.18950622 0.0051518977 -0.14686911 0.01202487 -0.23588708 0.018242463 0.15909323 0.12957555
0.020124163 -0.14660364 -0.26786533 0.021235555 0.215768 -0.05763664 -0.16389595 -0.011413629
-0.05798799 0.06962607 -0.16259018 0.113330655 0.04404548 -0.10803389 0.28937334 -0.13399708
0.05315257 0.26034388 0.007442576 0.18524338 -0.28383952 -0.2938657 -0.18862726 0.08761864
0.02283708 0.032113664 0.21892571 -0.24703315 0.037575305 0.03899201 0.02195213 0.12423435
-0.030207906 0.009893362 0.22707567 0.040389683 0.18944731 -0.11261938 0.18854761 -0.04297666
0.275959 -0.032455135 0.06762317 0.060706813 -0.08946819 -0.049848445 0.17754474 0.062129915
-0.24089552 0.07221108 0.06916946 0.103883795 0.21485427 0.111969955 -0.2742359 -0.06361158
-0.22025515 0.1104846 0.089892134 0.033120643 0.1842939 -0.063660346 -0.17835389 0.3542213
-0.059038594 0.021687042 -0.26055005 0.006556036 0.17312184 -0.22644193 -0.09135951 -0.15258071
-0.2179645 0.14915012 -0.11795733 -0.1662931 -0.060484815 -0.22600776 -0.1821595 -0.1349969
-0.028945878 0.1661285 0.14588045 -0.06780201 0.101531796 -0.13580641 0.02582716 -0.057833046
0.2070377 0.136099 0.15183398 0.0859584 0.03428464 0.13606165 0.09017582 -0.016152307
0.04443344 -0.16475041 0.37165982 0.06544745 0.1748412 -0.22654085 -0.063847624 -0.100795604
-0.3388588 -0.017582832 -0.07553535 -0.041334633 -0.13045965 0.13381489 -0.22288208 -0.025541637
0.055190235 0.16946024 0.05058594 -0.06507596 0.18756568 0.13936126 -0.03281987 0.24781516
-0.14709017 -0.045330144 0.1707 0.4009949 -0.15026575 -0.18949878 0.022473553 -0.00041049885
0.16384217 0.13522789 -0.20488662 0.09785941 -0.26245305 0.040117253 0.045923997 0.069255844
0.170013 -0.08477016 0.028239574 -0.1479292 0.022998206 -0.10960182 -0.013126288 -0.04934186
-0.25392348 0.022692412 0.049918696 -0.051088486 -0.1542464 -0.18681684 -0.16669436 0.10927274
-0.012276073 0.19967887 0.24600811 0.0015154114 0.21622151 0.12907393 -0.061616313 -0.05825135
0.25456572 0.092538685 0.22529833 -0.082653835 -0.066066906 0.061813504 0.22239827 -0.112984374
-0.15912656 -0.14039494 0.18857013 0.07631169 0.0032322835 -0.103959344 -0.082136825 -0.083367966
0.1390784 0.23142731 -0.14039178 -0.08938765 -0.05539993 -0.19265544 -0.095969915 0.10169677
-0.14193022 0.17142558 -0.03006868 0.12526736 -0.17933281 -0.17475566 0.056401204 -0.110670894
0.036377758 -0.11257615 0.21916768 -0.27684012 -0.101915434 -0.020416087 0.043649558 0.34879446
-0.1622732 -0.14414734 -0.201082 -0.12853721 -0.28720418 -0.034147635 0.014406008 0.003065358
-0.19476011 -0.06364363 -0.27396402 0.20140271 0.40158436 -0.3053682 0.30168998 0.034088384
0.11550094 -0.11125199 -0.15607949 -0.008471589 -0.026917052 -0.27075583 -0.12004295 0.2083782
0.1082514 0.27187872 -0.08552221 -0.08940235 0.079599604 0.1602569 -0.21349046 -0.08525649

linear2.weight f4 [256, 256]
00000000: e88b d5bc 6733 fdbc 9bf2 8e3c b9c1 bdbd
00000010: c4de 193d fc94 7fbb f4f4 44bd 2b8b 90bd
00000020: d472 b3bc d21b d43b 5f8e cabc a310 94bc
00000030: dec2 90bc 61bf 553c 41dc 8cbc b3dd a8bb
00000040: 8e0f 80bd 77d5 ec3c f403 1f3d 88af 74bd
00000050: c718 00bd 8b07 933d 51f2 84bd 232a 1ebc
00000060: af84 063d e601 b83d 51af 97bd ecf1 11bd
00000070: bd34 1c3c d41b 343c a48e e03c 8227 04bd
00000080: a313 48bc bbcc 19bd 8dfb 95bd 4ec8 7dbd
00000090: 9f4a 4c3c d866 dc3c 227c 94bd 0c86 1abd
000000a0: 304d 51bc 9954 58bc edfa 2f3d f718 a03b
000000b0: 12fe 87bd 7ae4 58bd 867f 88bc a3f2 03bd
000000c0: aa64 fabc f294 323c 3cc3 07bd ae53 3a3c
000000d0: 1661 f1bb 26d9 833c d14b bd3b da14 74bc
000000e0: 45af acbd f2b7 343d 3c97 c53b 297f 9fbd
000000f0: f9ee e3bc 1927 8a3d ab0c abbc 0de3 a1bc
00000100: 0576 333c e828 d7bb 3d0b 7e3d 9d75 0f3c
00000110: 04ab b93c 5053 f73b c3ff 8abc 6ee4 7dbd
00000120: cbfb 4abd 9983 db3c ea47 383d 48dd 4dbc
00000130: 5ad5 56bd 4ee8 0f3c 1784 6fbd ecd0 1ebd
00000140: 43ad ddbc 4e5f c2bc 2f67 8bbc dd0e df3c
00000150: 213b 5f3d 4432 663d 91ef 65bd f3a6 ecbc
00000160: 1768 2d3d 8946 acbd 043a 7f3d b83f 85bd
00000170: 3f3d 1dbd 6a3e ecbc 93b8 e3bc 0e30 abbd
00000180: 3333 4f3d 0b70 c1bb 4116 19bd ac77 983c
00000190: 88db 6ebd cc20 3ebd 3674 f2bc 7242 01bd
000001a0: 8e60 043c b32b 523c 0179 1abd 7ef5 ebbc
000001b0: 2f4b b6bd 85fb f3bc 135a 3ebc d6aa 9ebd
000001c0: 81aa 693d 5731 89bd 2388 4abd db67 88bd
000001d0: 8816 90bd 8633 183c e3f4 22bd c96a 0a3b
000001e0: 971f cabc 73f7 24bd 7fb9 a93c ffd0 8e3c
000001f0: 974f c33c 46b1 af3b 9ad3 b3bd 8efc 81bd
00000200: 74d5 51bd 09ff 0dbc 0a37 e6bb b2a6 c13c
00000210: 0489 d1bc 5103 e53c f7c0 7b3c 8e87 25bc
00000220: d4d1 81bd 7c4b bdbb a69d 92bd d23b 91bd
00000230: 476c 8b3c 8fd2 363c fc29 b3bc 9e6d d4bc
00000240: 8aef 9abd 4362 6fbd 8669 e53b e5fc 233d
00000250: 73aa 73bd 1310 2b3d 0f1a a53d 6719 29bc
00000260: 4db5 e63c b028 25bd cae7 e3bb 5c02 d1bc
00000270: bb75 6abd 805d 333c 14ab 8abd fe6f 843d
00000280: bb57 54bd 0813 87bd 82b0 5fbd 923f 1fbd
00000290: 6e43 04bc 62a9 babd 9cad 9bbd 531d 65bd
000002a0: 5956 d63b 53dc dcbc 8f9f 6e3c 8d92 18bd
000002b0: 4f08 80bd 455e 86bd bf64 2a3c 253f 553c
000002c0: 9d56 24bd a2fa c8bd 30c8 653c afcd 10bd
000002d0: f739 79bd b492 9cbd 866d 763c b456 07bc
000002e0: f72e c8ba b329 12bd 0c0a b4bc d075 823b
000002f0: 6638 dcbb 7ffc 09bc bbc5 99bc d354 96bd
00000300: 84e3 07bc 416b 9f3c 5f99 8b3d 10cc 81bb
00000310: 3767 5ebd 5940 45bd 4bf1 96bd 9c20 483c
00000320: be5f 353d f15e 82bb b746 a2bd fe79 b23c
00000330: 00af 293c f7d6 23bd c735 23bd 8897 643d
00000340: 1879 1cbd ff93 71bc cd44 1e3d 084a 25bc
00000350: e58f 273d 3de5 46bd 58da b5bc b763 b9bc
00000360: 8b4d 073d 79e7 b8bc 991b caba fd8d c33b
00000370: 9ece 113b e818 e53c 5470 51bd 4c5a 2f3c
00000380: 076f 49bc 8565 72bd 3a2f 3c3c 6d5f ccbd
00000390: 39a2 823c 3924 473d ed93 93ba dc91 663d
000003a0: 41bc b33b 6425 0fbc 8228 373b 8971 f5bc
000003b0: c1fb 76bd 9ee3 abbd 0b75 84bd 3a78 89bd
000003c0: 545b 22bb f586 acbd 7fa4 8a3c 6ed2 253d
000003d0: b10b c6bd 9dc4 27bd 8754 ffbc a5b4 bfbc
000003e0: 4397 31ba 529f 80bd 5201 edbc 31cd 07bd
000003f0: 6aad 65bd b740 c3bc 9e21 353d 25dc bbbd
-0.026067689 -0.0309083 0.017449668 -0.09265465 0.03756596 -0.0038998714 -0.048085168 -0.07057794
-0.02190534 0.006473043 -0.024726091 -0.01807434 -0.017671045 0.013046117 -0.017194869 -0.0051533817
-0.06252967 0.028910382 0.03882213 -0.059737712 -0.03127363 0.07179173 -0.06491531 -0.009653601
0.03284138 0.08984737 -0.07406486 -0.035631105 0.009534058 0.010992963 0.027411766 -0.03226424
-0.012211713 -0.03754876 -0.0732337 -0.061958604 0.012468963 0.026904508 -0.07250239 -0.037725493
-0.012774751 -0.013203763 0.04296391 0.0048857885 -0.06640257 -0.052952267 -0.01666237 -0.03221382
-0.030565578 0.010899769 -0.033145174 0.01137249 -0.00736631 0.016094755 0.0057768603 -0.0148975495
-0.084318675 0.044120736 0.0060299914 -0.07787926 -0.027823912 0.067457385 -0.020880064 -0.019761587
0.010953431 -0.0065661557 0.062022436 0.008756069 0.022664554 0.0075477734 -0.01696766 -0.061985426
-0.049556535 0.02679615 0.044990458 -0.012564965 -0.05244956 0.008783413 -0.05847558 -0.038773462
-0.027060157 -0.023727085 -0.017016975 0.027228767 0.05449975 0.05620028 -0.05613667 -0.028888201
0.042335596 -0.08411891 0.062311187 -0.06506294 -0.038388487 -0.028838355 -0.027797973 -0.08358775
0.050585937 -0.005903249 -0.03737474 0.018611751 -0.05831483 -0.046417996 -0.02959643 -0.031557508
0.008079661 0.0128278015 -0.037713055 -0.028803583 -0.08901059 -0.02978302 -0.011618155 -0.07747428
0.05704737 -0.06698864 -0.049446236 -0.06660434 -0.070355475 0.009289628 -0.039784323 0.0021120778
-0.024673266 -0.04027505 0.020718334 0.017433641 0.023841662 0.005361709 -0.08780594 -0.06346999
-0.051228955 -0.008666762 -0.007025604 0.023639057 -0.02557803 0.027955683 0.015365831 -0.01010312
-0.0633885 -0.0057768207 -0.07158975 -0.07091488 0.017019404 0.0111585995 -0.021870606 -0.025931176
-0.0756522 -0.05844332 0.0070011048 0.0400361 -0.059488725 0.041763376 0.08061611 -0.010320998
0.028162623 -0.040322006 -0.0069551216 -0.02551382 -0.057241183 0.010947585 -0.06770912 0.06466673
-0.05184148 -0.06595427 -0.05461169 -0.038878985 -0.008072717 -0.091143385 -0.07601473 -0.05593617
0.006541055 -0.026960528 0.014564409 -0.037249137 -0.06251585 -0.06560949 0.010399996 0.013015543
-0.040121663 -0.098134294 0.014024779 -0.035352405 -0.060846295 -0.07645169 0.015040761 -0.008260418
-0.0015272786 -0.0356843 -0.021977447 0.0039813295 -0.0067205904 -0.008422016 -0.018771043 -0.07340398
-0.00829399 0.019460322 0.068163626 -0.0039610937 -0.054297652 -0.04815707 -0.07370242 0.012214806
0.04428076 -0.003978603 -0.07923644 0.021786686 0.010356665 -0.03999993 -0.039846208 0.055808574
-0.03820142 -0.014744758 0.038639832 -0.010088451 0.040908713 -0.048558462 -0.022198841 -0.022630556
0.033032935 -0.022571312 -0.0015419602 0.005967854 0.0022248398 0.027965978 -0.051132515 0.010702681
-0.012294537 -0.059178848 0.011485869 -0.099791385 0.015946494 0.04861853 -0.0011259295 0.056291446
0.005485088 -0.008736942 0.0027947729 -0.029961364 -0.060298685 -0.08393024 -0.06467637 -0.067123845
-0.0024773674 -0.084241785 0.016924141 0.040483885 -0.09670199 -0.04095899 -0.031168235 -0.023401568
-0.0006774554 -0.06280388 -0.028931294 -0.03315467 -0.056073584 -0.02383457 0.044221513 -0.091728486

linear2.bias f4 [256]
00000000: 86b1 78bc 3f8e 30bd bd1c c2bc fb22 93bd
00000010: 937f 5c3d 46ab b43b 10b7 ef3c fe93 31bd
00000020: 90d9 86bc ce08 5c3d 90a0 883c 681b 87bd
00000030: e18d a33d 0e45 aebd 26b4 49bd 0211 0aba
00000040: 55ec 073d ab67 10bb eb80 7b3c 3432 d53b
00000050: 29fa cfbc d191 223d 765f 413d f6dc a63d
00000060: 2ad3 d43c 4f4e ae3d 4ac0 68bd 05f2 36bc
00000070: 909f 3c3d 7e9f 50bd 29f6 b03c 4309 4f3d
00000080: f2d1 aabc 08b1 35bc 5e1e 433d edb9 413d
00000090: 2731 863d 1fe2 5f3d 2dd6 bbbc 1923 96bc
000000a0: c007 693b f6f2 b63d d9df b9bc ef26 143d
000000b0: 1cdb f63b 7c6c 543d d069 1f3d b7b6 b03b
000000c0: ae3d 27bd bd62 763c 4677 b4bd c285 d63b
000000d0: f9d7 1e3c 9396 ab3d 0e41 3d3d b59a 563d
000000e0: a24e 113c f066 5fbd 8a41 92bc 26fc 4abd
000000f0: 2c76 233d 07c7 1dbd 0d22 203d 8d71 9bbd
00000100: 01fe 273b 25cd fd3a 284a c4bc fb24 8abd
00000110: accb 36bd d801 15bd 8d5d 183d 514f 373d
00000120: 4bec 63bc 5371 d93b 909f 123d 4959 373c
00000130: ff0a db3d fcca ac3d 7fde 92bc 5173 b63b
00000140: cdcb 2bbd 4938 3e3d edc4 843c 2013 1e3d
00000150: b917 833c 66d2 5e3d c40a bfbd c2b5 373d
00000160: c910 d3bc 846b 12bc caf0 3bbb 2c88 51bd
00000170: 2f63 963b 1a31 543b 8fa3 37bd eff9 d5bc
00000180: 3eb5 79bb d32a 0fbd bf94 d6bb 1f16 1dbd
00000190: 37a8 7bbc 02ef d33c 4dad 303c 57ca 6abd
000001a0: ff08 51bd 346d 163d 8dab e73c 32e7 3e3c
000001b0: a523 dabc 2b80 6b3d e107 ce3c 66e0 c5bc
000001c0: 2b03 5bbc 8d04 1b3c 4556 07bc 0246 5fbd
000001d0: 1c4b 26bb 5a62 883d 301d 9c3d c8bf c43c
000001e0: fa01 fa3c 4c04 823d 644e 493d 6ec3 44bd
000001f0: c043 c33d a75c 16bd b825 e6bc 1dcd c53c
00000200: c375 62bc 62f1 a0bd 87ec 03bc bf0d 313d
00000210: 10aa 193d 0803 dabc db1f 94bd 0267 7ebc
00000220: 5e32 af3c 28bb 08be 8fdc 0abc 4b27 01bc
00000230: 3075 b4bb ccf6 62bc a697 7abc d333 d9bc
00000240: 7ad7 89bc 142c 583c fd98 e9bc 1917 2e3d
00000250: acc1 53bd cfc5 73bd 974e 9e3c 71c2 62bd
00000260: e56d 443d dfdb 82bc 7e78 8d3d b803 37bd
00000270: f899 133b 1004 8e3b 7535 593d 1b23 823c
00000280: 3502 2ebd cf97 39bd 66a9 3e3b 98d9 5f3d
00000290: c687 213d 477e 673d 3e9d d13d 318d 723d
000002a0: 4ae6 873c 1a32 6ebd 9ea5 13bd c4c7 f33c
000002b0: 4fc7 593d 050b 573d d7f6 9fbb be9b 8a3d
000002c0: 252d b13d adba ea3c 624c 5dbd 4bfc 1bbd
000002d0: 950f 3f3d 109d 3a3d b2d7 bbbc 16c2 7a3c
000002e0: 9482 163d ec20 81bc ba11 153d e115 d2bd
000002f0: 128a 203d 3f7f 25bd e17e 6c3d bfd1 c83c
00000300: 96b3 b2bc f1e9 753d 7606 133d 56a4 4f3d
00000310: d8be eb39 27bc 3a3d 7053 4bbd c214 84bc
00000320: c453 36bd bf8a 81bc 9e61 ea3a 0a1b 9dbd
00000330: 9c76 373d 091a 4dbd e861 8cbb 3e99 d03c
00000340: 6743 aabb 71eb 4bbd 6bf2 633c fd9b 72bd
00000350: ceab 183d 7ed9 4b3c 4825 e83b b430 793a
00000360: 8246 7b3d 9299 d53b 35b0 a9bc 4b83 a5ba
00000370: f7e2 aeba 4cca 64bd b44d 94bd ffe0 5cbd
00000380: 9f90 4ebd b1e7 533d c057 9f3d 70de 1d3d
00000390: 8e74 a5bc 4ab4 6dbd a16f 673c 5038 5bbd
000003a0: 8b4b 9b3d 2ce0 503d 0c3d 073c e1bf 4ebc
000003b0: 2087 eebb 8d9d e4bc 4e2f c3bb 10df a5bd
000003c0: 7e1a 223d 03d4 4e3d 5dae 453d 3d98 2cbd
000003d0: 226e b43c 1ce5 f2bc ae1a 813d 486a 82bd
000003e0: d5bd 3f3d 5d04 4bbd 75ec 9e3b 06f2 243d
000003f0: 0312 9b3c 9ed6 8fbd 7135 31bd f144 10be
-0.015179044 -0.043104406 -0.023695344 -0.07184406 0.0538326 0.0055135814 0.029262096 -0.043354027
-0.016461164 0.053719334 0.016678125 -0.06597024 0.07986046 -0.08509265 -0.04924407 -0.00052668166
0.03318437 -0.0022034447 0.015350561 0.006506229 -0.02538784 0.039689843 0.04721018 0.08147614
0.025979597 0.0851103 -0.056824006 -0.0111661 0.04605061 -0.050933354 0.021601753 0.050545942
-0.020852063 -0.011089571 0.047636382 0.047296453 0.06552344 0.054659005 -0.022929275 -0.018327283
0.0035557598 0.0893306 -0.022689747 0.036169942 0.007533444 0.05186127 0.03891927 0.005392875
-0.040830307 0.0150381895 -0.08811812 0.006546707 0.009695047 0.08378329 0.04620462 0.052393634
0.008868845 -0.05454153 -0.017853517 -0.049556874 0.03990762 -0.038519885 0.039094973 -0.075900175
0.0025633576 0.0019363506 -0.023961142 -0.06745335 -0.04462783 -0.03637871 0.037198592 0.044753376
-0.013911317 0.0066358238 0.035796702 0.011190721 0.10695457 0.08437154 -0.01792836 0.005567946
-0.041942406 0.046440396 0.016207183 0.038592458 0.016002523 0.05439987 -0.09328225 0.044851072
-0.02576484 -0.008936767 -0.0028677457 -0.051155254 0.0045894603 0.00323779 -0.044833716 -0.026120154
-0.0038102414 -0.03495295 -0.0065484936 -0.038351174 -0.01535993 0.025870804 0.010783506 -0.057321873
-0.05103397 0.036725238 0.028280044 0.011651801 -0.026628325 0.057495277 0.025150241 -0.024154853
-0.0133674545 0.009461534 -0.008260314 -0.054510124 -0.0025374359 0.06659384 0.076227546 0.02401723
0.03051852 0.06348476 0.049147025 -0.04803794 0.09534407 -0.036709454 -0.028094158 0.024145657
-0.013822022 -0.0785854 -0.008051998 0.043226 0.0375157 -0.026612774 -0.072326384 -0.015527489
0.021386322 -0.13352644 -0.008475437 -0.007882903 -0.005507134 -0.013852786 -0.015294945 -0.02651397
-0.01682638 0.013194103 -0.028515333 0.042502496 -0.05169837 -0.059514817 0.019324584 -0.055361215
0.047956366 -0.015973983 0.06907748 -0.04468128 0.0022522192 0.0043339804 0.053029496 0.01588588
-0.042482574 -0.04531079 0.0029092669 0.054650873 0.039436124 0.05651691 0.1023507 0.059216682
0.016589303 -0.05815325 -0.036046617 0.029758342 0.05316859 0.052500743 -0.0048817205 0.06767987
0.08651189 0.028653467 -0.054027922 -0.038082402 0.04664572 0.045559943 -0.02293 0.015305063
0.036745623 -0.015762769 0.03639386 -0.10258079 0.039194174 -0.040404554 0.05773819 0.024514077
-0.021814149 0.060037557 0.035894834 0.050693832 0.00044964883 0.045589592 -0.04964012 -0.01612318
-0.04451348 -0.01581323 0.0017881875 -0.07671173 0.04479085 -0.050073657 -0.0042841323 0.025463697
-0.0051960233 -0.04978508 0.013912777 -0.059230793 0.03727322 0.012441991 0.0070845224 0.00095058535
0.06134654 0.006518551 -0.020713905 -0.0012627629 -0.0013342787 -0.055856988 -0.07241383 -0.05392551
-0.05043089 0.05173463 0.07780409 0.03854221 -0.02019718 -0.058033265 0.0141257355 -0.0535205
0.07582768 0.050995037 0.008254301 -0.01261899 -0.0072792917 -0.027907157 -0.005956567 -0.080991864
0.039576046 0.05049516 0.04826199 -0.042137373 0.022025172 -0.029650263 0.06303917 -0.06367928
0.046811897 -0.049564708 0.004849965 0.040269874 0.018929487 -0.07023357 -0.043263856 -0.14088799

linear3.weight f4 [3, 256]
00000000: b5b6 aa3d 7f50 863e 9dba 4f3d 1ccd 2cbe
00000010: 2cc6 83bd 9c8e 79bf 21d4 1bbd e293 bdbc
00000020: eb58 013e 2562 8fbd 97e8 503f d7ce e6bd
00000030: 6a47 9b3e e2a8 b7bf 1f12 80bb dc23 62be
00000040: 7ffe 7abd 6d64 53be f4c1 673f 3cca 3bbc
00000050: 7cd0 3fbf 31d7 9d3e 5cd5 893d a6d6 c93e
00000060: cf3e 293f d16e c13e fd9a 4c3e 1fd6 07be
00000070: f2c0 ac3e 5979 0a3f 7169 59bf 25dd 593d
00000080: 006d aabf 1d20 203d 3d93 ebbc 5199 443e
00000090: d679 52bf 0289 ec3c 585d c73d d7f5 48bd
000000a0: 47c9 77bd 0639 35be a07d 20be 4fb8 0d3d
000000b0: cb6d ab3d 1b05 f63d 6d69 973e 582a 60be
000000c0: ecf8 16bd ea04 5f3e 3c91 a13f a3b2 fabe
000000d0: 64c7 2fbd 0421 6abe 8f95 843c 20d7 ee3e
000000e0: 5127 ccbe 48d6 8fbc 18aa 5a3c c8e7 3fbe
000000f0: 54cf dcbc fb71 ddbc b435 123d e4f1 d5be
00000100: b2bf 963c ac30 a73b 000b 30be 8e03 313d
00000110: 96d0 9abc 356d 3bbd 202f e33e 0528 3fbd
00000120: af14 d2bd b4fe dbbc 8b86 553b 9f43 29bd
00000130: a7be 0b3f f0cc 9dbd deb0 bb3c a599 b6bc
00000140: 4bf8 d0be 5c80 d5bc 46dc 77bd 066f 72be
00000150: 2d65 33bd 0880 a13d 56e5 4abf 9475 96bd
00000160: 9ad4 123e d165 45bd 0cab 323f c8bc 01bd
00000170: c6cb f5ba 6940 24bf ae6d 1d3c acec 1d3d
00000180: 3b00 56bc 1c27 b2bc e542 49be e3d5 34bf
00000190: 1e60 e9bc b76c 55bc 6af9 5abd 96a3 0abf
000001a0: 5f55 ec3b 4482 dc3b 51fa 433d 868e 29bd
000001b0: e641 31be 018c 3a3e bba1 01bd 8fc7 2cbe
000001c0: 8b39 35bc 1907 b9bd d6bc 69bd 8d16 6fbc
000001d0: d14d 7cbe 73a7 57be 2eda 9f3f f186 aebb
000001e0: f59c 273f dec8 823c 3e9c 2cbf e135 92bd
000001f0: 7a0a 8a3e 68aa cf3c dbf2 36be 54c3 5f3d
00000200: 070c 18be 5e8d 7abf 06b8 11bd 9869 8a3c
00000210: 028e 0f39 2726 50bf 0da8 abbd 1b81 4f3f
00000220: f9a7 aa3c 1ec6 7ebe 8689 223d bdf4 b43c
00000230: 61b0 b8bc cada 423f c226 813e ed7e f3bc
00000240: f921 a33e 02b8 d3bd 34bb f3bc 5473 1c3e
00000250: 581d 26bd c99f 8c3c 23ae 1d3e 7577 24bd
00000260: 7fea ddbe 3703 cb3b a84a 453e 41a2 a1bd
00000270: b210 35bd ed7c ff39 b3d0 11bd 2a24 023e
00000280: c758 793e d924 ca3e d9d0 cd3e c31e 723f
00000290: afd7 473e 2563 b03d 420d 083f b92d 36be
000002a0: 6a3c 0bbc 7826 c23d 63c1 24bd e578 c13c
000002b0: 480a a4bb 7545 2b3f c9bb d4be 3cf2 823d
000002c0: 1894 1ebe 58d9 3e3e 18c3 b3be b41e 003e
000002d0: a649 18bd aa58 8cbe df01 6b3e bf6f aa3e
000002e0: a285 3dbc b553 ba3e 3b69 babc de37 af3f
000002f0: eee3 3abf 5b0c 9a3c aa17 d3bf e56b 493e
00000300: 5340 62bd 6d25 c9be 733f eabd 3b19 fabc
00000310: 117b b7bb d9e2 43bd 61f7 bb3c d896 19bf
00000320: 101d 5a3f a790 833f 1b2a da3e 6fe2 11b8
00000330: c1b1 c83d 4062 e93e 00bd e4bb e994 8bbe
00000340: 9cba 383d 6cf9 f6bb a49f 5bbc 29a9 d03e
00000350: 3c63 38bd 7dcc 2ebd c8e2 de3d 406a 583d
00000360: 4785 323e d346 273d 238a f63c 00b9 ca3d
00000370: ff37 0cbf 5b61 c9ba dbeb 19bf e4d9 d1be
00000380: ef10 38bd 1837 2c3f 6c8d 1e3f fa16 59bd
00000390: a8a2 a8be 646c e43c 867d 32bd 9eb0 423d
000003a0: 649e ef3d bdd3 ee3c 957f 68bd 88e6 37bc
000003b0: 9291 dcbe 2d31 80bd be2a 5ebd a828 773d
000003c0: 84ef 40bd 3f73 17bd 19d4 2ebe dfd1 c7bd
000003d0: f838 323d e885 75bf 3ad7 5b3f 545b 7e3d
000003e0: 6e6a b2be 615d dbbc bfa1 0e3e 4047 e93e
000003f0: c19a 3e3e 2650 debc f0da 7dbf ab6c cebf
0.0833563 0.2623329 0.050715078 -0.16875118 -0.06434283 -0.9748323 -0.0380441 -0.023141805
0.12631576 -0.070011415 0.81604904 -0.1126992 0.30327922 -1.4348414 -0.00390841 -0.22083992
-0.061277863 -0.20643778 0.90530324 -0.011461791 -0.74927497 0.3082824 0.06730148 0.39421576
0.66111463 0.3777986 0.19980998 -0.13265274 0.33740956 0.5409141 -0.84926516 0.053189415
-1.3314514 0.039093126 -0.028756732 0.1919911 -0.82217157 0.028873924 0.09734601 -0.049062576
-0.060494687 -0.17697534 -0.15672922 0.0345996 0.08370551 0.120126925 0.2957262 -0.21891153
-0.036858484 0.21779218 1.2622447 -0.48964414 -0.042914763 -0.22864157 0.016184596 0.46648502
-0.39873746 -0.017558232 0.013346218 -0.18740761 -0.02695433 -0.02703189 0.035695747 -0.4178611
0.018401954 0.0051022377 -0.17191696 0.04321628 -0.01889829 -0.045758445 0.4437189 -0.046669025
-0.10257851 -0.02685485 0.0032581415 -0.041324254 0.5458779 -0.07705104 0.022911485 -0.02229006
-0.40814433 -0.026062183 -0.060512803 -0.23675165 -0.04379766 0.07885748 -0.7925619 -0.07346645
0.14338914 -0.048192803 0.69792247 -0.031674176 -0.0018752746 -0.6416078 0.009608669 0.038555786
-0.013061578 -0.021747164 -0.19654424 -0.70638865 -0.028488215 -0.013026408 -0.053460516 -0.5415586
0.0072123255 0.006729396 0.047846142 -0.041395687 -0.17310295 0.1821747 -0.03164838 -0.16873
-0.011061083 -0.09034557 -0.057064854 -0.014592779 -0.2463906 -0.2105997 1.2488458 -0.005326145
0.6547387 0.015964922 -0.67425907 -0.07139183 0.26961118 0.02534981 -0.1786608 0.05462964
-0.14848338 -0.9787196 -0.03557589 0.016896054 0.00013690445 -0.81308216 -0.083816625 0.81056374
0.020832049 -0.24880263 0.039681934 0.022089357 -0.022545042 0.76115096 0.25224882 -0.029723609
0.31861857 -0.10337831 -0.029752351 0.15278369 -0.040555328 0.017166035 0.15398459 -0.040152986
-0.4334297 0.0061954516 0.1926676 -0.078922756 -0.044205375 0.00048730467 -0.03559942 0.12709108
0.24350272 0.39481238 0.401984 0.9457819 0.1951587 0.0861266 0.5314523 -0.1779088
-0.008498291 0.094799936 -0.04022349 0.023617217 -0.0050061084 0.6690286 -0.4154952 0.06393859
-0.15486181 0.18637598 -0.35109782 0.12511712 -0.03717961 -0.27411395 0.22949933 0.3328838
-0.011567505 0.36391988 -0.022755256 1.3688924 -0.73004043 0.01880472 -1.6491597 0.19670065
-0.055237126 -0.39286366 -0.11437883 -0.030529609 -0.0055993875 -0.04782376 0.022945108 -0.59995794
0.85200596 1.0278519 0.4261025 -3.4781577e-05 0.09799529 0.4558277 -0.0069805384 -0.27262047
0.04509984 -0.0075370576 -0.0134047605 0.4075406 -0.045016512 -0.042675484 0.10883099 0.052835703
0.17433654 0.040839028 0.030095166 0.09898567 -0.54772943 -0.0015364097 -0.6012551 -0.4098655
-0.044938024 0.67271566 0.6193454 -0.053000428 -0.32936597 0.027883716 -0.04357674 0.047531717
0.117001325 0.029153699 -0.056762297 -0.0112243965 -0.4307981 -0.062593795 -0.05423998 0.060341507
-0.04710342 -0.03697514 -0.17073096 -0.097568266 0.04351136 -0.9590745 0.85875285 0.062098816
-0.34846824 -0.026777925 0.13928889 0.45562172 0.18613721 -0.027137827 -0.991622 -1.6126913

linear3.bias f4 [3]
00000000: ce5a 01bd da6c 9a3c c8e0 3dbd
-0.03158074 0.018850733 -0.046356946
