version_6_points_without_rotation/DDPG_GPU_MPI/w32_s_t005/actor.pth (torch, 312151 bytes, 6 tensors)

linear1.weight f4 [256, 42]
000000 d1 6e 92 3d 07 0f 47 bd bc b6 df 3d 1b 41 7a 3b
       0.07150043 -0.048598316 0.10923526 0.0038185779
000010 85 71 27 bd 59 88 e4 bd 5c 38 b5 3d cd 7e e4 3c
       -0.040879745 -0.11158819 0.0884864 0.027892495
000020 44 9d 31 3e 99 44 41 3c 3c 2a a7 bd c3 be b9 3d
       0.17345148 0.01179614 -0.081623524 0.09069588
000030 b7 60 00 be 62 a1 1f 3b e6 a6 1c 3e 9c f6 48 bd
       -0.12536894 0.0024357666 0.15298042 -0.04906331
000040 ce ec b4 3d 27 b4 49 3e 92 19 df bd 1f 27 6f 3e
       0.088342294 0.19697629 -0.10893549 0.23354767
000050 59 82 2f 3e b2 75 08 3d d4 e6 3b be 56 18 28 3e
       0.17139567 0.033315368 -0.18349773 0.16415533
000060 a8 eb ae bd f3 db 0c 3e ff 75 34 bc 38 52 8a 3d
       -0.085410416 0.13755779 -0.011014461 0.06753963
000070 1a 48 c3 3b 7c 68 c8 bd 15 a1 c4 bc 1f c6 65 3e
       0.005959523 -0.09785554 -0.024002591 0.22438858
000080 d6 e5 8d 3b 91 a3 fa ba 60 1f cc 3d 29 1f dd bd
       0.004330377 -0.0019122233 0.09966922 -0.10796959
000090 77 43 d0 bd 77 d6 7d 3e bc 70 1e be 8f f3 03 3e
       -0.10169118 0.24788843 -0.15472692 0.12885879
0000a0 10 54 e3 3d b7 15 e0 bd 9f 28 b3 3d 35 63 8d 3e
       0.11100018 -0.10941642 0.08747982 0.2761475
0000b0 e2 b0 0a be f1 29 eb 3d 75 4f 69 3d 20 37 f9 3c
       -0.13544038 0.11482609 0.05696054 0.030421793
0000c0 95 23 8d 3d 01 16 79 3e 9c ef 9e 3d bf 46 b4 3d
       0.06891552 0.243248 0.077605456 0.08802556
0000d0 01 56 0e 3e bb 9b c1 3d 69 ed 35 bd 5c b3 5d bd
       0.13899995 0.09453531 -0.044415865 -0.05412613
0000e0 e3 6e c2 bd 9a 3f c7 3d ac d2 66 bd 7d 0d 90 3d
       -0.09493806 0.09728928 -0.056353256 0.07033823
0000f0 3a 37 71 3e 92 ae 74 bd 0a 1f ee bd 3f d3 ce bc
       0.23556224 -0.059736796 -0.11627014 -0.025247214
000100 e6 f5 16 bd 17 bd 3d be 45 a4 ce 3d b7 93 68 be
       -0.0368556 -0.18529163 0.10089926 -0.22712599
000110 64 13 be 3d da 1b 10 3e 27 7b a2 bd 0a 4f ec 3d
       0.09281042 0.14073125 -0.07933646 0.11538513
000120 5f 95 d5 bd 85 1d e5 3c c7 55 ff 3d ed d4 05 be
       -0.10428881 0.027968178 0.124675326 -0.13069506
000130 45 f5 f3 3c bb bf 41 3d 20 f8 8c bd 8a ed 22 be
       0.02978004 0.04730199 -0.068832636 -0.15910926
000140 0b 19 68 3e 8e ae ab bc 59 52 b9 bd 8c fb ca 3c
       0.22665803 -0.020957258 -0.0904891 0.02477815
000150 42 7f c6 3c e4 e1 89 3e 0c 66 6c bd 9c 74 b9 bd
       0.024230603 0.26930153 -0.057714507 -0.090554446
000160 48 3f 51 3c b2 ab 2a 3d dc 18 a3 bb 0f e7 4d bd
       0.012771435 0.041667648 -0.0049773287 -0.050269183
000170 c9 99 0c 3e 1d dd 2d be ad 5d 9f 3d b9 f7 07 3e
       0.1373054 -0.1697888 0.07781539 0.13278092
000180 14 36 2c be 8f 35 27 3e 2d 7f 0e 3e 87 8b 80 3d
       -0.16817504 0.16329025 0.13915701 0.06276613
000190 fb 50 90 3c da 92 0f 3d fe 84 95 3d 73 8e 14 be
       0.01761674 0.035052158 0.07300757 -0.14507465
0001a0 8c 79 bf 3b 87 d7 29 be be e8 d8 bc 1e 2f c8 3d
       0.005843347 -0.16586123 -0.026478168 0.09774612
0001b0 4f 4d 4f bd b7 40 38 be c5 73 09 bd 38 64 0b 3e
       -0.050610837 -0.17993437 -0.033557672 0.13612449
0001c0 48 b8 fd bd 52 94 15 3c 01 7c 58 3e 7b 80 3a be
       -0.123886645 0.009129601 0.21141054 -0.18213074
0001d0 b3 eb d7 3d 47 49 84 3c 07 1c 97 3d 37 07 e2 bc
       0.10543003 0.016148223 0.07378393 -0.02759133
0001e0 82 fd bf bd 79 05 01 bc 7a 07 84 3d f5 17 e1 3c
       -0.09374525 -0.00787484 0.064467385 0.027477244
0001f0 23 8a 70 bd 9e a7 9e 3d 24 6e 06 3e db d3 c2 3d
       -0.058725487 0.07746814 0.13127953 0.095130645
000200 94 29 cb 3d b1 ce 38 bd 3d fc 42 3d 90 6a 6c 3d
       0.0992004 -0.04511899 0.047603834 0.057718813
000210 41 07 83 bd d6 66 1d be 83 76 36 3e 3e bf b7 bd
       -0.06397868 -0.1537126 0.17818646 -0.089720234
000220 3e a1 8e bd 01 cf ed 3d f2 33 1c bd 31 60 7b be
       -0.06964348 0.116117485 -0.038135476 -0.24548413
000230 fa d1 d3 3d f2 9f 3d ba 78 a4 04 bd b5 74 4b 3e
       0.10342784 -0.00072336115 -0.032383412 0.19868739
000240 2d 1b a0 3d 5e e7 31 be 90 f8 aa 3d 85 91 9c 3d
       0.07817683 -0.17373416 0.08348191 0.07644943
000250 b5 fa 7a bc ac 0b ad 3d 82 b5 11 bd d9 38 4f 3e
       -0.015318562 0.08449492 -0.03557349 0.2023653
000260 fb 05 ac bd 36 af d7 bc e7 c0 49 3e 33 89 1a be
       -0.08399578 -0.026328664 0.19702493 -0.150914
000270 49 e0 04 3e d0 0d 74 3e d9 e2 e2 3d 06 c1 00 be
       0.12976183 0.23833394 0.11078424 -0.12573633
000280 63 b5 49 3e 9b f6 8a bc d9 61 98 3d aa 1d c9 3d
       0.196981 -0.016963294 0.07440538 0.09820111
000290 d3 3d dd bd c2 d2 67 bd 41 3f 2f 3e ca 0f 57 bd
       -0.10802808 -0.05659748 0.17113973 -0.052505292
0002a0 bb e4 39 bd e3 9d 7f be 3b 29 c9 3d 59 04 f1 3c
       -0.04538415 -0.24962573 0.09822317 0.029421018
0002b0 11 46 0f be f5 a6 00 be 4d 2c 20 bd fb c9 9c 3c
       -0.13991572 -0.12563689 -0.03910475 0.01913928
0002c0 73 7c fb bd 60 55 8c bd 8e 0d 6e 3d d8 6f 73 bd
       -0.12279596 -0.068522215 0.058118396 -0.059432834
0002d0 4d 47 82 3a a1 28 e3 bd f4 b4 f0 bd 0a 17 93 bc
       0.0009939462 -0.11091734 -0.11753264 -0.017955322
0002e0 c2 54 e1 bd ea a0 b4 3c 4f be 94 3d 87 1d 5e 3d
       -0.110024944 0.022049386 0.07262861 0.05422738
0002f0 0a b5 61 3d 86 4b f2 bd 94 ae 8d be 36 8d 94 3d
       0.055104293 -0.11830811 -0.27672255 0.07253496
000300 d2 db d5 3d f3 de a6 3d a8 8a c7 bd c9 7b db bd
       0.10442318 0.08147993 -0.097432435 -0.107169695
000310 72 89 0a 3e a0 60 f5 bc 1e 53 f9 3d 8b 9d fe 3d
       0.13528994 -0.029953301 0.121740565 0.12432393
000320 ce 37 cd 3d d5 a4 8a 3d eb 17 da 3d d4 55 a9 bd
       0.100204095 0.067697205 0.10649093 -0.082683235
000330 8d ce 38 bd 15 ac a4 bd 98 07 03 3e 91 f9 0e bd
       -0.045118857 -0.080406345 0.12795866 -0.034905974
000340 6e 6e 58 3e 53 e7 f9 bd b0 50 b9 bc a8 5b 7c 3c
       0.21135876 -0.12202325 -0.022621483 0.015402712
000350 34 09 f3 bd 05 20 22 3e b0 cf 98 bd 10 bc e1 3d
       -0.1186699 0.15832527 -0.07461488 0.11022198
000360 4c c0 e6 bd e8 de 03 3e 20 f2 4b 3d b4 82 a0 bd
       -0.112671465 0.12878 0.049791455 -0.0783743
000370 8b 48 50 bd 58 b9 33 bc ce ea 11 3e 1f f8 12 bd
       -0.050850432 -0.010969482 0.14249727 -0.035881158
000380 42 17 ab bd bc 5e 45 3e 8e fa c4 3d 7c 67 2d 3d
       -0.083540455 0.1927442 0.09618102 0.04233502
000390 f3 20 26 3d 69 d5 07 3c 39 53 5a 3c 69 43 41 3e
       0.040558767 0.008290627 0.013325506 0.18873371
0003a0 df 60 f2 3d b0 67 20 bd 60 99 bf 3d f6 41 83 be
       0.11834883 -0.039161384 0.09355426 -0.25636262
0003b0 a0 4f f3 3c 96 53 2c be 2a 19 7a bd 2a 6c 14 3e
       0.029701054 -0.1682876 -0.061059155 0.14494386
0003c0 4e 30 9f 3d 3e c3 6b 3d 79 7b d4 bd 39 c1 73 bd
       0.07772885 0.057559244 -0.10375113 -0.059510443
0003d0 07 0b 3a be 4d dd f4 bd f8 f5 8d bd b1 a1 1b bd
       -0.18168269 -0.11956272 -0.069316804 -0.037995998
0003e0 13 32 ff 3d 29 cf 22 be ca 28 c7 bd 94 1b bc 3c
       0.12460723 -0.15899338 -0.09724577 0.022962369
0003f0 de d3 44 bd 93 ac 87 3d ef 9c a1 bd 8e d6 3c 3d
       -0.048053615 0.06624713 -0.07891261 0.046103053

linear1.bias f4 [256]
000000 49 3b f0 bb d7 d3 9f bd 77 27 82 3c 44 f8 0a bd
       -0.007331286 -0.07804077 0.015887959 -0.03392817
000010 d2 38 13 3e 33 2b 70 bb b3 04 f2 3d fb 93 0a be
       0.14377144 -0.0036646842 0.118173026 -0.13533013
000020 35 42 ba 3d 1a 1f 00 be 13 6b 06 3e 9b ae c3 3c
       0.09094659 -0.12511864 0.13126783 0.02388697
000030 c0 b4 c2 bb a9 7a f8 3c e6 b5 e5 bc b8 d3 02 bd
       -0.0059419572 0.030331926 -0.028040837 -0.031940192
000040 65 c7 8c 3d 7a 9b 12 be 81 2b 51 3d 82 45 d6 3b
       0.06873969 -0.14317122 0.05106688 0.0065390477
000050 2a c2 82 bc bf 49 25 3d b4 bc 0a be 00 08 d4 bd
       -0.015961725 0.040353533 -0.13548547 -0.103530884
000060 61 db eb 3b a2 09 84 bd 44 35 95 3d 9e b9 b5 bd
       0.007197783 -0.0644715 0.0728555 -0.08873294
000070 92 c5 b3 bd 86 f4 ae 3c f4 14 05 be 4e c5 b0 bd
       -0.08777918 0.021356832 -0.12996274 -0.08631383
000080 5c 62 b2 3d 33 d6 e7 bd 44 2d e1 3d bd a7 11 3e
       0.08710167 -0.11320152 0.10994962 0.14224143
000090 1e 3a 2b 3e a8 2c a1 3d 12 47 7f bc f6 d9 92 bb
       0.16721389 0.07869846 -0.015580909 -0.0044815494
0000a0 a8 ad b4 bd 05 cc 0a 3d a6 09 bc bd c9 06 fd 3c
       -0.08822185 0.033885974 -0.09181528 0.030887024
0000b0 2d a8 0d 3e 28 84 98 3d 1f 34 18 3e 6f f8 47 bd
       0.13833685 0.07447082 0.14863633 -0.04882091
0000c0 9a a0 e5 3d dd fb 0b 3e 93 47 14 3e b2 d9 61 bd
       0.11212273 0.13670297 0.14480428 -0.05513925
0000d0 34 fb e6 bd 92 dc bb 3b fa 54 b6 3d 09 04 be 3c
       -0.11278382 0.005733081 0.08902927 0.023195283
0000e0 0c 4b e1 bd 60 41 1a 3d ed 22 b3 3d 56 6e 8f 3d
       -0.11000642 0.037660003 0.08746896 0.07003467
0000f0 69 50 00 3e 28 94 1d 3e 3b a9 90 bd 4e 1a 6d bc
       0.12530674 0.15388548 -0.07063528 -0.014471604
000100 70 75 4c bd 84 f8 0f 3e 02 aa d7 3d b5 5a c7 3d
       -0.049916685 0.14059645 0.10530473 0.09734098
000110 33 22 3e 3e 20 68 cf 3d 2a 52 13 bd af 81 03 bc
       0.18567733 0.10127282 -0.03596703 -0.008026524
000120 8e cd 06 3e 39 39 88 bd a0 70 60 3d d5 1f 36 3b
       0.1316435 -0.06651539 0.054794908 0.002778997
000130 7c 43 3b bd b2 24 bc bd 74 0d a0 3d 23 73 de bc
       -0.045718655 -0.091866866 0.07815066 -0.02715451
000140 fa 8a 99 bc ba 73 ca bc 2a e5 88 3d f2 35 45 bd
       -0.018743027 -0.024713386 0.066843346 -0.04814715
000150 4d 12 00 3e ef 03 e5 3d 16 c1 db 3d 59 dc b9 bd
       0.12506981 0.11182391 0.107301876 -0.09075231
000160 1c 8b 3c 3e 13 59 df bc 3c 6b f2 3c c8 d9 25 3e
       0.18412441 -0.027264154 0.029592149 0.16196358
000170 b4 60 a6 3d 8b 45 e2 3d 7c 2d fc 3c cd e8 20 3d
       0.081239134 0.110484205 0.030783407 0.039284516
000180 46 de 22 be 27 19 0b be 86 6e d0 3c c7 34 94 3d
       -0.15905103 -0.13583814 0.025443327 0.07236629
000190 76 c9 01 be 6e 55 1e bc 11 8a fd bc 64 2f ef ba
       -0.12674507 -0.009663923 -0.030949624 -0.0018248376
0001a0 28 ea c9 bd f7 6c da bd 5a f9 0e bc 5c d5 b7 bc
       -0.09859115 -0.10665315 -0.008726442 -0.022440605
0001b0 47 01 28 3c 79 90 99 3d 12 ff 82 3b ed c4 43 3e
       0.010254211 0.07498259 0.003997692 0.1911809
0001c0 36 8c b1 3d 75 3b 1e be 4f ca 0b 3c cf 12 ff 3d
       0.08669321 -0.15452369 0.008532121 0.12454759
0001d0 4a 77 ed 3c 58 05 6b 3d a6 44 17 be b6 bf b3 3d
       0.028987546 0.057378143 -0.14772281 0.087768
0001e0 1d a4 37 3d 96 18 e7 bd a4 70 45 bd 4c 39 e5 3d
       0.044834245 -0.11283986 -0.048203126 0.11192569
0001f0 f2 93 43 be d6 18 8a 3c 6a c6 a9 3d bc 16 bd 3d
       -0.19099405 0.016857546 0.082897976 0.09232852
000200 3a a2 03 3d 2d f2 03 3e c0 ed 67 3d a7 bb e5 bd
       0.032137133 0.12885351 0.05662322 -0.112174325
000210 c3 b0 3d 3e f8 eb 82 bd a3 7a 30 3b a9 a2 33 3d
       0.1852446 -0.06392664 0.0026928566 0.043856297
000220 1f a6 c3 3d 07 5d a5 3d 6e b3 bd 3d 9f ea 73 3d
       0.095531695 0.08074384 0.09262739 0.059549924
000230 97 46 97 bd fe ae d3 3d bf 5d 10 3e 2c 0b fc bd
       -0.07386511 0.103361115 0.14098261 -0.12306818
000240 21 2a 28 bd 7d 47 2e bd 08 58 02 bc 0c ae f0 3c
       -0.041055802 -0.042548645 -0.007955559 0.029379867
000250 6b f7 af 3d f7 f0 81 bd a8 86 04 3c 6c 4b dc bc
       0.08592113 -0.063447885 0.008088745 -0.026891433
000260 03 ae a1 bd c0 a4 04 3d 99 d8 0f 3e ec c2 33 3e
       -0.07894518 0.03238368 0.14047469 0.17554826
000270 c8 77 2c bd 6a 29 94 3d 17 16 2a 3e c8 93 33 bd
       -0.04210642 0.072344616 0.16609989 -0.043842107
000280 dd a2 04 bd bb cf a0 bd 14 9c 3d 3d 31 b2 f4 3d
       -0.03238188 -0.078521214 0.046291426 0.1194805
000290 70 b5 89 3d 07 9a df bb d7 85 dd bd 66 b2 57 3d
       0.067240596 -0.0068237814 -0.108165435 0.05266037
0002a0 45 bb c7 bd 59 81 d2 3d 5c d3 48 bd 3d 90 1e 3e
       -0.09752516 0.10278577 -0.049029693 0.1548471
0002b0 95 a6 c3 bd 18 67 ae 3d 01 5b 13 bd c2 2a 91 3c
       -0.095532574 0.08515757 -0.03597546 0.017720584
0002c0 a5 0b 7a 3c 65 f4 0a be 57 db 96 bd 5b f2 05 bd
       0.015261565 -0.13569792 -0.073660545 -0.03270183
0002d0 9f 98 a3 bd 47 e2 e7 3c 6f 7f be 3d 18 7b 6d 3c
       -0.079880945 0.02830614 0.0930165 0.01449468
0002e0 f1 62 97 3d eb 1f 27 3d 61 14 69 bd 3a bb 4e bd
       0.073919185 0.040801924 -0.0569042 -0.050471522
0002f0 49 b5 61 3d 1c 42 ee 3d 28 4d 29 3e cf 30 f0 3d
       0.055104528 0.11633703 0.16533339 0.117280595
000300 92 a0 40 3e f5 63 43 3d 8f 5a bc bd 36 cc 07 3e
       0.18811253 0.04770275 -0.0919696 0.13261494
000310 16 11 3d 3d 7f 89 0b 3e ce 4e 01 3e 7a e5 81 3c
       0.046158873 0.1362667 0.12627718 0.015856493
000320 bb 5d 14 3e 7f 4a 27 be 26 d6 52 bc 65 64 15 3c
       0.1448888 -0.16337012 -0.01286844 0.009118174
000330 6f ce f4 bd ea ca 54 bd d3 2d 80 3c aa 24 7f bc
       -0.119534366 -0.051951326 0.01564685 -0.015572706
000340 3c b3 69 3d c1 90 e5 3d 08 18 33 3e 62 f5 f2 bd
       0.057055697 0.1120925 0.17489636 -0.11863209
000350 17 51 20 be 09 e9 10 bd c0 ad a2 bd 94 0a de 3c
       -0.15655933 -0.03537849 -0.079432964 0.027104653
000360 f6 94 ee bd db b6 f9 bd c0 ea 0b be 1d 92 12 3e
       -0.11649506 -0.1219308 -0.13663769 0.1431355
000370 c1 a5 d2 3d 6d 09 30 3e 7b aa 02 3e 4f 9a 04 3d
       0.10285521 0.17191096 0.12760346 0.032373723
000380 34 31 1e 3e 0e ff f2 3b 10 76 d1 3d ef 02 b3 bd
       0.15448457 0.007415659 0.10227597 -0.08740794
000390 a1 70 06 3e 0d ea ab 3c 9f 4f 8c bd 54 9d 73 bc
       0.13128902 0.020985628 -0.06851124 -0.014869053
0003a0 ed e2 9f 3c 73 ce 23 3d 3d a2 a9 bd 14 38 05 3b
       0.019517386 0.039991807 -0.082828976 0.0020327615
0003b0 98 d4 bc 3b 07 d2 be 3d 27 d7 a4 3b 8d 59 25 3e
       0.005762648 0.09317403 0.005030531 0.16147442
0003c0 dd 2e 1d 3e 6c 5a e2 3d e9 46 de bd bc 2f cc bd
       0.15349908 0.11052403 -0.10853369 -0.09970042
0003d0 61 06 c6 3d 33 5b 0d 3d ba 80 c3 bd 6e 7f 13 3d
       0.096691854 0.034510802 -0.09546037 0.0360102
0003e0 d1 02 e1 bd b1 3b 9b 3c eb 35 04 bd 07 58 fa 3d
       -0.10986865 0.018949362 -0.032277983 0.12223821
0003f0 8c d6 8f bc 58 25 06 3b eb 82 33 3e 45 ab a2 3d
       -0.017558359 0.0020469036 0.1753041 0.07942823

linear2.weight f4 [256, 256]
000000 c2 3d 5d bd 1f 6f 34 bb 52 97 6e bd df 3f 22 3d
       -0.054013975 -0.0027532054 -0.05824978 0.039611693
000010 13 f4 54 bc 35 fe 22 3c 8c 69 37 3d 66 9f a1 bd
       -0.012997645 0.009948303 0.04477839 -0.07891731
000020 1a 1d e1 bb fe 14 bc 3d b4 9b c1 3d 39 d0 0c 3d
       -0.0068699243 0.091836914 0.09453526 0.034378264
000030 b9 dd 25 bd 15 67 88 bd 0c 55 e0 bd fa 8a 3d bc
       -0.040494654 -0.06660286 -0.109537214 -0.011568779
000040 ff 78 e0 bc e4 3d 96 bd 7f 80 49 bd 85 62 03 bd
       -0.027401445 -0.073360234 -0.04919481 -0.032076377
000050 c0 d4 22 3d 7c cd d3 bc 09 97 13 3c 2f bb 5d 3d
       0.039753675 -0.025854819 0.009008178 0.05413359
000060 57 c1 88 bd c0 99 0c bd a5 d1 58 3d 49 4f c6 bc
       -0.06677502 -0.034326315 0.052934308 -0.024207728
000070 6e 8b b4 3d 54 ae 19 be de 71 f3 bc fa 3e 4d bd
       0.088156566 -0.15007907 -0.029717382 -0.050108887
000080 ba 61 70 3d 13 ff 82 bc 13 78 e8 3d e3 60 a6 3d
       0.05868695 -0.01599077 0.11351027 0.081239484
000090 07 8c 10 bb 59 9c 45 bd 2c 42 17 3c 14 43 33 3c
       -0.002205612 -0.048244808 0.009232085 0.010941286
0000a0 40 d3 b1 bc c8 12 ad 3d 8b b1 cc 3c 24 ff 0d 3e
       -0.021707177 0.08450848 0.024987003 0.1386686
0000b0 d0 f0 07 bd cd e8 5e bc 0d c4 3b 3d 07 5f 11 3d
       -0.03318864 -0.013605309 0.045841265 0.035491016
0000c0 ba b0 e1 3c db 67 ac 3d 8e af b0 3c cf 16 ff bd
       0.02755009 0.08418246 0.021568086 -0.12455522
0000d0 59 7e 2f bc ae 42 e3 3d 11 24 12 bb d7 86 20 3d
       -0.010711276 0.110967025 -0.002229933 0.039191093
0000e0 17 b7 e6 3d 62 fa d4 bd 4c 8a 63 3d d1 1a 8c 3d
       0.1126539 -0.10399319 0.055551812 0.06841052
0000f0 b1 d9 36 bd 43 16 de bd f3 10 42 3d 6a b8 04 3d
       -0.0446412 -0.1084409 0.047379445 0.032402433
000100 92 90 a4 3d 2e 7a dd 3d 23 7c c0 3d 13 a2 6e 3d
       0.08035387 0.108143196 0.09398677 0.058260035
000110 21 18 0c 3d 3e da 13 bd b8 e1 7a bd db 67 61 3d
       0.0342027 -0.036096804 -0.06125042 0.055030685
000120 0d c0 c7 3d cf bd 65 3c 1f c6 92 3c 36 ee b4 3d
       0.09753428 0.014022305 0.017916737 0.08834498
000130 dd c4 9f 3b 5b d4 76 3d 83 9e e5 bc d4 c8 85 3d
       0.004875763 0.06026111 -0.028029686 0.065324455
000140 b2 f6 f3 3d 54 46 9b bc 22 cc 79 bd f8 79 b0 bc
       0.11912288 -0.018954434 -0.06098569 -0.021542534
000150 86 2f 54 3d f7 0b 5d 3d bb 54 32 bc 2b 0f dc 3d
       0.051803134 0.05396649 -0.010884459 0.107450806
000160 f8 a3 21 bd 65 99 65 3c 67 a3 ca bc 67 e9 89 3e
       -0.039463013 0.014013623 -0.02473612 0.26935884
000170 53 1c 15 3d d3 29 2f bd 4d 9d ab bd 51 53 8f 3d
       0.036403965 -0.042764496 -0.08379612 0.06998313
000180 14 a2 65 bc f9 c2 f2 3a e3 61 a2 3d 7a 77 1f bb
       -0.014015693 0.0018521241 0.07928827 -0.0024332688
000190 c8 50 1d 3d f2 9c a9 bc b6 5f bc bd bc 6c 8f 3d
       0.038407117 -0.02070472 -0.09197943 0.07003161
0001a0 bb 67 a1 3d 6a 00 23 be dc 64 6d 3c 37 c5 69 bd
       0.07881113 -0.15918127 0.014489379 -0.057072844
0001b0 1e 06 51 bc a1 ef a2 3d 7a e0 76 bc d3 ba dc bc
       -0.012757806 0.07955862 -0.015068168 -0.026944553
0001c0 9c 4f 5f bd 2c e6 4d bd 41 19 02 be 7d 04 e9 bd
       -0.05451928 -0.050268337 -0.12704946 -0.11377809
0001d0 26 cb 36 3c 6e 91 20 3d 70 78 37 3b 29 98 82 3c
       0.011156833 0.039201193 0.002799537 0.015941696
0001e0 a0 70 9f 3c 45 aa 91 bb d9 a2 fc 3c 4e 39 48 bd
       0.019462883 -0.0044453465 0.03083937 -0.048882775
0001f0 90 17 78 3a 06 6d c8 3d c6 78 a5 3d 20 8e 32 3c
       0.00094639603 0.097864196 0.08079676 0.010898143
000200 70 e1 7d bc 88 c6 e1 3d bf 69 5a 3d 48 6c b7 bb
       -0.015495643 0.11024195 0.053323504 -0.005597625
000210 69 75 2d 3e 90 f7 44 3c 37 bc 95 bd 19 cd ab bd
       0.1693932 0.012021914 -0.0731129 -0.08388729
000220 e7 bf ce 3d 1d 17 71 3c a0 56 fb bd 8c e3 87 3b
       0.10095196 0.014714983 -0.12272382 0.0041469987
000230 a4 80 c5 bd 9a 97 9c 3d cc b0 9e 3c a2 0f 9a bb
       -0.09643677 0.07646103 0.019371413 -0.0047015706
000240 f8 7b 18 3d 89 1e fb bc 8b d8 a9 bd cf b3 91 3d
       0.0372276 -0.030654209 -0.082932554 0.07114374
000250 37 57 16 3d 89 cf 97 bd e7 75 f5 3d b3 26 db 3d
       0.03670427 -0.07412631 0.11985379 0.10700741
000260 c7 8b 22 bd cd d9 58 ba c7 ed 59 3d e4 17 0d bc
       -0.039684083 -0.0008272201 0.053205278 -0.008611653
000270 c6 88 ab bb 25 38 70 bd 4c e1 90 bd 93 07 d7 3c
       -0.0052348105 -0.058647294 -0.07074222 0.026248729
000280 1f ab bb bc 29 70 80 3d 7c 71 b7 bd 17 19 f4 bc
       -0.022908745 0.06271393 -0.08957192 -0.02979712
000290 91 f7 5e bd d0 11 7a 3c 53 74 04 3d 21 7e e6 3c
       -0.054435316 0.015263036 0.032337498 0.028136315
0002a0 a7 31 1a 3c 54 e9 97 3c 07 d9 a7 bd 55 d1 ff 3d
       0.009411252 0.018543877 -0.081956916 0.12491099
0002b0 4f 66 86 bd 87 7b 65 3b e1 1e 4f bd b8 14 ad 3c
       -0.065624826 0.0035016255 -0.050566558 0.021128044
0002c0 62 77 fc 3b 9b 1c 99 bb 4b df 94 bd 20 ab 1d bd
       0.007704661 -0.0046725995 -0.07269152 -0.038493276
0002d0 f2 d8 bc 3d 60 02 08 bd 91 db f2 3b b9 24 10 3d
       0.092210665 -0.03320539 0.0074114283 0.03519127
0002e0 49 06 8d bd 67 4e 18 bd 6d e0 91 3d 1a ef 17 3e
       -0.068859644 -0.037184145 0.07122884 0.14837304
0002f0 39 9b c0 3b a2 b2 68 3d 60 7e ad bc 05 de 53 3d
       0.005877879 0.056810983 -0.021178424 0.051725406
000300 72 98 39 3d a9 8b bd 3c 56 35 2b 3c bb ac 1b 3e
       0.0453114 0.023137884 0.010449728 0.1520261
000310 9a 74 91 3d 54 5b 39 bc 3f 56 bc 3d d5 fb 34 3d
       0.07102318 -0.011313278 0.09196138 0.04418548
000320 cf c3 25 bc ab 4a 9a 3d c7 85 a1 bd a8 5e 4a 3e
       -0.010117485 0.07533773 -0.07886844 0.19762671
000330 14 0c f2 3c c7 06 55 bd e3 f8 18 3d e7 45 95 bd
       0.029546775 -0.052008417 0.037346732 -0.072887234
000340 05 90 88 3c 80 b3 0a bd a7 6b 84 3c 89 e1 3d bc
       0.016670236 -0.03386259 0.016164614 -0.011589416
000350 99 d8 af 3d e3 d4 92 3d 00 82 c9 3d e3 61 4b bd
       0.085862346 0.07169511 0.09839249 -0.0496539
000360 1c d1 0e ba 54 34 f1 3d 5d 3b 6a bb e3 76 a1 b9
       -0.000544803 0.11777559 -0.003574095 -0.0003079689
000370 db de 13 3c c4 a0 8e 3a 9a 62 3a 3d 7f a5 b1 bc
       0.009025301 0.0010881652 0.04550419 -0.02168536
000380 34 18 1b bd 3f eb 6b bd ee 45 0f 3d 75 61 98 3c
       -0.03786488 -0.057597395 0.0349788 0.018601159
000390 e0 bf 15 3d bf d4 6e bd c9 d6 aa 3d 87 4a 5d 3d
       0.03655994 -0.05830836 0.08341748 0.054026153
0003a0 3a 82 b0 3c 8b 35 5d 3b 1c e5 6d bd a0 e4 dc 3d
       0.021546472 0.0033753838 -0.058079824 0.10785794
0003b0 e9 47 0b bd af da a7 3d 1a 0c 40 3e 93 24 22 3d
       -0.034004126 0.081960075 0.18754616 0.03958566
0003c0 4a f6 8f 3d 19 9c cd bc bc da 50 bd b4 f0 b9 bd
       0.07029398 -0.025098847 -0.05098985 -0.090791136
0003d0 c9 be 5a 3d f8 30 da bc 3b 2a 18 bc 68 61 9b 3d
       0.053404603 -0.026634678 -0.009287412 0.07586938
0003e0 fe 71 e4 bd aa ee e1 bc ee e2 c4 3c 51 04 c3 3b
       -0.11154555 -0.027579624 0.02403399 0.0059514423
0003f0 f8 1d e2 bc 8a bf 00 3c f3 ce 9d bc f6 67 41 3d
       -0.02760218 0.0078581665 -0.01926372 0.047218286

linear2.bias f4 [256]
000000 0c 20 b1 bb 09 32 6d bd 9e 8f bf bc da de 1a bd
       -0.0054054316 -0.057909045 -0.023383912 -0.037810184
000010 64 aa 7d bd f3 e0 83 bd 8a 27 5c bd 63 09 66 3d
       -0.061930075 -0.0643939 -0.053748645 0.056161296
000020 5e 63 18 3d 37 30 5b bd 55 62 a8 3d 72 c8 17 bd
       0.03720414 -0.053512778 0.0822188 -0.037056394
000030 26 8e 95 3d 38 a0 a4 3b 5d e8 67 bd e5 31 41 3d
       0.07302503 0.0050239824 -0.056618083 0.047166724
000040 a7 8f a9 3d 51 c3 f6 3b ba 87 ab 3c 98 b5 77 3d
       0.08279353 0.0075306077 0.020938743 0.060475916
000050 3a b5 c0 3c 3f 13 0b 3d 0f 8d b2 bc c4 54 5f bd
       0.023523916 0.0339539 -0.021795778 -0.0545242
000060 48 56 79 3d 98 d1 d9 bc 3d 78 fa 3c ea f0 e3 bb
       0.0608733 -0.0265892 0.030574912 -0.0069562094
000070 a7 6e 94 3d fd 1f 1c bd ed 8c 18 3b aa d5 0f 3d
       0.07247668 -0.038116444 0.0023277358 0.035115875
000080 10 04 2c 3d 8c 0f 8b bd 4e fb cd bc 76 41 1d bd
       0.04199606 -0.06790075 -0.025144245 -0.038392507
000090 64 bb 24 bd 59 e2 8a 3d 3e 66 45 bc fd ca 87 bd
       -0.040217772 0.06781454 -0.012048302 -0.06630514
0000a0 fd a1 4b 3d dc 12 9c 3d 52 ad 0d bc 6b c9 6d bc
       0.04971503 0.07620785 -0.00864728 -0.014513354
0000b0 eb a5 9d 3c 67 de 6e 3d 6b e2 0b bd 82 3b a2 bc
       0.019244155 0.05831757 -0.034151476 -0.019803766
0000c0 99 a7 54 3b 24 24 2c 3d 5d 45 01 3d 68 b5 f0 3b
       0.0032448529 0.042026654 0.03156029 0.007345844
0000d0 d1 c7 05 bd d2 6f 7e 3c e5 e5 24 bc 3f e2 a1 3b
       -0.032661263 0.01552959 -0.010064577 0.0049403007
0000e0 26 60 97 3c b5 64 ba bc bd 98 d3 39 d9 1c de 3c
       0.018478464 -0.022753099 0.00040358855 0.027113365
0000f0 95 60 01 3d 8b 6e 90 bd a1 2e 18 3d 93 e1 b4 3c
       0.03158625 -0.070523344 0.037153844 0.022080218
000100 e4 0a 9e 3c cb 3e 33 3d c6 30 fa 3b 86 99 81 bc
       0.019292302 0.043761056 0.007635209 -0.015820276
000110 eb 6f e4 3b 4a 11 86 bd f5 74 39 bd 04 0a 5e bb
       0.0069713495 -0.065462664 -0.045277555 -0.0033880481
000120 15 ed e3 bb 94 0e c1 3d 2c 0b e8 3c 43 60 64 bd
       -0.0069557526 0.09426609 0.02832564 -0.055755865
000130 a5 fd 01 bd bd d7 c0 3c 20 4f 57 3d 72 9b a6 bb
       -0.031736035 0.023540372 0.052565694 -0.0050844485
000140 f2 16 33 3d b3 fa f0 3c 64 5b 0b bc 1d bb b3 bc
       0.043723054 0.029416418 -0.008505676 -0.021939809
000150 fd b2 4b bd d6 21 86 3d bc 1d 7f bc d1 3a 36 bd
       -0.049731243 0.065494224 -0.015571054 -0.044489685
000160 ba 79 bb 3d 8f 57 8e 3d 0f 14 5c bc 46 09 95 3b
       0.09154077 0.06950294 -0.013432517 0.0045482246
000170 b7 a5 a6 bc 17 a4 f5 bc 25 0b c9 bc a3 20 da bb
       -0.02034269 -0.02998547 -0.024541447 -0.0066567226
000180 da 5a 2e 3d 7a e2 13 3d c4 f2 79 3d b1 ee 13 3d
       0.04256711 0.036104657 0.061022535 0.036116306
000190 d4 9e 2f 3d b6 27 66 3d c2 10 35 bd 72 cb 84 3c
       0.04287608 0.056190215 -0.044205435 0.016210292
0001a0 1f c1 a2 3c 1c bb fe 3c 86 3b 0b 3d c7 aa d6 3c
       0.019867478 0.03109508 0.033992313 0.02620448
0001b0 50 ee 39 3d df 51 4a bc 7d 25 6c bc 6a d6 e3 bc
       0.045393288 -0.012348621 -0.014413235 -0.027812202
0001c0 e1 4d a4 bc bc 81 83 bd 08 d6 54 bd 73 cc 34 bb
       -0.020056667 -0.06421229 -0.05196193 -0.0027587682
0001d0 79 fd 7d 3c ee cf 6b bc 86 b5 bc 3c 8b 1d 04 3d
       0.015502327 -0.014392836 0.023035776 0.032254737
0001e0 50 44 1a 3d c6 f6 bb 3d aa a3 98 3d e9 68 43 3d
       0.037662804 0.09177928 0.074530914 0.047707472
0001f0 6f 4d 46 bc ac 66 cd 3c 2a 6f 8f bd f7 f3 12 3d
       -0.012103423 0.025073372 -0.07003625 0.035877194
000200 fc 15 0f 3b 61 aa a3 3b 05 58 04 3d 06 95 6a bd
       0.0021833172 0.004994676 0.032310504 -0.057271026
000210 6b 3c e2 3a 26 7c 6a bc 62 e2 5a 3b 6b 66 b5 3c
       0.0017260438 -0.014311826 0.0033399095 0.022143563
000220 de 35 2e 3d ce 43 10 3b db 77 9e bd e1 f3 25 3d
       0.04253184 0.002201307 -0.07737704 0.040515784
000230 c2 3c 8a 3c ba 54 59 bd c4 8a e8 3c fd 3b 74 3c
       0.016874675 -0.053059317 0.028386481 0.01490688
000240 47 93 97 3b e2 fb 90 bd c1 4d 50 3c fc 8b 3b 3c
       0.004625711 -0.07079293 0.0127138505 0.011446949
000250 69 b8 52 3d a1 90 09 bd 17 7e df 3c 34 76 8b 3c
       0.0514454 -0.033585194 0.027281804 0.017024137
000260 6b 3d 43 bc 5c 68 1a 3d 84 ea d8 bb 73 7c 25 3d
       -0.011916499 0.03769718 -0.0066197533 0.040401887
000270 97 99 aa bc f2 0b b8 bc e1 c9 92 bd 67 33 59 bb
       -0.02082519 -0.022466633 -0.071674116 -0.003314221
000280 47 d9 57 bd b5 b9 02 bd 7b a1 57 bc cf 4a 4a bd
       -0.052697446 -0.031915385 -0.013161059 -0.04938775
000290 19 b7 c0 3c 1a b5 b7 3c bf 58 8f bd 06 8d a4 3b
       0.023524808 0.022425223 -0.06999349 0.005021694
0002a0 45 ab 1e bb b9 96 70 bd 39 0e 98 bd 17 52 93 3c
       -0.0024210971 -0.05873749 -0.07424588 0.01798348
0002b0 50 97 f9 bb bf 61 9b 3d eb 8a b6 3c 3e 86 be bc
       -0.007616915 0.07587003 0.022283038 -0.023257371
0002c0 5f 04 24 bd 9e c8 2b bd a6 e1 2a 3c 04 88 85 3d
       -0.04004323 -0.04193937 0.010429775 0.065200835
0002d0 33 11 ff 3c e2 ea 23 bd 94 87 b3 bb 32 d7 a1 3c
       0.03113613 -0.040018924 -0.0054788087 0.019755933
0002e0 db b4 57 bd 9f e6 95 3c 77 87 2a bd 45 e1 68 bd
       -0.05266271 0.018298445 -0.041633096 -0.05685546
0002f0 39 ef 86 bc df bd 11 3d 5f 77 8e 3c cb 97 a6 bc
       -0.016471492 0.035581466 0.017390905 -0.020336052
000300 57 47 22 3d 19 ac 8c bb 41 de 80 bc 71 04 8f 3d
       0.039618816 -0.0042929766 -0.015730979 0.06983269
000310 f1 a9 93 3d 4c a0 f3 3b 71 a8 28 3d 50 5a 34 bd
       0.07210148 0.0074348804 0.041176263 -0.04403144
000320 24 f1 3b 3d bf 0a de 3b 77 8b 83 3d eb 17 3a 3d
       0.045884266 0.0067761834 0.06423085 0.045432966
000330 bb 4f b1 bc fb 03 48 bd 5f cc 42 3d f2 4f f1 ba
       -0.021644464 -0.04883192 0.047558185 -0.0018410666
000340 50 d6 1f 3c 59 b1 95 3c af e0 d6 bc 57 bb 9d bc
       0.009755686 0.018273043 -0.026230184 -0.01925437
000350 4b 8e 8a bb 91 ad 9c bd 38 22 1b 3d cc c3 36 bd
       -0.0042283884 -0.07650293 0.03787443 -0.04462032
000360 93 69 34 bc 1d fc ca bc f2 87 1f bd 9e 2d 73 bd
       -0.011011499 -0.02477842 -0.038948007 -0.059369676
000370 1c 45 39 3d c6 d1 52 bd e9 91 12 3d 47 ae 02 bc
       0.045231923 -0.051469587 0.035783682 -0.007976121
000380 59 28 11 3d a3 d7 d3 bc 49 ae 65 3d a2 a1 26 3d
       0.03543887 -0.02585966 0.056074414 0.04068149
000390 24 5f 01 bd b7 c9 9f 3c 07 c7 2a 3b 48 c0 0f 3d
       -0.031584874 0.019505365 0.002605857 0.035095483
0003a0 ac 9e 68 bd 50 80 1e bd c2 4c 83 3c 51 59 2d 3c
       -0.056791946 -0.038696587 0.016027812 0.010580377
0003b0 9b 60 99 3d 2e 0c d1 3c 27 06 13 bd 72 c7 00 3d
       0.07489129 0.025518503 -0.03589454 0.031440206
0003c0 2b 75 e8 3c 7b 42 dd 3c 50 03 ee 3c c3 4a 31 3d
       0.028376183 0.02700924 0.029054314 0.04328419
0003d0 8d 00 56 bd 3f 1f bc 3b d3 4a e1 bb 35 0e 5b 3d
       -0.05224662 0.0057410295 -0.006875375 0.053480346
0003e0 4a da 78 bd 7f 79 2c 3d f9 8c 04 bd ea 3b d1 bc
       -0.06075505 0.042108055 -0.032361005 -0.025541265
0003f0 d8 56 bf 3d 29 d3 92 3b 84 9e bc ba 7b c5 2c 3c
       0.09342736 0.0044807387 -0.0014390503 0.01054513

linear3.weight f4 [3, 256]
000000 24 ab bc 3d 82 34 1e 3e 7d f9 16 bd a5 94 bf bd
       0.0921233 0.15449718 -0.036859024 -0.093545236
000010 db 91 43 bc 96 c5 bd 3c 8b c8 4e 3d 59 bc 91 3e
       -0.01193663 0.023165505 0.05048422 0.2846401
000020 91 2c 74 3d 06 95 c1 bb be 57 da 3d df 7d d8 bb
       0.059612814 -0.0059076576 0.10661267 -0.006606802
000030 d1 26 8e 3d 68 64 95 be ff 90 3d bd cb 46 02 3e
       0.069409974 -0.29178166 -0.046280857 0.12722318
000040 04 3f 7e be a6 ee fe bb a8 47 cd 3d 36 54 2e 3e
       -0.24828726 -0.007779914 0.10023433 0.17024311
000050 c6 17 5b 3d 0a 68 a9 3c 2a 9c 4e be 15 bb 0d be
       0.05348947 0.020679493 -0.2017676 -0.13840897
000060 02 bb 66 bc 7b 9e f8 bc f8 d9 1c be 3e 50 41 be
       -0.014082672 -0.030349007 -0.15317523 -0.18878266
000070 80 cc 8f be d3 ca 1a be c4 23 03 3e cb e0 01 3e
       -0.2808571 -0.15116434 0.12806612 0.12683408
000080 6a 24 03 3e 9b 2a c1 bd d2 77 a2 bd 65 2f 53 3e
       0.1280686 -0.094319545 -0.0793301 0.20623548
000090 1f 13 ee 3c 84 c8 a1 3d 1b 54 99 be 57 7a ea bd
       0.029061852 0.078995734 -0.2994698 -0.11449116
0000a0 b5 e0 22 bc cd df b1 bd b5 a6 00 3e f9 b8 0b be
       -0.00994127 -0.08685265 0.12563594 -0.1364478
0000b0 3e 0e 04 bd 6b 88 4b 3e d5 53 0e bd 95 e0 4d be
       -0.032240145 0.19876258 -0.034747917 -0.20105202
0000c0 29 e8 36 be f9 b6 b2 3d 51 7e 12 3e d8 5b 1f 3d
       -0.17862 0.087263055 0.14305998 0.03890595
0000d0 76 90 18 3e 72 f4 9b 3c e5 93 fe bd b3 a4 d4 bd
       0.14898857 0.019037459 -0.124305524 -0.103829764
0000e0 a1 95 81 be 09 e5 09 be 57 55 b6 be 35 2c 2a 3e
       -0.2530947 -0.13466276 -0.35611984 0.16618426
0000f0 6f c0 a1 3e 52 2f 33 bd 75 f8 f7 bb 74 8b e5 bd
       0.31592128 -0.0437463 -0.00756746 -0.11208239
000100 f4 fb 03 3d 4b 8e 1c be e0 6e 12 bc b1 f9 1b be
       0.032222703 -0.15288655 -0.0089375675 -0.15231968
000110 73 8c aa bd 4e 7f 87 be 6b 26 92 3d 2a 02 25 be
       -0.0832757 -0.26464313 0.07136234 -0.16114107
000120 20 26 29 be 03 6a 12 3e 94 6a 30 be 1f 43 78 bd
       -0.1651845 0.14298253 -0.17228156 -0.060610887
000130 31 4f 5b be a7 6c 43 3e 37 9a 98 3d 9f 5e 70 3d
       -0.21416928 0.19084416 0.07451289 0.058683988
000140 86 f2 0f 3e e6 5c b8 3d e8 fd 99 3d dc 73 f0 bd
       0.14057359 0.09002094 0.07519132 -0.117408484
000150 a1 aa b7 3d 39 6f 51 be 51 1c 54 3d 29 2b 6d be
       0.08968092 -0.20452584 0.051784817 -0.23160996
000160 92 8e 1d be 15 e2 3d 3e 99 7e 90 3d 7a 93 1b 3e
       -0.15386418 0.18543275 0.070553966 0.15192977
000170 1d c3 27 3e b5 b5 e6 3c 60 be 99 3d d5 8a 07 3c
       0.16383024 0.028162817 0.07507014 0.008272846
000180 d9 59 11 be c4 e8 88 bc b8 53 e6 bd 90 71 11 3e
       -0.1419443 -0.016712554 -0.11246437 0.14203477
000190 41 ed aa bd a3 5b 8c 3d ac ed 99 3d c1 1c 7d be
       -0.08346034 0.06853416 0.075160354 -0.24718
0001a0 23 dc 30 be 06 5b 75 be 3c 0a 85 be 46 fc bf 3d
       -0.17271475 -0.23960504 -0.2598437 0.09374289
0001b0 43 ec 55 be 39 95 31 3e 6e a8 8e 3d 72 19 cb 3c
       -0.20890908 0.1734208 0.06965719 0.024792407
0001c0 f1 82 7d bc 77 2e c5 bd 2c 1c 20 be 1a f9 33 3d
       -0.015473113 -0.09628003 -0.15635747 0.043938734
0001d0 70 6e ba 3a 0b 91 78 3e fa ff c1 bb 9b 03 a8 3d
       0.0014223587 0.2427408 -0.0059204074 0.08203813
0001e0 9e bc 02 be a9 61 6c 3d 64 a6 5f bd f1 06 07 be
       -0.12767264 0.057710323 -0.05460204 -0.13186242
0001f0 53 0e 75 be 68 39 79 3d 30 c5 37 bd 43 98 df bd
       -0.23931246 0.060845762 -0.044865787 -0.109177135
000200 fc d6 88 3d 61 e7 ef bd f0 e9 18 be 78 8a 4d 3c
       0.0668163 -0.11714054 -0.1493299 0.012545221
000210 49 f3 58 bd f8 3e 09 3d 1f c7 83 3d ef 8e 0a bd
       -0.05296639 0.033507317 0.06434464 -0.03382772
000220 77 16 19 be 9a 7d 8b 3e c1 ec 8b bd 7d 05 65 3d
       -0.14949976 0.27244264 -0.068322666 0.055913437
000230 92 c7 ee bd 2b c3 bf bc a5 82 c6 3d 7d 2e 70 be
       -0.11659159 -0.023408493 0.09692887 -0.23455234
000240 d2 f8 0d 3e 7d 0f 9e 3d 67 1c 5b be 81 f3 80 3e
       0.13864449 0.07717798 -0.21397553 0.2518578
000250 58 ec 90 3c 9b 47 64 3e 50 20 48 be 42 a8 c7 bd
       0.017690822 0.2229294 -0.19543576 -0.097488895
000260 ed b1 a9 3d 8e 7c 22 3d a7 fc 4e 3c b5 28 c7 3c
       0.0828589 0.039669566 0.012633479 0.024311403
000270 5b 9f 1f bd 65 17 0e 3d cf 1d 08 3e 7c 72 93 bd
       -0.038970333 0.03469028 0.13292621 -0.071995705
000280 6a 45 68 3d f4 0c 3f be ee 15 fb 3c 53 e1 17 3d
       0.056706823 -0.18657285 0.030650105 0.03708012
000290 86 05 f2 3d f7 4d 8d 3e 3c 67 13 bd a7 e9 6a 3d
       0.1181746 0.27598545 -0.035987124 0.057351734
0002a0 87 e5 a0 bc 26 5b 29 3d fd 77 6a 3d f8 44 ac 3e
       -0.019640697 0.04134669 0.057243336 0.3364637
0002b0 1e 91 58 3d bb eb 91 3d 06 83 9e 3c 76 b3 c7 3c
       0.05287277 0.0712504 0.019349586 0.024377566
0002c0 d9 b7 16 be 3f 7e 1b 3d a0 47 5d 3e aa ba 0b 3e
       -0.1471857 0.037962195 0.21609354 0.13645425
0002d0 92 1c 54 be d0 db a7 be e5 02 8a 3e 3c 7d b1 3d
       -0.20714024 -0.3278489 0.26955333 0.08666465
0002e0 bc b1 20 3e 71 a5 90 3e 1e 82 1a 3e cf c0 a0 3c
       0.156928 0.28251222 0.15088698 0.019623188
0002f0 8d 4a b2 3c 24 8a 5f 3e f6 95 45 be 91 6e 66 3d
       0.021764064 0.2183004 -0.19295487 0.056257788
000300 a8 91 4f 3c 11 81 5b 3e 5f a9 df 3d 20 5d 2d 3e
       0.0126690045 0.21435954 0.10920977 0.16930056
000310 ab 8c 0f be 66 5b db 3d b8 c8 0f be de 1f 1b be
       -0.14018504 0.10710792 -0.14041412 -0.15148875
000320 36 9c a1 be c5 54 16 be 90 f9 be bd f9 de 0c bc
       -0.31564492 -0.14680775 -0.09324944 -0.008598083
000330 5e ba 1e be 6e 90 4b bd b5 51 34 3c 60 20 a9 be
       -0.15500781 -0.049698286 0.011005809 -0.33032513
000340 45 f4 5e bd 19 00 b6 3d 52 2e a6 be 75 91 46 3e
       -0.054432172 0.088867374 -0.32457215 0.19391425
000350 93 73 22 be 81 b9 af bd e1 be 79 3d d9 16 1e be
       -0.158644 -0.08580304 0.060973052 -0.15438403
000360 62 71 8a 3e 4f df ea 3d 44 5a 5a 3d 6b 49 b0 be
       0.2703963 0.11468374 0.05330874 -0.34431013
000370 22 09 05 3d da 3b 58 bd 2a cf c9 3d 0b f3 8b bd
       0.032479413 -0.052791454 0.098539665 -0.06833466
000380 d2 21 e8 3c e9 6c 82 3c a5 72 bb 3e d0 d0 f3 bd
       0.02833644 0.015921073 0.36610904 -0.11905062
000390 e5 0b c9 3b 11 2c 11 3d 08 2d b5 3d 5a 12 a8 be
       0.006135451 0.035442416 0.0884648 -0.328265
0003a0 be 64 85 3b 94 6e 81 be 5c 72 29 bc 2f e3 84 3d
       0.0040708473 -0.25279677 -0.010342207 0.06488644
0003b0 92 3e fc 3c f8 6a b4 bc f2 64 ed 3d c0 e7 a3 be
       0.030791555 -0.022023663 0.115915194 -0.3201275
0003c0 98 ea 07 be f3 e0 15 be 6f 8a b7 3d e5 a4 76 3d
       -0.13273084 -0.14636593 0.08961951 0.06021585
0003d0 b7 09 3f 3d be 5f 05 3e 72 f5 9f be c7 b4 5e be
       0.046640124 0.13024804 -0.31241947 -0.21748649
0003e0 09 e5 08 be 2a ed 92 bd 95 98 47 be 3e cc 36 3e
       -0.1336862 -0.07174142 -0.19491799 0.1785135
0003f0 b6 ab 37 3b 5c 69 8c be cd f2 33 be 9c 3d e4 3d
       0.0028025932 -0.27424133 -0.1757309 0.111445636

linear3.bias f4 [3]
000000 ef 1d 84 bd 53 7d 75 bb 9a c9 03 bc
       -0.06451022 -0.0037458732 -0.008043671
