version_6_points_without_rotation/DDPG_GPU_MPI/w32_s_t005/critic.pth (torch, 315223 bytes, 6 tensors)

linear1.weight f4 [256, 45]
0	0xbdd2fe26	-0.10302381
1	0xbdd08b91	-0.1018287
2	0x3de9fc52	0.114250794
3	0xbb54eb22	-0.0032488783
4	0xba7b1ef8	-0.0009579505
5	0x38acaeb8	8.234143e-05
6	0x3e2c595b	0.16830961
7	0xbea38920	-0.31940556
8	0x3dc1398f	0.094348066
9	0x3c872d9e	0.016501244
10	0xbe339f3c	-0.17541212
11	0x3cb38bfb	0.021917334
12	0x3d35f06d	0.04441874
13	0xbe938d5f	-0.28818795
14	0x3dcc970c	0.099897474
15	0xbd53c607	-0.051702525
16	0xbf4ca018	-0.79931784
17	0xbd557b10	-0.052119315
18	0xbc66eac1	-0.014094056
19	0xbfa71d9c	-1.3055911
20	0x3e19e152	0.15027359
21	0xbba02619	-0.004887354
22	0xbe2ff5d3	-0.17183618
23	0x3d574e4d	0.052564908
24	0xbdaa894b	-0.08326968
25	0xbf028e86	-0.50998724
26	0x3df80aea	0.12111457
27	0x3d572928	0.052529484
28	0xbf3d25ad	-0.73885614
29	0xbd7bd7d5	-0.06148513
30	0xbd2b123e	-0.041765444
31	0xbf8f70cd	-1.1206299
32	0x3d127fd6	0.035766445
33	0xbda6973f	-0.08134317
34	0xbf6a1ac6	-0.91447103
35	0xbd4fff11	-0.05078036
36	0xbc459e15	-0.0120616155
37	0xbecaac3e	-0.39584535
38	0x3e2829c5	0.16422184
39	0xbd4b9521	-0.049702767
40	0xbefffa01	-0.49995425
41	0xbd80833c	-0.06275031
42	0xbbbaf587	-0.0057055387
43	0xbc678639	-0.014131122
44	0xbaba9000	-0.0014233589
45	0x3c88b2ba	0.016686786
46	0xbdcf44ab	-0.10120519
47	0xbe37c9e2	-0.17948106
48	0xba738a1a	-0.0009290293
49	0x399b0a14	0.00029571413
50	0xbac72998	-0.0015194891
51	0x3c78f240	0.015194476
52	0x3d100bf3	0.035167646
53	0x3d3991fa	0.04530523
54	0x3de17ff9	0.11010737
55	0xbd05ebff	-0.032695767
56	0xbe14977b	-0.1451091
57	0xbcb9744c	-0.022638462
58	0xbe2f0584	-0.17091948
59	0xb78a0cc1	-1.6456821e-05
60	0x3d920ed8	0.071317375
61	0xbd4a1100	-0.04933262
62	0xbb63be6c	-0.0034750951
63	0xbd5aa87d	-0.05338334
64	0x3e11aadd	0.14225335
65	0xbe0855b8	-0.13313949
66	0xbc91056f	-0.017702786
67	0xbc1c3c19	-0.009535813
68	0x3dc3a414	0.0955278
69	0x3c9ab1a7	0.01888354
70	0x3e090468	0.13380587
71	0xbdcda02b	-0.10040315
72	0xbe1087d8	-0.1411432
73	0x3e72d693	0.23714666
74	0x3dec47cb	0.11537131
75	0xbda1dfe4	-0.07904032
76	0x3dda9906	0.10673718
77	0x3b8df8f6	0.004332657
78	0xbc017c60	-0.0079031885
79	0x3ee17477	0.44034168
80	0xbc189482	-0.009312751
81	0x3e071d02	0.1319466
82	0x3f0ea946	0.5572704
83	0xbe6532f9	-0.22382726
84	0xbc98a43b	-0.018632999
85	0xbce56886	-0.028003942
86	0x3c9d0e5a	0.019171882
87	0x3d1207ec	0.035652086
88	0x3caa51e3	0.020791
89	0xbbc5d982	-0.006037892
90	0x3e8259b6	0.2545907
91	0xbd2d9d9f	-0.042386647
92	0x3dff8dc7	0.12478214
93	0x3b4a2021	0.0030841904
94	0xb7cd7e0c	-2.44966e-05
95	0x3b2c6c27	0.002630958
96	0x3dbeffb6	0.09326117
97	0xbe51c0ad	-0.20483656
98	0x3e214101	0.15747453
99	0xbda11d42	-0.078669086
100	0xbd59d2b4	-0.053179458
101	0xbd6cdf88	-0.057830364
102	0xbd2248f0	-0.03962034
103	0xbd8a5ec1	-0.06756354
104	0x3cdb1d36	0.026747327
105	0xbcc7669a	-0.024340916
106	0xbd6cfd77	-0.05785891
107	0x3e141128	0.1445967
108	0xbe339aa2	-0.17539456
109	0x3da920c5	0.082582034
110	0x3d8a4688	0.06751734
111	0x3e6fad62	0.23405984
112	0xbe867d06	-0.2626726
113	0x3e0e0c88	0.13871968
114	0x3c9c8e1f	0.019110737
115	0x3d293f31	0.04132003
116	0xbe2c451c	-0.16823238
117	0xbbe041e6	-0.006843793
118	0x3e45bb8a	0.19309822
119	0xbe0e9ed3	-0.13927774
120	0xbac7aa7d	-0.0015233305
121	0x3e1d3294	0.15351325
122	0xbe3e2c81	-0.18571664
123	0xbe1c3494	-0.15254432
124	0x3e40a719	0.18813743
125	0x3cb07b59	0.021543192
126	0xbd805f4b	-0.06268176
127	0x3ee0ca22	0.43904215
128	0xbe037a92	-0.12839726
129	0x3c102752	0.008798437
130	0xbe0747b8	-0.13210952
131	0x3bd1ee60	0.0064065903
132	0x3da124cb	0.07868346
133	0xbbd5dc69	-0.006526519
134	0x3d0de40f	0.03464132
135	0xbdc3d962	-0.09562947
136	0xbdbb2cb2	-0.09139384
137	0x3da07725	0.07835225
138	0xbbceebd7	-0.0063147354
139	0x38c97b73	9.607421e-05
140	0x3bafcd7c	0.005365072
141	0x3dc82cbf	0.0977416
142	0x3d243b6e	0.04009574
143	0xbd118dd1	-0.035535637
144	0xbd98b8bc	-0.0745711
145	0xbe1fb3b9	-0.15595903
146	0x3e02a891	0.12759615
147	0x3dd9e8b2	0.10640086
148	0x3dc4b6db	0.096051894
149	0xbdf01c47	-0.117241435
150	0x3ddeb51f	0.1087439
151	0x3c7a6e61	0.015285105
152	0xbe07cf4c	-0.13262671
153	0xbe1c0649	-0.15236773
154	0xbe5bf002	-0.21478274
155	0x3cbe1e94	0.02320794
156	0xbdb7c6e9	-0.08973486
157	0x3d626547	0.055272367
158	0x3e19139a	0.14948884
159	0x3e0a7166	0.1351982
160	0x3e05a96d	0.13052912
161	0xbbb89fb8	-0.0056342743
162	0x3dacf401	0.084449776
163	0xbd27df03	-0.040984165
164	0xbc9253f9	-0.017862307
165	0xbd8c5cde	-0.068536505
166	0xbe53c915	-0.20682175
167	0xbc3a6443	-0.011376443
168	0x3c933fae	0.0179747
169	0xbdac066c	-0.083996624
170	0xbd4d55b6	-0.05013057
171	0xbcc3112e	-0.023811903
172	0xbe7872f2	-0.24262598
173	0xbdb63902	-0.08897592
174	0x3dbd54f6	0.09244721
175	0x3eb4b0d9	0.35291174
176	0xbd8f4e51	-0.069973595
177	0xbce33c25	-0.02773864
178	0xbbaf6893	-0.0053530424
179	0x3df329ad	0.118731834
180	0xbea5ad4b	-0.32358775
181	0x3d4ee30a	0.05050949
182	0x3d9f87df	0.07789587
183	0x3b5676d5	0.0032724638
184	0xbb10c48f	-0.0022089814
185	0xb941c450	-0.00018479046
186	0xbe40a305	-0.18812187
187	0x3d6be38d	0.057590056
188	0x3dd48cfa	0.10378452
189	0x3c235b1d	0.009970454
190	0xbdc77712	-0.09739508
191	0x3d073d2f	0.033017334
192	0xbe01e027	-0.12683164
193	0xbd9e5590	-0.077311635
194	0x3dcf47d4	0.10121122
195	0xbe74321a	-0.23847237
196	0xbdfc326e	-0.12314306
197	0xbc855760	-0.016277015
198	0xbdeda443	-0.11603596
199	0xbd89ac8f	-0.06722366
200	0xbe02dde5	-0.12779959
201	0xbe9e660b	-0.30937228
202	0x3da5b834	0.080917746
203	0x3b7b14cd	0.0038311959
204	0x3e168ece	0.14702913
205	0xbc63c67d	-0.013902304
206	0xbbcc14af	-0.0062280516
207	0x3e63f56e	0.22261593
208	0xbd866aa5	-0.065633096
209	0x3d010c4e	0.031505875
210	0x3e8188df	0.25299737
211	0xbde77271	-0.11301125
212	0x3dab82e4	0.08374575
213	0x3e8071d6	0.2508685
214	0x3b6309fa	0.0034643398
215	0x3dd85920	0.10563874
216	0x3e56a5cd	0.20961685
217	0xbe9e14fb	-0.30875382
218	0xbdcc3274	-0.09970561
219	0xbd02b94e	-0.031915
220	0x3b82606c	0.0039787795
221	0x3dd72ec2	0.10506965
222	0x3d3ae51b	0.04562865
223	0x3c1257b7	0.008932046
224	0x3c39f8a4	0.011350784
225	0x3d51a53c	0.05118297
226	0x3cab9f05	0.02094985
227	0xbd4af542	-0.049550302
228	0xbb3c9692	-0.002877627
229	0x3b91bcef	0.0044475715
230	0xb991a630	-0.00027780375
231	0x3d89e7c3	0.06733658
232	0x3dd35fc7	0.103210025
233	0xbe012bbc	-0.1261434
234	0xbdfc0663	-0.12305906
235	0x3e13c40c	0.14430255
236	0xbde1f638	-0.110332906
237	0xbcd44d85	-0.02591587
238	0x3d1f123e	0.038835756
239	0xbdfd8d96	-0.12380521
240	0xbea96a4f	-0.3308892
241	0x3e064b20	0.13114595
242	0x3ccc8284	0.024964578
243	0xbd97ffee	-0.074218616
244	0x3f36de07	0.71432537
245	0xbb51f317	-0.0032035762
246	0x3dba6d74	0.09102908
247	0xbc8db31e	-0.017297324
248	0x3da6f2bc	0.08151767
249	0xbe3104e0	-0.17287016
250	0xbe9dc807	-0.3081667
251	0x3cf62834	0.030048467
252	0x3da5aad4	0.080892235
253	0x3dbf0b27	0.09328299
254	0x3e07c6e0	0.13259459
255	0x3d343d02	0.044003494

linear1.bias f4 [256]
0	0xbdb6cc03	-0.08925631
1	0x3dc8b650	0.09800398
2	0xbe3e20a2	-0.18567136
3	0xbddbd27a	-0.107335046
4	0xbc89b474	-0.01680968
5	0x3d9b9773	0.07597246
6	0xbe06e23e	-0.13172242
7	0x3e4b741d	0.19868512
8	0x3c2281d2	0.009918647
9	0xbce82238	-0.02833663
10	0x3e135030	0.14386058
11	0x3d817e35	0.063229
12	0x3e2fc507	0.17165004
13	0x3bd85a12	0.006602534
14	0xbdffb7b4	-0.124862105
15	0x3d6b87ad	0.057502437
16	0xbd021973	-0.03176255
17	0xbe09b813	-0.13449125
18	0xbddb33d9	-0.107032485
19	0x3dd728fd	0.10505865
20	0x3e1cd3a4	0.1531511
21	0xbe2cdbdc	-0.16880745
22	0x3d0cbbba	0.034358718
23	0x3e088649	0.13332476
24	0xbdcd0dd0	-0.100124
25	0x3e24e2d1	0.16102149
26	0xbded484a	-0.11586054
27	0x3e13a4d9	0.14418353
28	0x3cef262c	0.029193006
29	0x3bc4fc16	0.0060114963
30	0x3dcd6334	0.10028687
31	0x3ddc4e43	0.10757115
32	0xbd5a7e50	-0.053343117
33	0xbc857794	-0.01629237
34	0xbdb0b41f	-0.08628105
35	0xbe9b6af6	-0.30355042
36	0xbd8fd104	-0.070222884
37	0x3e3a6338	0.18201911
38	0xbe82bb0f	-0.2553334
39	0x3dce466c	0.10072026
40	0x3dba341e	0.09091972
41	0x3e1528f7	0.14566408
42	0xbd214c8a	-0.039379634
43	0xbdf950f2	-0.12173642
44	0x3e8400fc	0.25782
45	0xbdbb305c	-0.09140083
46	0x3e3407d7	0.17581116
47	0xbd27a850	-0.040932
48	0xbd81082f	-0.06300389
49	0x3e059cc2	0.1304808
50	0x3d0f8e9d	0.035048116
51	0xbdbc36d0	-0.09190142
52	0x3d15d044	0.03657557
53	0xbe0d984b	-0.13827626
54	0xbdfaa583	-0.122386
55	0x3d637832	0.05553455
56	0xbdbbea9e	-0.09175609
57	0x3dd57986	0.104235694
58	0xbd9f7ae7	-0.07787114
59	0xbe373902	-0.1789284
60	0xbdd5c245	-0.104374446
61	0x3e16fa52	0.14743927
62	0x3cd9045d	0.026491338
63	0xbe063b54	-0.1310857
64	0x3dcd6500	0.1002903
65	0xbb85362c	-0.0040652957
66	0xbd18afc6	-0.037277006
67	0x3cb5d074	0.022194125
68	0xbe018576	-0.12648568
69	0xbdd51437	-0.10404246
70	0x3d1fb346	0.038989328
71	0x3dfb0004	0.12255862
72	0xbda396e1	-0.07987762
73	0x3d9037d0	0.070418954
74	0xbd842f96	-0.06454389
75	0x3dfac86a	0.12245257
76	0xbe625ced	-0.22105761
77	0x3c001c49	0.007819244
78	0xbc3e63f2	-0.0116205085
79	0x3c662c02	0.014048578
80	0x3dcaa99a	0.0989563
81	0x3d93499c	0.07191774
82	0x3e0c6906	0.13711938
83	0xbda3fd85	-0.080073394
84	0x3e1509af	0.14554475
85	0x3e0b676e	0.13613674
86	0xbd4c1081	-0.049820427
87	0xbd7c2265	-0.06155624
88	0x3d053019	0.032516573
89	0x3e071c72	0.13194445
90	0xbe13bfef	-0.14428686
91	0xbddf74a3	-0.109109186
92	0xbd4aa602	-0.049474724
93	0xbdec8ded	-0.11550508
94	0xbd2889af	-0.04114693
95	0xbe5c1e75	-0.21495993
96	0x3d88ed98	0.066859424
97	0xbe515aa7	-0.20444737
98	0x3e2bed5e	0.16789767
99	0x3db16908	0.08662611
100	0x3e487d0b	0.1957895
101	0x3d8490e6	0.0647295
102	0xbdc90c70	-0.098168254
103	0x3d52f1fa	0.051500298
104	0x3d39f392	0.045398302
105	0xbdbf79b9	-0.09349389
106	0xbdde3f45	-0.108519115
107	0xbd5525b1	-0.0520379
108	0xbc1fae8a	-0.009746203
109	0x3d148fb7	0.03626987
110	0xbcac1cfc	-0.021009915
111	0xbcc9be83	-0.024626976
112	0xbb3c6aba	-0.0028750137
113	0x3d36da90	0.04464203
114	0xbdf2b89f	-0.1185162
115	0x3e1586cc	0.14602202
116	0x3e07ee7c	0.13274568
117	0xbb636d93	-0.0034702762
118	0x3d92afb2	0.071624175
119	0xbcacf22f	-0.021111576
120	0xbb04991f	-0.002023287
121	0x3c1884e5	0.009309028
122	0xbdb6508d	-0.089020826
123	0x3e68a9d4	0.22721034
124	0x3b789c51	0.0037934969
125	0x3e0d1220	0.13776445
126	0x3de36f8f	0.111052625
127	0xbdb849e0	-0.089984655
128	0x3e0f559c	0.13997501
129	0x3deabd20	0.11461854
130	0xbd343729	-0.043997917
131	0xbc494ec6	-0.012286847
132	0x3d89e228	0.06732589
133	0xbddbabfc	-0.10726163
134	0xbbdb63cb	-0.006695246
135	0x3d65f114	0.056138113
136	0xbd857d3b	-0.065180264
137	0xbc4deefb	-0.012569184
138	0xbd579a3e	-0.05263733
139	0xbdf8bc3e	-0.12145279
140	0xbd2c49e8	-0.04206267
141	0x3e630ca0	0.22172785
142	0x3e2e3e3c	0.17015928
143	0xbe0004bb	-0.12501805
144	0xbd829ed9	-0.06377954
145	0xbbdee86c	-0.006802609
146	0xbd2007c4	-0.039069906
147	0x3c1568b0	0.009119198
148	0xbc83951d	-0.016062314
149	0x3e1b885b	0.15188734
150	0xbdfb3248	-0.1226545
151	0xbd8c0992	-0.06837763
152	0x3d8059c2	0.0626712
153	0xbe7b61eb	-0.24549071
154	0xbcc6afec	-0.024253808
155	0x3d3a399b	0.045465093
156	0xbd5094fc	-0.050923333
157	0x3df32a7a	0.11873336
158	0xbc4a40f0	-0.012344584
159	0xbe7c1a90	-0.24619508
160	0xbc66117a	-0.014042253
161	0x3e315699	0.1731819
162	0x3d9d3201	0.07675553
163	0x3e125eac	0.14293927
164	0xbdf36396	-0.11884229
165	0xbe3c1667	-0.18367921
166	0x3dea994e	0.11455022
167	0xbdedb015	-0.116058506
168	0x3e09e4dc	0.13466209
169	0x3da502fb	0.08057209
170	0x3d5f816c	0.054566786
171	0x3d4d4a99	0.05011997
172	0xbe228c77	-0.15873896
173	0x3d82aaf3	0.06380262
174	0xbe1db5fa	-0.1540145
175	0x3be83797	0.007086705
176	0xbdc74f9b	-0.097319804
177	0xbe779a5a	-0.24179974
178	0xbe46ef9f	-0.19427346
179	0xbe04a0ca	-0.12951961
180	0x3e19c8a3	0.15017943
181	0xbe090364	-0.133802
182	0x3d500c13	0.050792765
183	0x3de1ef51	0.11031974
184	0xbdb1050d	-0.086435415
185	0x3d32ebb3	0.04368181
186	0x3e0817ab	0.13290279
187	0x3d44a7ba	0.04801152
188	0xbd4cac01	-0.049968723
189	0xbe3c32d6	-0.18378767
190	0x3df3fe6e	0.11913763
191	0x3e110eb8	0.14165771
192	0x3d7fff18	0.062499136
193	0xbdc9d8ae	-0.098557815
194	0x3dfe79f7	0.12425607
195	0xbe1fcddf	-0.15605877
196	0x3d9ee722	0.07758929
197	0xbdbf6567	-0.09345513
198	0xbe9224cb	-0.28543696
199	0xbd3042ca	-0.043032445
200	0xbc8793d7	-0.016549988
201	0x3dedea82	0.116169944
202	0x3e139890	0.14413667
203	0x3dba3e6e	0.09093939
204	0x3cefb368	0.029260352
205	0xbd94c26e	-0.07263647
206	0x3b3e23ad	0.0029012964
207	0x3de10faa	0.10989316
208	0xbd992366	-0.07477455
209	0xbe0a6c30	-0.13517833
210	0x3cdd3e07	0.027007116
211	0x3dedf9f3	0.1161994
212	0x3d68a179	0.056794617
213	0x3a3ce5de	0.0007205884
214	0xbd81784e	-0.063217744
215	0x3e87a6cb	0.2649444
216	0x3d6b8681	0.05750132
217	0xbdb625ad	-0.08893905
218	0x3d501c31	0.050808135
219	0x3cb24b35	0.021764377
220	0x3e02f110	0.1278727
221	0xbe0821f4	-0.13294202
222	0xbdc54707	-0.09632688
223	0x3e5b2939	0.21402444
224	0x3c211efa	0.009834046
225	0xbbd3d7d3	-0.0064649372
226	0x3dbdd3fa	0.09268947
227	0x3e27f6d4	0.16402751
228	0x3c9fc146	0.01950134
229	0x3da92035	0.08258096
230	0xbc93f0d7	-0.018059177
231	0x3de523af	0.11188447
232	0x3c36cbe3	0.011157009
233	0x3c43178c	0.0119074695
234	0x3dc57cfc	0.096429795
235	0xbdd0c9db	-0.10194751
236	0xbdbc86b1	-0.09205378
237	0xbd4b5c76	-0.049648724
238	0x3da4cbe3	0.08046701
239	0x3be22718	0.006901633
240	0xbba65d9d	-0.0050770775
241	0xbd0dd82e	-0.034629993
242	0xbce06af8	-0.027394757
243	0x3e4a5c39	0.19761743
244	0x3dacef72	0.08444108
245	0xbdcaf245	-0.099094905
246	0xbdef8427	-0.11695128
247	0x3b62808d	0.0034561486
248	0xbe010726	-0.12600383
249	0xbd10aa99	-0.035318945
250	0xbc73f5b7	-0.014890126
251	0x3cb3cd9e	0.021948632
252	0xbe1184c5	-0.14210804
253	0xbe11551b	-0.14192621
254	0xbe7254f0	-0.23665214
255	0xbd49bc65	-0.049251933

linear2.weight f4 [256, 256]
0	0x3e378fa4	0.17925888
1	0xbb2b08d9	-0.0026097803
2	0xbd6ccb33	-0.057810973
3	0x3d9e6921	0.077348955
4	0x3ddb3d3f	0.10705041
5	0x3d231d71	0.039823
6	0xbe43ee1f	-0.19133805
7	0x3d6fb504	0.05852224
8	0xbe3e599c	-0.18588871
9	0xbc0c994e	-0.008581473
10	0xbdac45eb	-0.08411773
11	0xbccbd968	-0.02488394
12	0x3d482db0	0.048871696
13	0x3e0453f1	0.12922646
14	0xbd16c639	-0.036810134
15	0x3d8647ee	0.06556688
16	0xbdc02517	-0.09382074
17	0xbcb5169d	-0.02210551
18	0xbd80148b	-0.06253918
19	0x3e8f7151	0.2801614
20	0xbf137d69	-0.57613236
21	0xbda1cbe7	-0.079002194
22	0x3e51ad81	0.20476343
23	0x3d276c5e	0.04087483
24	0x3d82612b	0.063661896
25	0x3cb0637e	0.021531817
26	0x3e80cb10	0.25154924
27	0xbc86ecd3	-0.016470348
28	0xbe236274	-0.15955526
29	0xbd63eade	-0.05564391
30	0x3edc0f07	0.42980215
31	0x3bd3021a	0.0064394595
32	0xbd82cfb2	-0.06387271
33	0xbebf8e20	-0.3741312
34	0x3e1bfc88	0.15233052
35	0xbd40a2b4	-0.047030166
36	0x3d5c447a	0.05377624
37	0xbd6c534e	-0.057696633
38	0xbea8ee93	-0.32994518
39	0x3df59e9a	0.119931415
40	0x3e58e769	0.21182026
41	0x3ccf07cd	0.025272274
42	0x3dc0a029	0.09405548
43	0x3dd5faa9	0.104482
44	0x3cd3c5c4	0.025851138
45	0x3d81888d	0.06324873
46	0x3d6991dd	0.05702387
47	0xbdd89fc0	-0.10577345
48	0x3d172cad	0.03690784
49	0xbe36956a	-0.17830434
50	0xbd840596	-0.06446378
51	0xbe104d60	-0.14092016
52	0x3d9d3102	0.07675363
53	0x3d7848a7	0.06061616
54	0x3e360ce7	0.1777836
55	0xbd172503	-0.03690053
56	0xbcd38756	-0.02582137
57	0xbd516e8c	-0.051130816
58	0xbe976b74	-0.29574168
59	0xbe58d9a7	-0.21176778
60	0x3d852118	0.06500453
61	0xbc82e7e9	-0.015979724
62	0xbda07144	-0.07834104
63	0xbced4593	-0.02896384
64	0xbe088f6e	-0.13335964
65	0x3e0dd28c	0.13849849
66	0x3c9fe4ac	0.019518219
67	0xbee226b4	-0.44170153
68	0x3dc33f3b	0.09533545
69	0xbe253944	-0.16135126
70	0x3d1498b6	0.03627845
71	0x3cbab45d	0.022791082
72	0x3e17d4a4	0.1482721
73	0x3cf80174	0.03027413
74	0xbd535e59	-0.05160365
75	0xbd22e725	-0.039771218
76	0x3eeb3b45	0.45943657
77	0xbd164d50	-0.036694825
78	0xbd3b94ab	-0.045796078
79	0xbe698a49	-0.22806658
80	0x3d4532d2	0.04814417
81	0x3cb003cd	0.021486187
82	0x3db8163c	0.08988616
83	0x3db0690b	0.08613785
84	0x3baee598	0.0053374283
85	0xbda0d93b	-0.078539334
86	0xbde0b158	-0.10971326
87	0xbf10ca14	-0.56558347
88	0x3d0b6343	0.03403021
89	0x3d76509b	0.060135465
90	0xbe025d34	-0.12730867
91	0xbd0972c1	-0.033556703
92	0x3e0d6094	0.13806373
93	0x3d8c92c7	0.06863933
94	0xbec9d912	-0.39423424
95	0xbddda22f	-0.1082195
96	0x3d4ced71	0.05003113
97	0x3c54daf5	0.012991657
98	0xbd3dd6cf	-0.046347436
99	0x3db5f706	0.088850066
100	0xbcad87a6	-0.021182846
101	0xbc250da0	-0.010074049
102	0xbda859d3	-0.082202576
103	0xbdcf56c8	-0.10123974
104	0xbb0c0458	-0.0021364894
105	0x3ce14dfa	0.027503002
106	0x3e8bd86c	0.27313554
107	0xbcd895d0	-0.026438624
108	0xbe095dad	-0.1341464
109	0xbd66a0c1	-0.05630565
110	0xbdb7ec95	-0.08980671
111	0x3e076d9b	0.13225405
112	0xbe152625	-0.14565332
113	0x3e0a289d	0.13492055
114	0xbd960c4e	-0.07326566
115	0xbe8860a5	-0.26636234
116	0xbd953f29	-0.072874375
117	0x3ea6e65a	0.3259762
118	0xbd7792d8	-0.060442775
119	0x3e3201ec	0.17383546
120	0x3e589266	0.21149597
121	0xbd09928f	-0.033587035
122	0xbe8bfeb0	-0.2734275
123	0x3d992667	0.07478028
124	0x3d848d51	0.064722665
125	0xbd987232	-0.07443656
126	0x3e4da7e4	0.20083576
127	0xbcdf2ca3	-0.027242964
128	0x3db6d7cd	0.089278795
129	0x3d8a0fc1	0.06741286
130	0x3dfd3fb1	0.12365664
131	0xbd18bffa	-0.037292458
132	0xbd25b6d3	-0.040457558
133	0xbdc6c78b	-0.097060286
134	0xbd1ed3cb	-0.0387762
135	0x3df557eb	0.1197966
136	0xbdcdc661	-0.100476034
137	0x3d960c44	0.07326558
138	0x3d9cb9dd	0.07652638
139	0x3c47a396	0.012184998
140	0x3a519f48	0.0007996452
141	0x3db945d0	0.09046519
142	0x3da07c49	0.078362055
143	0x3eae78cf	0.34076545
144	0xbc29d02c	-0.010364573
145	0xbcc584d1	-0.024111183
146	0xbe25ead6	-0.16202864
147	0xbc15583e	-0.009115277
148	0x3e2197ae	0.15780517
149	0x3dbddf01	0.0927105
150	0x3d857443	0.06516316
151	0xbdcd1f1b	-0.100156985
152	0x3d193a70	0.037409246
153	0x3ab7a3af	0.0014010574
154	0xbe61ebc3	-0.22062592
155	0x3dbfae3a	0.09359403
156	0xbd02ec7a	-0.031963803
157	0x3e0a27b0	0.13491702
158	0xbdb82237	-0.08990901
159	0xbda951ae	-0.08267532
160	0x3d1fb204	0.03898813
161	0x3dba45eb	0.09095367
162	0xbd3d3a48	-0.04619816
163	0xba40a5e9	-0.0007348941
164	0x3d0a0681	0.03369761
165	0xbd6b6973	-0.05747361
166	0xbd3f26dd	-0.046667922
167	0xbd91e715	-0.071241535
168	0xbda34ad4	-0.07973257
169	0x3d942db2	0.07235278
170	0x3cfd2303	0.030900484
171	0xbe40202a	-0.1876227
172	0xbe274eea	-0.16338697
173	0xbcb998e3	-0.02265591
174	0xbece54eb	-0.40299162
175	0xbc881570	-0.016611785
176	0xbd608ac0	-0.054819822
177	0xbd039af2	-0.03213019
178	0xbd713d81	-0.058896545
179	0xbd9b3484	-0.07578376
180	0x3e0994e3	0.13435702
181	0xbd301c93	-0.042996
182	0xbdd3a2eb	-0.103338085
183	0xbedce899	-0.43146208
184	0x3ecacc01	0.39608768
185	0x3d69ae40	0.057050943
186	0xbda72013	-0.081604145
187	0x3e316df2	0.17327097
188	0x3cf23b19	0.029569196
189	0xbe99cae0	-0.30037594
190	0xbce78a5a	-0.028264213
191	0x3d84bf03	0.06481745
192	0xbd28d7c7	-0.041221406
193	0x3c03a1f0	0.008034214
194	0xbd566a1f	-0.0523473
195	0x3e40ecbd	0.18840308
196	0xbdff3c7e	-0.1246271
197	0x3e042d49	0.129079
198	0x3d03113a	0.03199885
199	0x3e26099d	0.16214605
200	0x3e0ac4f1	0.1355169
201	0xbdcd71a6	-0.10031442
202	0xbde0f87e	-0.10984896
203	0x3eb8c547	0.3608801
204	0xbd11bf0f	-0.0355826
205	0x3e96c8e4	0.29450142
206	0xbe607279	-0.21918668
207	0x3bbc6364	0.005749153
208	0xbcbc153a	-0.02295934
209	0x3dd556f0	0.10416973
210	0x3cb57fc5	0.022155652
211	0x3e406253	0.18787508
212	0x3de1910b	0.11013993
213	0xbc923aa5	-0.01785023
214	0x3dd7d605	0.10538868
215	0x3d14aa94	0.03629549
216	0x3d79ce79	0.060987923
217	0xbe20f146	-0.15717039
218	0xbd606b7d	-0.05479001
219	0x3d1a5850	0.037681878
220	0xbe1fcc9a	-0.15605393
221	0xbc89fdb2	-0.016844604
222	0x3d259410	0.040424407
223	0xbc5ac035	-0.01335149
224	0x3d89dc18	0.06731433
225	0xbd13956d	-0.036031175
226	0x3db7b234	0.089695364
227	0x3e168af3	0.14701442
228	0xbc80999b	-0.015698245
229	0xbd4d3d78	-0.05010745
230	0x3e1d7d76	0.15379891
231	0x3cd4c7ff	0.025974272
232	0xbd97b77f	-0.07408046
233	0xbce788a4	-0.028263398
234	0xbd8e3574	-0.06943789
235	0x3d8ea860	0.06965709
236	0x3d922f8d	0.07137976
237	0x3e15aa92	0.14615849
238	0x3dac49c7	0.084125094
239	0xb959ae99	-0.00020759775
240	0xbd780923	-0.06055559
241	0x3e2024d0	0.15639043
242	0xbebe676c	-0.3718828
243	0xbe1c13b7	-0.15241896
244	0x3e42120e	0.189522
245	0x3ba35c2e	0.004985354
246	0x3e562108	0.20911038
247	0x3c01a1a1	0.0079120705
248	0xbda90a56	-0.082539245
249	0xbd30e8a5	-0.043190617
250	0xbc3abc36	-0.011397412
251	0x3c6cfb51	0.014464215
252	0x3bf537c9	0.0074834567
253	0x3d174efc	0.03694056
254	0x3c12e7a1	0.008966357
255	0x3e5d3814	0.21603423

linear2.bias f4 [256]
0	0xbd1fc3c9	-0.039005075
1	0x3cff6f6c	0.03118106
2	0x3d221ccf	0.039578255
3	0x3d64ff38	0.055907458
4	0xbdf49296	-0.119420215
5	0x3ccb201a	0.02479558
6	0x3b5a6d22	0.0033329208
7	0xbda03fb7	-0.07824653
8	0x3cdc1b20	0.026868403
9	0xbd818d59	-0.06325788
10	0xbd0d9522	-0.034566052
11	0x3c891a93	0.016736304
12	0x3daa8023	0.083252214
13	0x3d271249	0.040788922
14	0x3d986e82	0.07442953
15	0xbd5e4f56	-0.05427488
16	0xbc3b5e30	-0.01143603
17	0x3d2b473f	0.041815992
18	0x3d4b3404	0.049610153
19	0xbd9512fb	-0.07279011
20	0xbd812fa0	-0.06307912
21	0x3d455f37	0.048186507
22	0x3d5299a3	0.05141605
23	0x3ca4aa41	0.020100715
24	0xbc8563ec	-0.016282998
25	0xbb179fb9	-0.0023135974
26	0x3db51a37	0.08842891
27	0xbd3a04ac	-0.04541461
28	0xbd07ffb0	-0.033202827
29	0xbd8afd4b	-0.06786593
30	0x3d7c49a1	0.061593655
31	0xbcf9bcc9	-0.030485528
32	0xbd3cc6c1	-0.046087984
33	0x3d3621fb	0.044466
34	0x3dac21c5	0.084048785
35	0x3c5a0ae1	0.013308258
36	0xbd37013e	-0.04467892
37	0xbd56f685	-0.052481193
38	0x3d561c1c	0.0522729
39	0x3dcccd12	0.100000516
40	0xbba96ad1	-0.005170204
41	0xbd31bada	-0.043391086
42	0x3a02dbde	0.0004991869
43	0xbcf616f3	-0.03004024
44	0x3c1c6778	0.009546153
45	0xbd7244f0	-0.059147775
46	0x3d68e0a3	0.056854855
47	0x3c9c3a1c	0.019070677
48	0xbd81b54d	-0.063334085
49	0x3d6ebf61	0.058287982
50	0xbd42bc6b	-0.04754297
51	0xbd1d97e2	-0.038474925
52	0x3dbc134b	0.09183367
53	0xbc436718	-0.011926435
54	0xbdc21c50	-0.094780564
55	0xbbb7874f	-0.005600847
56	0x3bc5550c	0.0060221013
57	0xbcfdc84c	-0.030979298
58	0xbd15900e	-0.036514334
59	0xba3d8d0c	-0.00072307955
60	0xbc9cc37b	-0.019136181
61	0x3c6abe62	0.014327617
62	0x3c0bd3e6	0.008534407
63	0x3c5fac4e	0.0136519205
64	0x3d7eaebc	0.06217836
65	0x3d994d2a	0.07485421
66	0x3cbc4fbc	0.022987239
67	0x3c6b6fb8	0.014369898
68	0x3c906d07	0.017630113
69	0xbc0795c2	-0.008275451
70	0xbb8f063c	-0.004364757
71	0xbe2da329	-0.16956772
72	0xbcb43d30	-0.022001833
73	0x3cdc8691	0.026919635
74	0xbdbc33ca	-0.091895655
75	0x3c0032c3	0.007824603
76	0x3d34718b	0.044053596
77	0x3b122650	0.0022300668
78	0x3cd552a3	0.02604038
79	0x3ccf5507	0.025309099
80	0xbc8b0164	-0.016968437
81	0x3c4375e0	0.011929959
82	0xbd2c240e	-0.042026572
83	0x3d913c4d	0.070915796
84	0xbd21f48e	-0.039539866
85	0xbc82eb31	-0.015981289
86	0x3d1c011f	0.038087007
87	0xbb8948ab	-0.004189571
88	0x3c2cc336	0.010544589
89	0xbd78a94d	-0.060708333
90	0xbb9508a4	-0.004548149
91	0x3c473d80	0.012160659
92	0xbd541a76	-0.051783048
93	0x3d692c6e	0.056927137
94	0x3d6cbed6	0.057799183
95	0xbd704ecf	-0.058668908
96	0x3cd427e6	0.025897931
97	0x3c627a82	0.013823153
98	0x38a5806a	7.891732e-05
99	0x3c7b14cb	0.015324782
100	0xbda56374	-0.0807561
101	0xbcb50267	-0.022095872
102	0x3c55a5f9	0.013040059
103	0x3d9e2407	0.077217154
104	0x3da4d19c	0.08047792
105	0xbbc093bd	-0.005876987
106	0x3c3388e4	0.01095793
107	0xbd0ab2c3	-0.033861887
108	0xbd846fa5	-0.06466607
109	0x3d009b32	0.031398006
110	0xbd153d29	-0.03643528
111	0xbd326984	-0.04355766
112	0xbce7fbc8	-0.0283183
113	0x3d115532	0.03548164
114	0x3d2a3aea	0.04156009
115	0xba4f3e24	-0.0007905683
116	0xbe08694d	-0.13321419
117	0x3d38815a	0.045045234
118	0xbd03c5cd	-0.03217106
119	0xbd54623e	-0.051851504
120	0xbb807c7c	-0.0039210897
121	0x3da5de68	0.08099061
122	0x3cb6db39	0.02232133
123	0x3cd1111e	0.025520857
124	0x3d1c7d72	0.03820557
125	0x3d299ed3	0.041411232
126	0xbd813f14	-0.06310859
127	0x3b93d2f1	0.00451123
128	0x3ca15ff3	0.019699072
129	0x3cce0568	0.025149062
130	0xbde5c46c	-0.11219105
131	0x3c47f8b1	0.012205289
132	0xbc9b0338	-0.018922433
133	0x3c4ddff3	0.012565601
134	0x3b84c0de	0.004051312
135	0xbd3db645	-0.046316404
136	0x3ca5d39c	0.020242505
137	0x3c134904	0.008989576
138	0xbd843400	-0.06455231
139	0xbe3b4c2d	-0.18290778
140	0xbc1395f0	-0.009007916
141	0xbcecae21	-0.028891625
142	0x3ce9614d	0.02848878
143	0xbd93eff2	-0.072235
144	0x3d0bc12a	0.034119762
145	0x3a81f359	0.0009914442
146	0x3c86a095	0.016433993
147	0x3ca4a43e	0.020097848
148	0x3d4b05bb	0.049566012
149	0x3c875733	0.016521072
150	0xbd051b53	-0.03249676
151	0x3d31bb2e	0.0433914
152	0xbc3c0656	-0.01147612
153	0xbce6b0fc	-0.028160565
154	0x3ca1534b	0.019693037
155	0x3d7c8a92	0.06165559
156	0xbca2a63e	-0.019854661
157	0x3b8e2dc3	0.0043389513
158	0x3c7b0350	0.015320614
159	0xbc8960b4	-0.016769744
160	0x3d94b323	0.0726073
161	0x3b832ec6	0.0040033786
162	0xb970aa3d	-0.00022951602
163	0xbc54e147	-0.012993163
164	0xbd2bb204	-0.041917816
165	0xbd21d078	-0.039505452
166	0xbd0d65f5	-0.034521062
167	0xbda6d98f	-0.08146965
168	0x3d0a5d9d	0.033780683
169	0xbcf552e2	-0.029946748
170	0xbd0ab617	-0.03386506
171	0xbb87f26c	-0.004148772
172	0x3d0489e7	0.032358076
173	0x3cd764a2	0.026293103
174	0xbda163ff	-0.07880401
175	0xbd24bf80	-0.04022169
176	0x3cf4f1ad	0.029900396
177	0x3d603186	0.05473473
178	0x3d85087b	0.06495758
179	0x3d47bb41	0.048762564
180	0xbd3c24e4	-0.04593362
181	0x3d55617d	0.052094925
182	0xbd6ea13f	-0.058259245
183	0x3d6bf7e8	0.05760947
184	0x3c6a727f	0.014309525
185	0xbd8a5760	-0.06754947
186	0xbcbd55d6	-0.023112219
187	0xbbc09b5f	-0.0058778967
188	0xbcbbfc90	-0.02294758
189	0xbda9432d	-0.08264766
190	0xba83713a	-0.0010028251
191	0x3d407c5f	0.04699361
192	0xbe050367	-0.12989579
193	0xbc9ea1c8	-0.019364253
194	0xbd56c3bf	-0.05243277
195	0x3a29dbe3	0.0006479604
196	0xbd5d6485	-0.05405094
197	0x3d0deaaf	0.03464764
198	0xbb848987	-0.004044715
199	0x3bb54b79	0.0055326787
200	0x3cf984e9	0.030458884
201	0x3b97d3bd	0.0046333955
202	0x3d9fb492	0.07798113
203	0xbd285a96	-0.041102014
204	0x3d4a84c3	0.049443018
205	0x3d8f6e28	0.070034325
206	0xbe1db3a8	-0.15400565
207	0x3d47b1a7	0.048753407
208	0x3c8c81b7	0.017151697
209	0xbd2fa25c	-0.042879447
210	0xbda2c8f6	-0.079484865
211	0xbc062fa4	-0.008190069
212	0x3d3ebf16	0.046568953
213	0x3c4d639e	0.012535958
214	0xbd263184	-0.040574566
215	0x3d5ada2f	0.053430732
216	0xbd2b521c	-0.041826352
217	0x3d131825	0.035911698
218	0xbbb548d0	-0.0055323616
219	0xbdc79b18	-0.09746379
220	0x3d9e595b	0.07731887
221	0x3d95716a	0.07297023
222	0x3c8913cf	0.016733078
223	0xbd181765	-0.037131686
224	0x3da5402f	0.08068883
225	0x3cc34b3e	0.02383959
226	0x3d2a74e3	0.041615378
227	0x3db709f4	0.08937445
228	0x3cb9710a	0.022636909
229	0xbb7b0f04	-0.003830851
230	0x3d854f61	0.06509281
231	0xbd937a3f	-0.07201051
232	0xbd0a4ffb	-0.03376768
233	0xbc30ba0a	-0.010786543
234	0x3d122e5a	0.035688736
235	0xbb1965e6	-0.0023406683
236	0xbd033315	-0.032031137
237	0xbd529a14	-0.05141647
238	0xbd0df148	-0.03465393
239	0xbb110257	-0.0022126639
240	0x3d02d1cf	0.03193837
241	0x3da7954c	0.08182773
242	0x3d619181	0.055070404
243	0x3bbbf0d0	0.005735494
244	0x3d4e2675	0.050329644
245	0x3da8bfbd	0.08239696
246	0x3db3b9ce	0.08775674
247	0xbcf24585	-0.029574165
248	0x3c52d4fb	0.012868161
249	0x3d46160a	0.04836086
250	0x3d9498e4	0.07255724
251	0xbd54dad6	-0.05196651
252	0xbcac75fc	-0.021052353
253	0x3d077d1e	0.033078305
254	0x3c7becdc	0.015376296
255	0xbd14d016	-0.03633126

linear3.weight f4 [3, 256]
0	0x3f29a589	0.6626821
1	0xbd036393	-0.032077383
2	0x3da02818	0.07820147
3	0xbd637a06	-0.055536292
4	0xbfb0be02	-1.3807986
5	0x3cd50e1a	0.0260077
6	0x3d4db2dc	0.0502194
7	0xbd01056d	-0.031499315
8	0xbcc4ee60	-0.024039447
9	0xbcd9e3ea	-0.026597936
10	0x3f3dbf57	0.74120086
11	0xbdc2a619	-0.09504337
12	0xbc940421	-0.018068375
13	0x3e166940	0.14688587
14	0xbebc5bae	-0.36788696
15	0x3f5e7479	0.86896473
16	0x3e5ab0c6	0.21356496
17	0x3e15ae37	0.14617239
18	0x3f2a39ad	0.66494256
19	0xbc938149	-0.018005984
20	0x3cb43f5f	0.022002874
21	0x3c1a7d35	0.009429266
22	0xbda30155	-0.079592384
23	0xbd336176	-0.043794118
24	0x3d102001	0.03518677
25	0xbcbbb834	-0.022914983
26	0x3bb75d9b	0.0055958754
27	0xbca7f795	-0.020503798
28	0xbf215609	-0.63021904
29	0x3cec7479	0.028864132
30	0xbf0b3fdc	-0.54394317
31	0xbbd2454c	-0.0064169522
32	0x3aabffe1	0.0013122523
33	0xbf7d9319	-0.9905258
34	0xbdc493ac	-0.09598479
35	0x3e8158c4	0.25263035
36	0xbf0ce547	-0.5503735
37	0xbf3ba630	-0.73300457
38	0xbf8517b2	-1.0397856
39	0xbe6a22c6	-0.22864828
40	0x3d55c4fe	0.05218982
41	0xbd0af41b	-0.033924203
42	0xbdadaf47	-0.08480697
43	0xbc5a423b	-0.013321455
44	0xbd97bb0a	-0.07408722
45	0x3c94f859	0.018184828
46	0xbdf6ee21	-0.12057138
47	0x3d19971b	0.03749762
48	0xbcb2f7cd	-0.021846676
49	0xbda3c486	-0.07996468
50	0xbcad88ad	-0.021183336
51	0xbfb04bf0	-1.3773174
52	0xbddb4f55	-0.10708491
53	0xbd016725	-0.031592507
54	0x3e79d7ad	0.2439868
55	0x3df07cc2	0.11742546
56	0xbf292a40	-0.66080093
57	0x3f4addaf	0.7924451
58	0x3d0f279f	0.034949895
59	0xbde06eee	-0.10958658
60	0x3d118f00	0.035536766
61	0xbebbb967	-0.36664888
62	0xbf7d6619	-0.98983914
63	0xbec00262	-0.37501818
64	0xbdba9b1f	-0.09111618
65	0xbf22d45c	-0.63605285
66	0x3e19d704	0.15023428
67	0xbb59e9db	-0.003325096
68	0x3c95a3b3	0.018266534
69	0x3caa31df	0.020775734
70	0xbea54d3e	-0.32285494
71	0xbf5f0fae	-0.871333
72	0xbd3030e8	-0.04301539
73	0xbd7e32ee	-0.06206029
74	0xbcad1f27	-0.021133019
75	0xbe0c77d5	-0.13717587
76	0x3f54fc72	0.831977
77	0xbeb2ecc8	-0.34946275
78	0xbd931935	-0.07182542
79	0xbd138080	-0.03601122
80	0x3f0faad9	0.5612007
81	0xbd964839	-0.07337994
82	0x3f49edb1	0.78878313
83	0xbdc307d7	-0.0952298
84	0x3ea904c6	0.33011454
85	0x3b9bad7b	0.004750905
86	0xbaadc177	-0.001325651
87	0x3e4bf34b	0.19917028
88	0x3d829069	0.063752
89	0xbcefb2b8	-0.029260024
90	0x3e5778d5	0.21042188
91	0x3ee528ac	0.44757593
92	0x3cfaaed7	0.030600948
93	0xbdd256f9	-0.10270495
94	0xbdaf222f	-0.08551442
95	0x3d3065ad	0.043065716
96	0x3c3fae34	0.011699248
97	0xbd3e3bfd	-0.046443928
98	0x3f3da99a	0.74086916
99	0x3efa6ddb	0.48911938
100	0xbc9435d5	-0.018092075
101	0xbda3b287	-0.07993036
102	0xbc3e76dc	-0.011625018
103	0xbd517f7a	-0.05114696
104	0xbc177414	-0.009243984
105	0x3e956472	0.29178196
106	0xbc9ec787	-0.019382251
107	0x3f109471	0.56476504
108	0xbd65df72	-0.056121297
109	0xbe969f57	-0.29418442
110	0xbb2fe089	-0.0026836714
111	0x3d6b24c2	0.0574081
112	0xbf027baf	-0.50969976
113	0x3dce0464	0.10059431
114	0x3e0c1420	0.13679552
115	0x3ed0061a	0.40629655
116	0x3f7889f2	0.9708549
117	0xbd973010	-0.07382214
118	0x3d189fb1	0.03726167
119	0x3c245a03	0.010031226
120	0xbd460772	-0.048346944
121	0xbe745fc9	-0.23864664
122	0xbee05d27	-0.4382107
123	0xbd94cdf3	-0.07265844
124	0xbd640054	-0.055664375
125	0x3f3399e9	0.70156723
126	0x3d616a2d	0.055032898
127	0xbb70d1c0	-0.0036746114
128	0x3fcfe1f4	1.624083
129	0x3d5d3066	0.054001234
130	0xbf85d118	-1.0454435
131	0xbdbdbb9b	-0.092642985
132	0x3d32311e	0.043503873
133	0x3ef418f0	0.47675276
134	0x3edd8e0e	0.43272442
135	0xbf97e1bd	-1.1865765
136	0xbd6d4227	-0.057924416
137	0x3d534114	0.051575735
138	0xbf1b3d02	-0.60639966
139	0x3f229a15	0.6351636
140	0x3d32f448	0.043689996
141	0xbc2ab3f4	-0.010418881
142	0xbebe0f7d	-0.37121192
143	0xbcf0cea4	-0.029395409
144	0xbfa1adfc	-1.2631221
145	0x3c9fed2a	0.019522268
146	0x3c74444c	0.014908861
147	0xbe7521d5	-0.23938687
148	0x3e49211b	0.19641535
149	0xbda8f0f7	-0.082490854
150	0xbf5a5864	-0.85291123
151	0xbeb915af	-0.36149356
152	0x3f846f31	1.0346433
153	0x3d3dc704	0.046332374
154	0xbe839f36	-0.25707406
155	0xbdc1303d	-0.09433029
156	0xbd6c5e5b	-0.057707172
157	0x3ce0d582	0.027445558
158	0x3f82c72b	1.0217031
159	0xbc2c05ba	-0.010499412
160	0xbe1274fe	-0.14302441
161	0x3e15fbed	0.14646883
162	0x3f07ef46	0.5309948
163	0x3fc47cd4	1.5350595
164	0x3e9d7355	0.30752054
165	0xbc661ea3	-0.01404539
166	0x3bc43cf2	0.0059887106
167	0xbbfd5777	-0.007731374
168	0xbd0616ac	-0.032736465
169	0xbdab5434	-0.0836567
170	0x3d1af63e	0.03783249
171	0xbc093dd5	-0.008376558
172	0x3e4940dc	0.19653648
173	0x3bf43596	0.007452677
174	0xbc548a70	-0.012972459
175	0x3d415795	0.047202665
176	0xbcdee652	-0.027209435
177	0xbd87bd40	-0.066278934
178	0xbd4c440b	-0.04986958
179	0xbf294274	-0.66117024
180	0x3f8aa501	1.0831605
181	0x3c821201	0.015877726
182	0xbb97192c	-0.004611155
183	0xbf87e58c	-1.0616927
184	0x3ea9e153	0.3317972
185	0x3d0e185d	0.034691203
186	0x3c9586b2	0.018252704
187	0x3cb6cb80	0.022313833
188	0xbd860ad6	-0.065450355
189	0xbcdc2f32	-0.026877973
190	0xbc9317b2	-0.017955635
191	0xbd0f02e8	-0.03491488
192	0x3f1ffc6f	0.6249456
193	0xbce9245e	-0.028459724
194	0x3a0201ff	0.0004959404
195	0x3d260ed7	0.040541496
196	0x3b0d6b83	0.0021578975
197	0xbee0ff7c	-0.4394492
198	0x3ef58f3e	0.47960848
199	0xbf3134b0	-0.6922102
200	0xbd8831b8	-0.06650108
201	0xbd1180d7	-0.035523262
202	0xbd605cf1	-0.054776136
203	0x3ea87a9c	0.32906044
204	0xbce75c1a	-0.02824216
205	0x3dd6603c	0.10467574
206	0xbf8f223f	-1.1182326
207	0x3e305463	0.17219691
208	0x3de03633	0.10947838
209	0x3cdb9b31	0.0268074
210	0xbcadecb5	-0.021231035
211	0xbda40fe7	-0.08010846
212	0xbdddc724	-0.10828999
213	0x3c140c6f	0.0090361675
214	0xbd4f7c4e	-0.050655656
215	0xbd72b7fe	-0.0592575
216	0xbc919f64	-0.017776199
217	0x3d52bec7	0.05145147
218	0xbcecbd19	-0.028898763
219	0xbaa7fc69	-0.0012816313
220	0xbda9e79b	-0.08296128
221	0x3e783b31	0.2424133
222	0xbee94e5d	-0.455676
223	0x3cb45fba	0.022018302
224	0x3efbaf06	0.4915697
225	0x3e09659a	0.13417664
226	0xbd02dee8	-0.03195086
227	0xbd9ca738	-0.07649082
228	0x3e57119d	0.21002813
229	0x3ea80012	0.32812554
230	0xbd5dbcdb	-0.054135185
231	0x3d0799a8	0.033105522
232	0xbd702118	-0.05862531
233	0xbcabb166	-0.020958614
234	0xbd72bfa6	-0.0592648
235	0x3e895304	0.26821148
236	0x3dc17cc8	0.09447628
237	0x3ca69cd4	0.020338453
238	0xbe1a14ab	-0.15046947
239	0x3e5a5f33	0.21325378
240	0xbc8d543f	-0.017252086
241	0xbd0e5fc8	-0.034759313
242	0xbee63073	-0.4495884
243	0xbd1a3712	-0.037650175
244	0xbd9a7b73	-0.07543077
245	0xbd75a71c	-0.05997382
246	0x3ea61332	0.3243652
247	0x3c687e5f	0.0141902855
248	0xbdd45914	-0.10368553
249	0xbc3b6eb6	-0.01143997
250	0xbda90d27	-0.08254462
251	0xbb4d95ef	-0.0031369885
252	0xbbc66bf7	-0.006055351
253	0xbb8960dd	-0.004192455
254	0xbbc3bbac	-0.0059733
255	0x3c9ccabb	0.019139638

linear3.bias f4 [3]
0	0xbd7d65e1	-0.061864737
1	0xbca08249	-0.019593375
2	0xbcc39229	-0.023873406
